results/adaptive_epsilon_new/adaptive_epsilon_weights.pth (torch, 72498 bytes, 6 tensors)

fc1.weight f4 [128, 4]
0	0x3e2d13d2	0.16902092
1	0xbe41b998	-0.18918455
2	0x3f348fad	0.7053173
3	0x3d101c41	0.035183195
4	0xbd3487a8	-0.044074684
5	0xbce6a8a6	-0.02815659
6	0xbea3ffda	-0.32031137
7	0xbd8c553d	-0.068521954
8	0x3c31332e	0.010815425
9	0xbded466b	-0.11585697
10	0x3ee4bce3	0.4467536
11	0xbdaf305a	-0.08554144
12	0xbeda9c25	-0.42697254
13	0x3dfea606	0.1243401
14	0x3f2f230b	0.68412846
15	0x3efdfea8	0.4960835
16	0x3d353ab0	0.044245422
17	0xbcb40d6d	-0.021979058
18	0x415bf036	13.746145
19	0x3f51d89d	0.8197115
20	0xbe891917	-0.26776955
21	0x3df6f239	0.12057919
22	0x3e44c337	0.19215094
23	0x3e1b5ab5	0.1517132
24	0xbcaa3773	-0.020778393
25	0xbd7c6f7b	-0.061629754
26	0xbef4096b	-0.47663435
27	0xbd869600	-0.06571579
28	0x3c51813d	0.01278716
29	0x3a26a9e4	0.0006357713
30	0x3e196328	0.14979231
31	0xbdbbfe81	-0.09179402
32	0xbe98f084	-0.29871
33	0x3e79becb	0.24389188
34	0x3daac15a	0.0833766
35	0xbbd11941	-0.0063811843
36	0xbd1ea760	-0.03873384
37	0xbd0ee464	-0.03488578
38	0xbf2f4791	-0.68468577
39	0xbf061cbc	-0.52387595
40	0x3cda5466	0.026651572
41	0x3dbb8a02	0.09157182
42	0xbea5a60d	-0.3235325
43	0x3e6887b3	0.22708015
44	0x3dffee04	0.1249657
45	0xbe69de9a	-0.22838822
46	0xbf4f47ae	-0.8096875
47	0xbf20ca29	-0.6280847
48	0x3db7cade	0.08974241
49	0xbdb13463	-0.0865257
50	0xbec70716	-0.38872594
51	0xbe7be377	-0.2459849
52	0xbe326e4c	-0.17424887
53	0xbda6d2fb	-0.0814571
54	0xbd94c058	-0.07263249
55	0xbc3dff87	-0.011596567
56	0xbe6581bf	-0.22412775
57	0x3d280a84	0.041025653
58	0x3f142c84	0.57880425
59	0x3e63aa0a	0.22232834
60	0xbece0b3f	-0.40242955
61	0xbca68c7a	-0.020330656
62	0xbdbb790e	-0.09153949
63	0x3e7aa761	0.24477912
64	0x3df93a63	0.121693395
65	0x3d161a89	0.0366464
66	0x3f0ad66f	0.5423345
67	0xbe23d7b8	-0.16000259
68	0x3ca6122b	0.020272335
69	0xbd59d286	-0.053179286
70	0xbe91b378	-0.28457236
71	0xbdade676	-0.084912226
72	0x3d02c93b	0.03193019
73	0x3e13032b	0.14356677
74	0x3f4bf482	0.79669964
75	0x3e9e9360	0.30971813
76	0xbdfad0cf	-0.12246858
77	0x3eb8703d	0.3602313
78	0xbe9ae7f6	-0.30255097
79	0x3dee7148	0.116427004
80	0x3df3455c	0.118784636
81	0x3cbbd777	0.02292989
82	0xbe2e1131	-0.16998746
83	0x3d9f396e	0.07774626
84	0x3e2cd16f	0.16876768
85	0x3da2a165	0.0794094
86	0x3ebdce01	0.3707123
87	0xbe2f2a98	-0.17106092
88	0xbcc90a3f	-0.024541019
89	0xbdd67966	-0.10472374
90	0x3eb7ecdd	0.359229
91	0x3deb173a	0.114790395
92	0x3d7c5539	0.061604712
93	0x3dd30747	0.103041224
94	0x3ea5cf00	0.3238449
95	0xbdbb7b61	-0.09154392
96	0x3d16ca15	0.036813814
97	0x3da68d8a	0.08132465
98	0x3e6a9cd2	0.22911385
99	0xbe8034bb	-0.2504023
100	0xbd78243d	-0.060581435
101	0xbbaa9b3d	-0.005206494
102	0xbcff9bd1	-0.031202229
103	0x3d2b614e	0.041840844
104	0x3ea3b6de	0.31975454
105	0x3c005510	0.0078327805
106	0x3f4537dd	0.77038366
107	0x3d32982c	0.043602154
108	0x3dc75632	0.09733237
109	0xbd7e9370	-0.062152326
110	0x3e7511f4	0.2393263
111	0xbdc338e0	-0.095323324
112	0x3c9ef5ef	0.01940438
113	0xbd8cf12e	-0.06881939
114	0xbe036143	-0.12830071
115	0x3e346645	0.17617138
116	0xbe01011f	-0.12598084
117	0x3e4a00d4	0.19726878
118	0xbf02011f	-0.5078296
119	0x3e3c095b	0.18362944
120	0x3e540276	0.20704064
121	0xbe9091cb	-0.2823623
122	0x3f772310	0.96537876
123	0xbe6891da	-0.22711888
124	0x3e1efc63	0.15525965
125	0xbd7d90bc	-0.061905608
126	0x3f4221f4	0.7583306
127	0xbdb643c4	-0.08899644
128	0xbe30b4a7	-0.17256413
129	0x3db9928e	0.09061156
130	0x3f3df5c9	0.74203163
131	0x3e87c6b4	0.26518786
132	0xbe14c6a0	-0.14528894
133	0x3e3dbe7d	0.18529697
134	0x3fa050a5	1.2524611
135	0x3ec0601d	0.3757333
136	0xbdf0614d	-0.11737309
137	0x3e208777	0.15676676
138	0xc00bc5d8	-2.1839504
139	0x3efb4055	0.4907252
140	0xbe54735c	-0.20747131
141	0x3ddd5052	0.108063355
142	0xbe310329	-0.17286362
143	0x3e13a1e3	0.14417224
144	0x3e0ac640	0.13552189
145	0xbd9a1635	-0.07523767
146	0xbde05f2e	-0.10955654
147	0x3e900f79	0.28136805
148	0xbfdf1f2b	-1.7431387
149	0xbfbbfb0c	-1.4685988
150	0xc0afd804	-5.495119
151	0xbfde0e5e	-1.7348135
152	0xbd68fb84	-0.05688049
153	0x3de3e383	0.11127379
154	0x3e6d82e8	0.23194468
155	0x3e2d54a2	0.16926816
156	0xbddf5b31	-0.10906065
157	0x3e079e75	0.1324404
158	0xbe405f9c	-0.18786472
159	0x3dbbda01	0.0917244
160	0xbe7ffea3	-0.2499948
161	0x3dffb49d	0.12485621
162	0x3f18d452	0.59698975
163	0x3dad1f51	0.08453239
164	0x3e771493	0.24128942
165	0xbdb9a949	-0.09065492
166	0x3cc887c3	0.024478799
167	0x3dc8e0c3	0.09808495
168	0xbda00c07	-0.07814794
169	0x3d01f298	0.031725496
170	0xbe691dea	-0.22765318
171	0xbc6dd134	-0.01451521
172	0xbd8f961c	-0.07011053
173	0x3ea7ae56	0.32750195
174	0x3f31a4f3	0.6939232
175	0x3f0fd845	0.56189376
176	0x3e276189	0.163458
177	0xbd50b37e	-0.050952427
178	0xbe80eab4	-0.25179064
179	0x3d9488a7	0.07252627
180	0xbcecb552	-0.028895054
181	0x3d275e8e	0.04086166
182	0x3dfa5244	0.12222722
183	0x3d5c952b	0.053853195
184	0x3bee8609	0.007279162
185	0xbd9ca5b7	-0.07648795
186	0x3f36f2e0	0.7146435
187	0x3a347b27	0.0006884806
188	0xbebbd64a	-0.36686927
189	0x3d7afb06	0.06127455
190	0x3ebf9240	0.37416267
191	0x3e9339a7	0.28754923
192	0xbe57851f	-0.21046875
193	0x3e582fae	0.21111938
194	0x3f14d8b2	0.5814315
195	0x3e663661	0.22481681
196	0xbea4e242	-0.3220387
197	0x3e599e0d	0.21251698
198	0xbf3d5358	-0.739553
199	0x3e0ba023	0.13635306
200	0xbdba80b5	-0.0910658
201	0xbda26e14	-0.07931152
202	0xbf02c541	-0.51082236
203	0xbe1011a1	-0.14069225
204	0x3eb34cdb	0.35019574
205	0xbf55e1c6	-0.8354763
206	0xbee0c8c7	-0.4390318
207	0xbf513a60	-0.817297
208	0x3e5ca0f4	0.21545774
209	0xbd331fda	-0.043731548
210	0x3edf4ab7	0.4361169
211	0xbb38c1a3	-0.0028191588
212	0xbe299e5d	-0.16564317
213	0x3d47644a	0.048679627
214	0xbe9cf0b6	-0.30652398
215	0x3e8d6e2b	0.27623114
216	0x3e9afd3b	0.30271325
217	0xbe3af455	-0.18257268
218	0x3f2e5eea	0.6811358
219	0xbe1b8d15	-0.15190537
220	0xbd9b1692	-0.07572664
221	0xbe247e59	-0.16063823
222	0xbefa8cb6	-0.4893548
223	0xbe9fe3ca	-0.31228477
224	0xbe4afeaa	-0.19823709
225	0x3f08265f	0.5318355
226	0x3e249ca6	0.16075382
227	0x3f3ef0c1	0.7458611
228	0xbe9c7082	-0.30554587
229	0x3ed1ebe6	0.4100029
230	0xc0eea5ba	-7.4577303
231	0xbca474a9	-0.02007516
232	0xbe7d3386	-0.24726686
233	0xbe6e1346	-0.2324954
234	0xc10f5877	-8.959098
235	0xbeafc0cc	-0.3432678
236	0x3de6e223	0.11273601
237	0xbe8e2655	-0.2776362
238	0x3e3c773f	0.18404864
239	0xbe955cff	-0.29172513
240	0x3d32c0e6	0.043640994
241	0xbe47d05f	-0.19513081
242	0xbe9eacf5	-0.3099133
243	0xbd693e9d	-0.05694448
244	0xbe98cea6	-0.2984516
245	0xbe1c807c	-0.15283388
246	0x40d3521b	6.6037726
247	0xbe77f88f	-0.24215911
248	0xbdd4ca14	-0.10390106
249	0x3eca665f	0.39531228
250	0xc158278b	-13.509654
251	0xbfbff58f	-1.4996814
252	0xbd2bbc72	-0.041927762
253	0x3d852cc1	0.06502677
254	0xbe91eb80	-0.28499985
255	0xbf6682e3	-0.9004347

fc1.bias f4 [128]
0	0xbfb262cd	-1.3936402
1	0xbea4eb20	-0.32210636
2	0xbfc9a11e	-1.5752294
3	0xc0029d1f	-2.04084
4	0xc02b0d29	-2.6726782
5	0xbf89ad4a	-1.0756009
6	0xbebdd1b6	-0.3707406
7	0xbf3a8c7b	-0.72870606
8	0xbf937208	-1.1519175
9	0xbfe0b895	-1.755633
10	0xbfdfd213	-1.7485985
11	0xbfd62600	-1.6730347
12	0xbf4a8bf1	-0.79119784
13	0xbf6da658	-0.92831945
14	0xbf6c6660	-0.9234371
15	0xbfdd3a34	-1.7283387
16	0xbfafd73e	-1.3737562
17	0xbea84241	-0.32863048
18	0xbf802173	-1.0010208
19	0xbfdb4af9	-1.7132255
20	0xbf8af7d0	-1.0856876
21	0xbf91e0ae	-1.1396692
22	0xbfc23f22	-1.5175517
23	0xbf5d498e	-0.8644036
24	0xbfb37476	-1.4019916
25	0xbf30c651	-0.69052607
26	0xbf7131c3	-0.94216555
27	0xbf659806	-0.89685094
28	0xbfc52957	-1.5403241
29	0xbfc5321e	-1.540592
30	0xbf8f65cf	-1.1202945
31	0xbf5840de	-0.8447398
32	0xbf643244	-0.891392
33	0xbf8cd0df	-1.1001242
34	0xbfbc633b	-1.4717783
35	0xbf509ff9	-0.814941
36	0xbf95fc5e	-1.1717641
37	0xc027c335	-2.6212895
38	0xbf14daba	-0.5814625
39	0xbf8b0119	-1.085971
40	0xbf4d5662	-0.80209935
41	0xbf90f35e	-1.132427
42	0xbf5d465a	-0.8643547
43	0xbfa2c1d8	-1.2715406
44	0xbf190522	-0.5977346
45	0xbe504971	-0.20340516
46	0xbf854d46	-1.0414207
47	0xbfbf743e	-1.4957349
48	0xbf9e07d5	-1.234614
49	0xbfa32ad4	-1.2747445
50	0xbf2b11c0	-0.6682396
51	0xc037b77b	-2.8705738
52	0xbf21e959	-0.63246685
53	0xbf5cc421	-0.8623677
54	0xbfa3e0b5	-1.280295
55	0xbf870225	-1.054753
56	0xbfe7db77	-1.811385
57	0xc03dcc04	-2.9655771
58	0xc0555daf	-3.333843
59	0xbf65881c	-0.8966081
60	0xbf554785	-0.83312255
61	0xc03dc81f	-2.9653394
62	0xc043a397	-3.0568597
63	0xc04a4b4f	-3.1608465
64	0xbe9c5b0f	-0.30538222
65	0xbf9c9254	-1.2232156
66	0xbfbbf271	-1.4683362
67	0xbf58a40f	-0.84625334
68	0xbfb3500d	-1.4008805
69	0xbf68231c	-0.9067857
70	0xbfcc1700	-1.5944519
71	0xc01669f7	-2.3502176
72	0xbfeff7b3	-1.8747467
73	0xbfacbc80	-1.3495026
74	0xbf23fa9b	-0.6405427
75	0xc0240029	-2.5625098
76	0xbf102539	-0.563068
77	0xbfb88f32	-1.44187
78	0xc093acee	-4.6148596
79	0xbff76512	-1.9327719
80	0xbfa406a0	-1.2814522
81	0xc0109907	-2.25934
82	0xbf2b6a14	-0.6695874
83	0xbfa31022	-1.2739298
84	0xbf9e1eda	-1.2353165
85	0xbf9c74f9	-1.2223197
86	0xc041b7c0	-3.0268402
87	0xc019300d	-2.3935578
88	0xbfba9170	-1.4575634
89	0xc0275eb6	-2.6151557
90	0xbf8bfc40	-1.0936356
91	0xbfc4e9d2	-1.5383856
92	0xbf8512d9	-1.0396377
93	0xbf57384b	-0.8407027
94	0xbf911e27	-1.1337327
95	0xbf91299d	-1.1340824
96	0xbfd09ad8	-1.6297255
97	0xbf65fb78	-0.89836836
98	0xbfbfeb11	-1.4993612
99	0xbf3895ce	-0.72103584
100	0xc08ddb43	-4.4330153
101	0xbf9fd688	-1.2487345
102	0xbf8bf3f5	-1.0933825
103	0xbf735b05	-0.9506076
104	0xbf1dcea5	-0.6164344
105	0xbe250f71	-0.16119172
106	0xbfd26e5b	-1.6439928
107	0xbf83d7d1	-1.0300237
108	0xc01105f4	-2.2659883
109	0xbf9fad6a	-1.2474797
110	0xbf62a239	-0.8852878
111	0xbf2cee26	-0.67550886
112	0xbf34569d	-0.7044466
113	0xbf93be54	-1.1542459
114	0xbf9bd74b	-1.2175077
115	0xbfaef1b9	-1.3667518
116	0xbf943657	-1.1579083
117	0xbf87884f	-1.0588473
118	0xbfbdf4d2	-1.4840338
119	0xbfaff065	-1.3745238
120	0xbf1ead7a	-0.61983454
121	0xbf46105e	-0.77368724
122	0xbf9b9c38	-1.2157049
123	0xbf2c34e5	-0.6726821
124	0xbf90f156	-1.132365
125	0xc0130e65	-2.2977536
126	0xbf6e3f06	-0.93064916
127	0xbf4f7811	-0.8104258

fc2.weight f4 [128, 128]
0	0x3e044f70	0.12920928
1	0xbd70471d	-0.05866157
2	0x3b97a9a7	0.0046283784
3	0xbe6457be	-0.22299096
4	0xbdd2788e	-0.102769
5	0x3d47a3d8	0.048740238
6	0xbdd0528f	-0.10171997
7	0xbc8d5592	-0.017252717
8	0x39c6aaa2	0.00037892634
9	0xbe09cb8c	-0.13456553
10	0x3d87d73f	0.06632852
11	0x3b9031a0	0.004400447
12	0xbdc456cd	-0.095868684
13	0xbb925900	-0.004466176
14	0x3e0a52c2	0.13508132
15	0xbd328a6c	-0.04358904
16	0xbc6a24a2	-0.0142909605
17	0xbddaec90	-0.10689652
18	0xbdb7cc89	-0.08974559
19	0x3bb8a1f6	0.0056345416
20	0x3c1c4368	0.009537555
21	0xbd904c65	-0.07045821
22	0xbe278421	-0.16358997
23	0xbe439d38	-0.19102943
24	0xbbecaba0	-0.0072226077
25	0xbdcc159c	-0.09965059
26	0xbd6523b7	-0.055942263
27	0x3bce3bf1	0.0062937667
28	0x3cb611b3	0.022225237
29	0xbddf0222	-0.10889079
30	0xbd318026	-0.043335102
31	0xbd6c7eff	-0.0577383
32	0xbb94be12	-0.0045392597
33	0xbd5ac699	-0.053412054
34	0xbd6cc07e	-0.057800762
35	0xbd805d67	-0.06267815
36	0xbe2be5e3	-0.16786914
37	0xbe93209f	-0.28735825
38	0x3c98a242	0.018632058
39	0xbc0df55e	-0.008664457
40	0xbda74414	-0.08167282
41	0xbd0a2ab0	-0.033732116
42	0x3da6eaf3	0.08150282
43	0xbc259a00	-0.010107517
44	0x3c785e0f	0.015159144
45	0x3c4a1b39	0.012335592
46	0xbd8c6796	-0.06855695
47	0xbd66e50e	-0.056370787
48	0xbc17ba8e	-0.009260787
49	0xbe49ab17	-0.19694172
50	0x3d3e20e3	0.046418082
51	0x3d6fe8ab	0.0585715
52	0xbc5d84ac	-0.013520401
53	0xbdc60390	-0.09668648
54	0xbe2c23f4	-0.1681059
55	0x3c955ace	0.018231776
56	0xbd1b2072	-0.03787274
57	0xbe157a87	-0.14597522
58	0xbc80d01b	-0.015724232
59	0xbdb4b3de	-0.088233694
60	0xbda5f09c	-0.08102533
61	0xbe54a473	-0.20765857
62	0xbd695023	-0.05696119
63	0xbde28e8c	-0.11062345
64	0xbd830af5	-0.06398574
65	0x3c94393e	0.018093701
66	0x3dbcd9d3	0.09221234
67	0xbcf17f25	-0.029479573
68	0x3d9ea3bb	0.07746073
69	0xbdace9a7	-0.08443003
70	0xbba20890	-0.0049448684
71	0xbd5cd245	-0.053911466
72	0x3d0dc945	0.034615774
73	0xbbd2b981	-0.006430805
74	0xbd7e6f96	-0.062118135
75	0xbca64e9f	-0.020301161
76	0xbd7f1539	-0.0622761
77	0xbcf2b08a	-0.029625196
78	0xbc4e837c	-0.0126045905
79	0xbddc144b	-0.10746058
80	0xbddce270	-0.10785377
81	0xbd7ba164	-0.06143321
82	0x3d4f2500	0.050572395
83	0xbdb31065	-0.087433614
84	0xbdc81623	-0.09769847
85	0xbd8d8f72	-0.06912126
86	0xbe04bfd4	-0.12963802
87	0xbec11a85	-0.37715545
88	0x3d888f43	0.0666795
89	0xbd8727fd	-0.06599424
90	0xbc6116e4	-0.013738368
91	0xbdcfab04	-0.101400405
92	0x3d067ff9	0.032836888
93	0x3be055e6	0.0068461774
94	0xbd60d34c	-0.05488901
95	0x3d61573b	0.05501483
96	0x3c68ddd0	0.0142130405
97	0x3ce9512f	0.028481094
98	0x3d84dc69	0.064873524
99	0x3d084d5f	0.03327691
100	0xbdd89be8	-0.10576612
101	0x3c774d68	0.015094139
102	0x3d90e8e1	0.07075668
103	0xbddc7886	-0.107651755
104	0xbdf6e4c0	-0.12055349
105	0xbdaf195c	-0.08549759
106	0x3c53ecc2	0.012934865
107	0x3d70449e	0.05865919
108	0xbce83e34	-0.028349973
109	0xbe157ab7	-0.14597593
110	0x3cbb9b4d	0.022901202
111	0xbdafcba7	-0.085837655
112	0xbd5af324	-0.053454533
113	0xbdd5bad5	-0.10436026
114	0xbda7510a	-0.08169754
115	0xbdc10b0c	-0.09425935
116	0x3a4217c7	0.0007404056
117	0xbe59f7e8	-0.21285975
118	0xbeb31204	-0.34974682
119	0xbc927e12	-0.01788238
120	0xbdc28d0f	-0.09499561
121	0xbcd52800	-0.02602005
122	0xbd52e42f	-0.051487144
123	0x3c0a5e6f	0.008445366
124	0xbddfaaaa	-0.109212235
125	0xbdb18571	-0.0866803
126	0xbd38f829	-0.04515854
127	0xbcf72b46	-0.030172002
128	0x3ddb1527	0.10697394
129	0x3d6e8d0d	0.058239985
130	0xbd00145a	-0.03126941
131	0x3ada8c80	0.0016673952
132	0xbd85d560	-0.06534839
133	0x3cdcc8f0	0.026951283
134	0xbe06c8b3	-0.13162498
135	0xbdb5e484	-0.088814765
136	0xbdc38557	-0.09546917
137	0xbda59736	-0.08085482
138	0xbd7f94f2	-0.062397905
139	0x3d4d9eca	0.05020026
140	0x3d804a39	0.06264157
141	0x3a49b729	0.00076948345
142	0xbd6f91a7	-0.058488514
143	0x3a448796	0.00074970105
144	0xbdbfa316	-0.09357278
145	0x3d3394a5	0.04384293
146	0xbd91b3f2	-0.071144
147	0xbd5197b2	-0.05117006
148	0xbe0df05b	-0.1386122
149	0x3d45d314	0.048297003
150	0xbda8f3d4	-0.082496315
151	0xbcb7a11b	-0.022415688
152	0x3c6b8c90	0.014376774
153	0x3d36cbc7	0.04462793
154	0xbe9a483c	-0.30133235
155	0xbc15ffc7	-0.00915522
156	0x3cf52574	0.029925086
157	0xbb453670	-0.0030092262
158	0xbd020d1e	-0.03175079
159	0x3d9259f6	0.07146065
160	0xbd2e648d	-0.04257636
161	0x3d5340e4	0.051575556
162	0x3c0ce438	0.008599333
163	0x3caabbb5	0.020841459
164	0xbd8b99c2	-0.06816436
165	0xbb140fd4	-0.0022592442
166	0xbd3ccd45	-0.046094198
167	0xbdf5ac8b	-0.119958006
168	0xbc96e2e5	-0.018418739
169	0x3d92b5e5	0.071636
170	0xbc398068	-0.011322118
171	0x3daa10c5	0.0830398
172	0x3d58392d	0.052788902
173	0x3d3b60e3	0.045746695
174	0x3ca354f3	0.019937968
175	0x3d5a7721	0.053336266
176	0xbe0bf0ce	-0.13666078
177	0x3d64d82e	0.055870228
178	0x3d4c5aa0	0.049891114
179	0x3d2b47a2	0.04181636
180	0xbdf7365b	-0.12070914
181	0x3dd365cd	0.10322151
182	0x3d6b9f19	0.057524774
183	0xbc30b430	-0.010785148
184	0x3d98a2ea	0.074529484
185	0xbe76e875	-0.24112113
186	0x3c8d3fa3	0.017242258
187	0xbdbb0d38	-0.09133381
188	0xbda50a69	-0.08058626
189	0xbdc906d5	-0.09815756
190	0xbec40318	-0.3828361
191	0xbd9c7df0	-0.07641208
192	0xbd715c23	-0.05892576
193	0xbc1cd0d6	-0.009571275
194	0x3d34f498	0.044178575
195	0xbd9dd273	-0.07706156
196	0xbac22e00	-0.0014814734
197	0xbeb6a031	-0.3566909
198	0xbc24da08	-0.010061748
199	0xbd8d200e	-0.068908796
200	0x3d8e58c0	0.069505215
201	0xbc97a200	-0.018509865
202	0xbdb0ac13	-0.086265706
203	0xbba9a698	-0.00517733
204	0xbded4492	-0.115853444
205	0xbe91ac5e	-0.28451818
206	0xbd4955aa	-0.04915396
207	0x3d7f4a99	0.062327
208	0x3c084722	0.008317741
209	0x3b823829	0.00397398
210	0xbd906255	-0.07050005
211	0x3d341238	0.043962687
212	0x3da35688	0.07975489
213	0xbcb64a95	-0.02225236
214	0xbdb3fb6b	-0.087881885
215	0x3d5b2542	0.05350233
216	0x3ce335be	0.027735587
217	0xbd260211	-0.040529314
218	0xbde7c41c	-0.11316702
219	0x3ba5931d	0.0050529377
220	0xbd3e3848	-0.046440393
221	0xbd5d43bd	-0.05401968
222	0xbd820d08	-0.06350142
223	0xbd1f0f5d	-0.03883301
224	0xbe8a4287	-0.2700388
225	0xbc9118ad	-0.017711962
226	0xbd2da0ad	-0.04238956
227	0x3c60e301	0.013725997
228	0xbea46407	-0.32107565
229	0xbdc20878	-0.094742715
230	0xbdb3ca85	-0.08778862
231	0xbdd9cbcf	-0.106345765
232	0xbd02e853	-0.031959843
233	0xbda80f97	-0.082060985
234	0xbd0f499f	-0.03498232
235	0x3c441008	0.011966713
236	0xbdb38dd4	-0.08767286
237	0xbd7e0012	-0.062011786
238	0x3cd2a5bc	0.025713794
239	0xbd151d89	-0.03640512
240	0xbd89a6a0	-0.06721234
241	0x3ced8f3e	0.028998967
242	0xbc81b320	-0.015832484
243	0xbd67569c	-0.05647908
244	0xbdae6ba8	-0.085166276
245	0xbcdacea8	-0.02670987
246	0xbcfaeaea	-0.030629594
247	0x3ce466aa	0.027880985
248	0xbdc98326	-0.09839468
249	0xbb4872e7	-0.0030586065
250	0xbd8dd525	-0.0692542
251	0xbd26d4b0	-0.04073018
252	0xbdb81353	-0.08988061
253	0xbdd3abf8	-0.10335535
254	0xbe81704e	-0.25280994
255	0x3d881f89	0.0664664

fc2.bias f4 [128]
0	0xbd4df05c	-0.050278053
1	0xbec2381b	-0.3793343
2	0xbf718fd1	-0.9436007
3	0xbe5074c5	-0.20357044
4	0xbf2488dd	-0.64271337
5	0x40596dba	3.3973222
6	0xbefaf7d6	-0.4901721
7	0xbeb17f13	-0.34667262
8	0xbe36be86	-0.17846116
9	0xbe21d65d	-0.1580443
10	0xc0298151	-2.6485178
11	0xbe25deed	-0.1619832
12	0xbe508fd3	-0.20367365
13	0xbebd8529	-0.37015656
14	0xc0c4f885	-6.155337
15	0xbed31c53	-0.41232547
16	0xbe83b10c	-0.25721014
17	0xbfb75285	-1.4322058
18	0xbda5bb03	-0.0809231
19	0xbf86fd32	-1.0546019
20	0x406e22ee	3.720882
21	0xbeabd24d	-0.33558884
22	0xbf04d236	-0.51883256
23	0x40990a93	4.782541
24	0xbe822239	-0.25416735
25	0xbf051cd7	-0.5199713
26	0xbdd60bfb	-0.10451504
27	0x405307dd	3.297355
28	0xbeb9b0e9	-0.36267784
29	0xc039d6ce	-2.9037356
30	0xbec90e47	-0.39268705
31	0xbead382b	-0.33831915
32	0xbfe9db10	-1.8269978
33	0xbf22d987	-0.6361317
34	0x40ab05a6	5.3444395
35	0xbeaa9b6d	-0.33321705
36	0xc08d6404	-4.418459
37	0xbef9763d	-0.4872302
38	0xbee8eaf9	-0.4549177
39	0xbee1bc39	-0.44088915
40	0xbf0b054b	-0.5430495
41	0xbfa83c88	-1.3143473
42	0xbd8d80ef	-0.06909358
43	0xc05f2b29	-3.4870093
44	0xbf8e79e5	-1.1130949
45	0xbebc994d	-0.3683571
46	0xbde89db4	-0.113582045
47	0xbef2e2af	-0.4743857
48	0xbe87ea33	-0.26545867
49	0x402e1207	2.7198503
50	0xbebc743d	-0.36807433
51	0xbda4eba1	-0.08052755
52	0xbde4a5ba	-0.11164422
53	0xbeed5675	-0.46355024
54	0xbd941bc4	-0.072318584
55	0xbd3859a0	-0.045007348
56	0xbd85c1c1	-0.06531096
57	0x4098e6a9	4.7781568
58	0xbeab1d6c	-0.33420885
59	0xbec92633	-0.39286956
60	0xbf41d743	-0.7571909
61	0xbe45eb81	-0.19328119
62	0xbf1515f8	-0.58236647
63	0xc045c76d	-3.090297
64	0xbda0e4c4	-0.078561336
65	0xc03890f9	-2.8838484
66	0x4082116a	4.0646257
67	0xbdda380d	-0.10655222
68	0xbeae11f8	-0.33998084
69	0xbd3c67f0	-0.04599756
70	0xbebdd0ea	-0.3707345
71	0xbee24311	-0.44191793
72	0xbf0bb8bf	-0.54578775
73	0xc0269373	-2.6027496
74	0xbeb6caab	-0.35701498
75	0xbdc7f0af	-0.097627036
76	0xbef04bb0	-0.46932745
77	0xbe8a1a31	-0.26973107
78	0xbec95e5f	-0.39329812
79	0xbf8a9606	-1.0827034
80	0xbf870a2c	-1.0549979
81	0x405451de	3.3174968
82	0xbe4a3433	-0.19746475
83	0xbe7b8d81	-0.24565698
84	0xbedd3b2a	-0.432092
85	0xbec71e28	-0.38890195
86	0xbdc2e8a6	-0.095170304
87	0xbe99cb38	-0.30037856
88	0x407e3119	3.9717467
89	0xbee96fc9	-0.45593098
90	0xbf27e1ee	-0.65579116
91	0xbebbd476	-0.36685532
92	0xbf7fe4f9	-0.9995876
93	0xbfab644b	-1.3389982
94	0xbea0bf15	-0.31395784
95	0xbf9707bb	-1.1799234
96	0xc0493475	-3.1438267
97	0xbfb3f546	-1.4059227
98	0xbeb87f16	-0.3603446
99	0xbeb4eb12	-0.35335594
100	0xbda6a6d8	-0.08137292
101	0xbecc4ae2	-0.3990088
102	0x406ec731	3.7309077
103	0xbf13bd72	-0.57710946
104	0xbea22d92	-0.31675392
105	0xbebd12e3	-0.36928472
106	0xbeb4b9e4	-0.35298073
107	0xbed8a8f4	-0.423164
108	0xbdd8ee6b	-0.105923496
109	0xbee43f6d	-0.4457964
110	0xbddd4b0f	-0.10805332
111	0xbec2f23e	-0.3807544
112	0xbe2c6574	-0.16835576
113	0xbecf8703	-0.40532693
114	0x408488ac	4.1416836
115	0xbf147276	-0.57987154
116	0x3faf0b9d	1.3675419
117	0xbd75db00	-0.060023308
118	0xbe2629c4	-0.1622687
119	0xbea37cdb	-0.31931195
120	0xbf0a7b70	-0.540946
121	0xbec8bcb6	-0.39206475
122	0xbeb60ac2	-0.35555083
123	0xc093a35e	-4.6136923
124	0xc036e4a8	-2.857706
125	0x40934026	4.6015806
126	0xbe1860b3	-0.14880638
127	0x40307903	2.757386

fc3.weight f4 [2, 128]
0	0xbd23fc62	-0.040035613
1	0xbcc4b149	-0.024010317
2	0x3e8e7810	0.27825975
3	0x3e37a4c0	0.17933941
4	0x3e126c41	0.14299108
5	0xbffeb5b8	-1.9899206
6	0xbdda3346	-0.10654311
7	0x3d21bddd	0.03948771
8	0x3db8244f	0.089913
9	0xbdd4f465	-0.10398177
10	0xc0179fb0	-2.3691216
11	0xbc0d1082	-0.008609893
12	0xbd970d8a	-0.07375629
13	0xbbbed98f	-0.005824275
14	0xbd0a5962	-0.03377665
15	0xbb8384b4	-0.004013622
16	0xbd189060	-0.03724706
17	0xbe0476bd	-0.1293592
18	0x3c8ab507	0.016932024
19	0x3e9cdbd8	0.30636477
20	0xc054d512	-3.3255048
21	0xbe890e6a	-0.2676881
22	0xbe71527a	-0.23566619
23	0x3fe2c996	1.7717769
24	0xbe20cbff	-0.15702818
25	0xbe9939ac	-0.29926813
26	0x3cbf06bc	0.02331864
27	0x400075d0	2.0071907
28	0x3ea0b7ae	0.31390136
29	0x3ff90f74	1.9457841
30	0x3b70029e	0.0036622654
31	0xbe65a88b	-0.22427575
32	0x3f20110f	0.6252603
33	0x3d5dd3be	0.05415701
34	0x406106cc	3.5160398
35	0xbe8a5e89	-0.2702525
36	0xc08166ed	-4.043814
37	0xbeeb1d21	-0.4592066
38	0x3be4c58c	0.0069815572
39	0x3f03d5aa	0.514979
40	0xbe0a71cc	-0.13519973
41	0x3f21f160	0.63258934
42	0x3d3ae7ef	0.045631345
43	0xbfd1c239	-1.6387397
44	0xbdd5dbc1	-0.10442305
45	0xb9a8f725	-0.00032227594
46	0x3d881616	0.066448376
47	0x3d72060e	0.059087805
48	0xbe586886	-0.21133623
49	0x3e3d0ab8	0.1846112
50	0xbea11bce	-0.31466526
51	0x3d3c3c34	0.04595585
52	0x3c4ee8af	0.012628718
53	0x3c25cd39	0.01011973
54	0x3c42c710	0.0118882805
55	0xbc2a93a4	-0.010411177
56	0xb9b08347	-0.00033667145
57	0xc0789877	-3.8843057
58	0xbcc32210	-0.023819953
59	0xbd0385fe	-0.032110207
60	0x3e032acd	0.12809296
61	0xbe71e60c	-0.23622912
62	0xbfb0eadc	-1.3821673
63	0xc03b8154	-2.9297686
64	0x3cc7c555	0.024386087
65	0xbf9d3385	-1.2281348
66	0x4016dd2b	2.357249
67	0xbca14c23	-0.019689625
68	0xbc57d76f	-0.013173922
69	0x3c3293cf	0.010899498
70	0x3ceef0c2	0.029167537
71	0x3e9435d7	0.28947327
72	0xbda172f4	-0.07883254
73	0xbf11a690	-0.5689478
74	0xbe786795	-0.24258263
75	0x3be80953	0.0070811897
76	0xbc8cc773	-0.017184949
77	0x3dffaef9	0.12484545
78	0xbe8f6b6f	-0.28011653
79	0x3f0598c2	0.52186215
80	0x3d974f19	0.073881336
81	0x400d1a12	2.2047162
82	0xbc4ee4d8	-0.012627803
83	0x3e6a8086	0.2290059
84	0x3e9e23f9	0.3088682
85	0x3e941858	0.28924823
86	0x3b630ac7	0.0034643875
87	0x3bf538a6	0.0074835597
88	0x4005ef27	2.0927217
89	0x3e7f2440	0.24916172
90	0xbeae50d2	-0.34046036
91	0xbe9d5f8a	-0.30736953
92	0x3e82d212	0.25550896
93	0x3f0e05d4	0.55477643
94	0x3e6bd5a3	0.23030715
95	0x3e998dfc	0.29991138
96	0xbf282657	-0.656835
97	0x3f91ddfb	1.1395868
98	0xbe60a366	-0.21937332
99	0x3cdcaa8a	0.026936788
100	0x3dbb13fa	0.091346696
101	0x3e5e2b42	0.21696189
102	0x3fe186e7	1.7619294
103	0xbe8ae946	-0.27131099
104	0xbded7833	-0.11595192
105	0xbe85a154	-0.26099646
106	0x3e194eb7	0.14971434
107	0xbc323304	-0.010876421
108	0x3d0b19e2	0.03396023
109	0x3e959927	0.29218408
110	0xbcdf7b5c	-0.027280502
111	0x3e923a4b	0.285601
112	0xbe8abd25	-0.2709743
113	0x3d39656b	0.045262735
114	0x404e04fb	3.219054
115	0x3e90f9a2	0.28315455
116	0x3fad0ab3	1.351889
117	0xbc080d3e	-0.008303938
118	0x3e170800	0.14749146
119	0x3ca57f84	0.020202406
120	0xbe47ad32	-0.19499663
121	0x3ca794f2	0.020456765
122	0xbe8f6fbd	-0.28014937
123	0xbf8e2334	-1.1104493
124	0x402a9696	2.665441
125	0x40698ede	3.649345
126	0x3d34f099	0.044174764
127	0x3fa6c101	1.302765
128	0xbc2078a7	-0.009794391
129	0x3d138e79	0.036024544
130	0x3eb94776	0.36187333
131	0x3dd92a76	0.10603802
132	0x3d1147a5	0.035468716
133	0x3ff71d64	1.9305844
134	0x3e807241	0.2508717
135	0xbe345209	-0.17609419
136	0xbddf3d93	-0.10900416
137	0x3e084643	0.13308053
138	0xc007e146	-2.1231246
139	0xbe160bda	-0.14652959
140	0x3cd15d74	0.025557257
141	0xbe9d1c0e	-0.30685467
142	0xbff66ee3	-1.925259
143	0x3c871a67	0.016492082
144	0xbe3522a2	-0.17688993
145	0xbd253a8f	-0.04033905
146	0x3ce74fb3	0.028236246
147	0x3d0593e3	0.03261174
148	0x3f94d9af	1.1628932
149	0x3adabff8	0.0016689291
150	0x3d9f0048	0.077637255
151	0xc0602508	-3.5022602
152	0xbbf31f30	-0.0074194893
153	0xbdaf905f	-0.085724585
154	0xbd66fb42	-0.056391962
155	0xbf6667cc	-0.9000213
156	0xbd9f21de	-0.077701315
157	0xc0a62a86	-5.192691
158	0x3e9d882e	0.3076796
159	0xbae8c7b0	-0.0017759707
160	0xbe63c844	-0.22244364
161	0x3e5dd8fc	0.21664804
162	0x407c9299	3.9464476
163	0x3d1a7745	0.0377114
164	0xc0a689c1	-5.2043157
165	0xbda993ff	-0.08280181
166	0xbe60b2a3	-0.21943145
167	0x3d144350	0.036197007
168	0x3e01d735	0.12679751
169	0xc00bf213	-2.18665
170	0x3c1a6f0a	0.009425888
171	0x4096d2aa	4.713216
172	0x3e1c2b5d	0.15250917
173	0xbe87739d	-0.26455393
174	0x3c818ab5	0.015813211
175	0xbdd2e73b	-0.1029801
176	0xbdade455	-0.084908165
177	0x40982b6d	4.755301
178	0xbd1ef0c7	-0.038803842
179	0x3cd22661	0.025653066
180	0x3d3473ba	0.044055678
181	0xbea27e89	-0.31737164
182	0x3daf4ff7	0.08560174
183	0x3d355178	0.044267148
184	0x3d1eafbe	0.03874182
185	0x3f995bda	1.1981156
186	0x3e9b020a	0.30274993
187	0xbe6469a5	-0.22305925
188	0xbda756ec	-0.08170876
189	0xbcbfd75f	-0.023418127
190	0xc00b3258	-2.1749477
191	0xc00c8426	-2.1955657
192	0xbcb2bed3	-0.021819508
193	0x40474239	3.113417
194	0x4029fefa	2.6561875
195	0x3d8fd198	0.07022399
196	0xbe910211	-0.2832189
197	0xbc14a34b	-0.009072135
198	0xbe6d91f5	-0.2320021
199	0x3f3bd837	0.7337679
200	0xbe8c2a57	-0.27376053
201	0x3e6bb1b0	0.23017001
202	0x3e6198c7	0.22030936
203	0xbd5440cd	-0.05181961
204	0xbe910f1b	-0.28331837
205	0x3e6564ef	0.22401784
206	0xbc5ebd36	-0.013594916
207	0xbe93e8c0	-0.28888512
208	0xbd921d39	-0.0713448
209	0xbfbe0e1f	-1.484806
210	0xbdebf637	-0.11521571
211	0xbe3f8917	-0.1870464
212	0x3d8596c5	0.06522898
213	0x3ba97965	0.005171942
214	0xb9d91c9c	-0.0004141078
215	0x3d60438f	0.05475193
216	0x401639cd	2.3472779
217	0x3d0e148e	0.03468757
218	0x3ce9a793	0.028522288
219	0xbda91d61	-0.08257557
220	0xbe3303d9	-0.17481937
221	0xbccf8e80	-0.025336504
222	0x3c7d5b68	0.0154636875
223	0x3efc6dc4	0.49302495
224	0x4005315b	2.0811374
225	0xbdff3b0e	-0.12462436
226	0x3b6b3b08	0.003589334
227	0xbe81a5a2	-0.2532168
228	0x3b22bd79	0.0024832173
229	0xbe5bb9aa	-0.21457544
230	0x401fcdc7	2.4969347
231	0x3e77b6d4	0.24190837
232	0xbcc2b638	-0.02376853
233	0x3ae78fcb	0.0017666755
234	0x3accd138	0.0015626317
235	0xbe89a628	-0.2688458
236	0x3b7f7aee	0.0038983184
237	0xbb903c67	-0.004401732
238	0xbcd63441	-0.026147963
239	0x3d497a65	0.04918899
240	0xbd0883ae	-0.033328705
241	0xbe7777dc	-0.24166816
242	0x404c800e	3.1953158
243	0x3b656d0f	0.003500763
244	0xbf987e17	-1.191348
245	0x3d286a96	0.041117273
246	0x3e4654fd	0.19368358
247	0x3e840398	0.25783992
248	0xbddd2da3	-0.1079972
249	0xbe73dcf2	-0.23814753
250	0x3d1d4a0e	0.038400702
251	0x3e169cc5	0.1470824
252	0x403c3c39	2.9411757
253	0x403ad78c	2.919406
254	0x3d90e74a	0.07075365
255	0xc0beddfa	-5.9645967

fc3.bias f4 [2]
0	0x40b6014f	5.6876597
1	0x40cd4803	6.4150405
