weights/adaptive_epsilon_weights.pth (torch, 72498 bytes, 6 tensors)

fc1.weight f4 [128, 4]
00000000: f7f0 5a3b 4479 28bd a431 f4bc 5af2 b23d
00000010: 74e3 823c e622 313e 360d 103f 6b16 1dbe
00000020: d7f0 06be 1319 ac3c 0779 35bf 7f0a 92bd
00000030: 921b 1c3e 11d3 3dbe 587a e83e d7fb fabd
00000040: 6de7 65be a023 14be f697 8b3f bf4a aabe
00000050: 2c10 a43e f621 13bd 57f0 d6bd 4e00 b2be
00000060: 9ad3 2e3e 1878 8e3d e448 973e aabb cebe
00000070: 0428 9c3c e369 95bd 1f86 f1bd c1d8 efbd
00000080: 1ece 32bc df3a f6be 1264 5dbf a051 90bf
00000090: be35 3d3e f5ea 34be ea65 0f3f de4d dbbd
000000a0: c0b5 ca3c fdbf 4bbc c257 04bf a1a9 b738
000000b0: d71e 4bbe 4458 5c3c f656 89bd 8415 28be
000000c0: 275d 9a3d a726 15be 7380 69be 5fd9 f83d
000000d0: 6eb6 82bc aa6b 67bd 379f 3c3f 5d8e 9fbd
000000e0: 9f46 cbbc f8a3 e0ba 2795 c8be c125 d4bc
000000f0: 684e 71bd 2a34 2ebc 0897 73be 11ca 91be
00000100: 040f c2bd 64da 62bd ca1e a93e d0e2 cf3c
00000110: efa1 85bd ab87 9ebd 7f56 5841 10b9 223f
00000120: 71d8 2ebd 97b1 953d 3539 e0bd ee5b 8c3c
00000130: 0d49 15be 15b3 56bd 27f1 c6bf dfde a7be
00000140: 6f90 123e b7a1 4bbc da1a b6be 3e5c b3bc
00000150: b9de 9d3e 87d3 c1bf fdaa 37c0 1b8b 24bf
00000160: 5ca8 4f3e eb88 513d f363 213f 9c64 68be
00000170: ee67 dd3c 7282 823d 80c1 a2bf 3958 773b
00000180: b6c5 91bd ea78 b7bc 1530 1240 89b9 e7bd
00000190: df14 23be c7bd b03c a4bc 7ebe 1c11 283e
000001a0: 0615 513d a25b 273d c741 8fbd 725d 85be
000001b0: cc56 263e 8889 1fbe cd53 c5be 4ad2 e5bd
000001c0: 1367 00bf e195 3ebc ef5a 52be 6172 d2bd
000001d0: d7f2 623b 8741 f6bd ee8b bebf 811b 1b3d
000001e0: 4dd3 4dbe 5f06 83bd dbed 6b3f 8582 633d
000001f0: 2aab 7c3d b962 00be 3405 5a41 344b b23f
00000200: cc21 60bc 4471 8bbc 6027 0ebe d669 1fbe
00000210: 9624 be3c a09d d63d c750 4fbf 11bb 5f3e
00000220: 5ef3 47be 212a 01be 5129 c440 aa1b d73e
00000230: 699d 943e 67a9 de3c b07d ee40 d471 0dbe
00000240: 46b1 fcbd 10f8 883e 853f 07bf 6ac0 423e
00000250: 676f a3bb 95c3 053e 8b97 0b3f d066 313c
00000260: f4a2 9b3e 72e9 7e3e 4165 10be ad94 353e
00000270: ecbe 9abd 2cb0 1dbd eff7 cebe 34d0 b2bd
00000280: e1da 3f3c 8dfc b63c 22ee 943e f1cd af3d
00000290: 4087 01bd 1521 75bd 0e4f a2be 037c 8abe
000002a0: 8b76 1a3e 7aca 7fbc 8fe7 5fbf 2c99 c7bd
000002b0: 0ca1 863e 312f 47be 8fd7 6b3f bc3c e3be
000002c0: 3b81 983e 9de3 c4bc 8bc4 593f 1ca2 24be
000002d0: 7624 d6bc efc9 933c bce6 7440 db51 67be
000002e0: 9c4f 0e3b 1c15 ecbc 1344 8ebf 437c bcbd
000002f0: a3ee 88be 0164 1bbc bf3f fcbf 9235 80bd
00000300: 468d 5bbd 64ff b5bd 9e30 f8be e38b 2fbe
00000310: b9c6 b93d 222a 27be 27e4 90be 4938 83be
00000320: de6f 4c3d 25fd fcbd e06c e1be c346 c93a
00000330: 2bb0 393f 0b00 ecbd 2872 19c0 99af 5abd
00000340: 7b05 e8bd 5b4f 9e3d 26eb 3bc1 0864 1a3e
00000350: e322 92be 79d5 603e ab44 c33e 1342 553e
00000360: cadd 173c 7e95 303e 8396 e33d 7342 313e
00000370: 35e9 5b3e 472f e0bd da26 103f d20d b1be
00000380: ff49 bebe 2e21 ffbc 9f7a bb3d ff53 b23d
00000390: c129 653d 4649 e43d 6785 fdbd 1a58 903d
000003a0: baa0 54be 1804 a5bd 8ac2 03bf cda3 a7be
000003b0: d832 f63d b106 95bd 6c6f 173f d4ea a9be
000003c0: 6b59 2ebe e28a a2ba c0fb eb3d e2d2 2e3e
000003d0: ce0c 9fbe 1fca c73e 089b 883e ae32 d33e
000003e0: fc97 6c3d 8bda e73d 5be4 43bf 1a05 343e
000003f0: 56e8 723e 367e cbbd e7f2 0a3f 8249 d4be
0.0033407786 -0.041131273 -0.029808827 0.08737631 0.015977599 0.17298469 0.5627016 -0.15340583
-0.1317781 0.02100805 -0.708878 -0.07130908 0.15244892 -0.18537547 0.4540584 -0.12255066
-0.22451563 -0.14466715 1.090575 -0.33260152 0.32043588 -0.03592106 -0.1049506 -0.34765857
0.17072907 0.069565 0.295478 -0.4037755 0.01906205 -0.07295587 -0.1179316 -0.117112644
-0.0109134 -0.4809179 -0.8648082 -1.127491 0.18477532 -0.17667754 0.56014884 -0.10708211
0.024744868 -0.01243591 -0.5169641 8.757716e-05 -0.19835983 0.013448779 -0.067060396 -0.16414458
0.07537299 -0.14565526 -0.22802906 0.12150835 -0.01595613 -0.05649916 0.7368044 -0.077908255
-0.024813948 -0.001713871 -0.39176294 -0.025896909 -0.058912665 -0.010632554 -0.23788083 -0.28474477
-0.0947552 -0.055384055 0.33031303 0.025376707 -0.06525027 -0.0774072 13.521117 0.6356363
-0.042686883 0.07309263 -0.109484114 0.01713368 -0.14578648 -0.05241688 -1.5542344 -0.32787225
0.1431291 -0.012428693 -0.3556736 -0.02189457 0.30833986 -1.5142678 -2.8698113 -0.6427476
0.20279068 0.051155966 0.63043135 -0.2269463 0.027027097 0.06372537 -1.2715302 0.0037741794
-0.071177885 -0.022396524 2.2841847 -0.11314685 -0.1592593 0.021574868 -0.24876648 0.16412777
0.05104544 0.040858872 -0.06994968 -0.26047856 0.16244048 -0.15579808 -0.38540497 -0.1122175
-0.5015728 -0.011632414 -0.20542501 -0.10275722 0.0034629607 -0.12024217 -1.4886453 0.037868027
-0.20100136 -0.063976996 0.92159814 0.055544395 0.061686672 -0.1253766 13.62627 1.39292
-0.013679933 -0.017021783 -0.13882208 -0.15567717 0.023210805 0.10479283 -0.8098263 0.21848704
-0.19526431 -0.12613727 6.1300435 0.42013294 0.29026344 0.027180387 7.4528427 -0.13812953
-0.123385 0.26751757 -0.528313 0.19018713 -0.0049876454 0.1306289 0.5452811 0.010827735
0.3039776 0.2489374 -0.14101125 0.17732497 -0.07555947 -0.03849809 -0.40423533 -0.08731118
0.0117099 0.022337222 0.2908793 0.08584202 -0.031623125 -0.059846003 -0.3170094 -0.27047738
0.15084283 -0.015612239 -0.87462705 -0.09746012 0.26294744 -0.19451596 0.9212579 -0.44382274
0.29786095 -0.024034316 0.85065526 -0.16077465 -0.026140433 0.018040625 3.826583 -0.22589819
0.0021714931 -0.02881866 -1.1114525 -0.092033885 -0.26744565 -0.009484292 -1.9706954 -0.06260218
-0.053601526 -0.088866025 -0.48474592 -0.17143206 0.090711065 -0.16324666 -0.28299066 -0.2562888
0.049911372 -0.12352971 -0.44028378 0.0015356172 0.72534436 -0.11523446 -2.3975925 -0.05339012
-0.1132917 0.077299796 -11.744909 0.15077221 -0.2854224 0.21956433 0.38138327 0.20825987
0.009269187 0.17244527 0.11112692 0.17310505 0.2147568 -0.109465174 0.5630928 -0.34580857
-0.3716583 -0.031143751 0.091542475 0.08707427 0.055948023 0.11146788 -0.1237896 0.07048054
-0.20764437 -0.080574214 -0.5146872 -0.32742158 0.120214164 -0.07276667 0.5915439 -0.33186972
-0.17026298 -0.001240101 0.11522627 0.17072633 -0.31064457 0.39021394 0.2668078 0.41249603
0.05776213 0.11320981 -0.7652032 0.17580071 0.23721442 -0.09936182 0.5427689 -0.41462332

fc1.bias f4 [128]
00000000: a43f 2dbf c063 cdbf 30d5 4bbf 0fc1 64bf
00000010: def6 b3bf 41d0 bebf 16b3 ddbf 5e1f 69bf
00000020: ee01 1bc0 cc0c c8bf 081a 31be 4906 3cbf
00000030: dbf9 b3bf 22b5 53bf b9a4 6abe fcc5 53bf
00000040: eb63 a9bf f560 22c0 07a1 10bf 5915 90bf
00000050: ed24 b8bf 4152 49bf da01 cdbf 1311 8fbf
00000060: fe4b e9bf 18e5 68bf c7ec 8dbf 3f31 81bf
00000070: 5f90 bebf d98e 92bf 7730 8dbf 337f 2cc0
00000080: 4c91 fdbe f764 8bbf e559 37c0 4581 0ac0
00000090: 7d8a cabf 9acd 38bf 4eab cbbf b581 33bf
000000a0: c3ce 38bf b564 5cbf 6953 71bf 37b8 cebf
000000b0: 2b7b 78bf 3ec4 a6bf 1392 10bf 1eae 99bf
000000c0: 5174 78bf cd07 16bf 2a63 7ebf bb35 6ec0
000000d0: df72 46c0 6f2e aabf a8c7 b5bf 2864 8dbf
000000e0: 538d a8bf e888 87bf a5a4 afbf 8d61 78bf
000000f0: b075 4ebf d651 01c0 23c5 41bf 3ea8 96bf
00000100: 91da 8cbf 2060 a3be e806 25bf 066b 81bf
00000110: d73e 81bf 5d93 81c0 874a 62bf 41ec 9ebf
00000120: eb96 97bf 9053 85bf 2a74 e5bf a5c6 95bf
00000130: ca14 72c0 cde1 b2bf 1283 d5bf 8f5d 79bf
00000140: e7fd b7bf f64e c0bf cc05 9ebf f341 80bf
00000150: 0ecd 4ec0 cf3e babf a649 51c0 4968 abbf
00000160: 092a a8bf 5417 d1bf 5571 89bf 09be b3bf
00000170: 247b 38bf 21ff b7bf 96bb aebf 1818 76bf
00000180: 0851 28bf 4219 0cc0 ac02 32bf a771 50bf
00000190: dd81 f9bf 32c4 c2bf 8684 87bf 42f6 3fbf
000001a0: 3c90 71bf b25d 22c0 0ce0 80bf 62d4 79bf
000001b0: 8d31 c9bf 3676 0bc0 1af4 b2bf c35b d2bf
000001c0: c389 ccbf b29e b0bf fdd1 94bf e6f2 93bf
000001d0: 39e4 59bf 373a 76bf 58e0 5fbf 5cf9 7abf
000001e0: 4abd 9dbf 594f bcbf 9609 95bf 52d1 9ebf
000001f0: 457a bcbf b129 e6bf 72ce 07c0 90c4 8abf
-0.6767523 -1.6046066 -0.79622173 -0.89357084 -1.4059713 -1.4907304 -1.7320278 -0.9106349
-2.4219928 -1.5628905 -0.17295086 -0.7344709 -1.4060625 -0.8269826 -0.22914399 -0.82723975
-1.3233618 -2.5371678 -0.5649571 -1.1256515 -1.4386269 -0.78641135 -1.601619 -1.1177086
-1.8226316 -0.9097457 -1.1087884 -1.0093154 -1.4887809 -1.1449844 -1.1030415 -2.6952636
-0.49524915 -1.0890187 -2.8648617 -2.16414 -1.5823513 -0.72188723 -1.5911653 -0.7011979
-0.72190493 -0.86091167 -0.942679 -1.6149968 -0.9706294 -1.3028638 -0.5647289 -1.2006261
-0.97052485 -0.58605653 -0.9937006 -3.7220294 -3.1007612 -1.329542 -1.4201555 -1.104619
-1.3168129 -1.0588655 -1.372212 -0.9702385 -0.80648327 -2.0206199 -0.7569143 -1.1770093
-1.1004201 -0.31909275 -0.64463663 -1.0110786 -1.0097302 -4.0492387 -0.8839497 -1.2415849
-1.1842932 -1.0416126 -1.7926075 -1.1701247 -3.7825189 -1.3975159 -1.6680624 -0.97408384
-1.437436 -1.5024097 -1.2345519 -1.0020126 -3.2312655 -1.4550418 -3.2701201 -1.33912
-1.3137828 -1.6335244 -1.0737711 -1.4042369 -0.720629 -1.4374734 -1.3650997 -0.96130514
-0.65748644 -2.1890416 -0.69535327 -0.8142342 -1.9492756 -1.5216124 -1.0587318 -0.74985135
-0.9436071 -2.5369687 -1.0068374 -0.97589695 -1.5718247 -2.17909 -1.3980744 -1.6434253
-1.5979542 -1.379843 -1.1626583 -1.1558502 -0.85113865 -0.9618258 -0.87451696 -0.9803674
-1.2323391 -1.4711715 -1.164355 -1.240763 -1.4724814 -1.7981473 -2.1219754 -1.0841236

fc2.weight f4 [128, 128]
00000000: 9f28 0dbe 990a 03bf b87c 653d 94e0 93be
00000010: 08b6 943e 1ad6 2fbe 2df9 8fbe 4699 cebd
00000020: 91e2 113e abbe 9d3e fa8a 33bc 064a 05be
00000030: 1810 853e 9b0e 7f3e e565 3cbc 1a61 f7bd
00000040: a534 8ebd 7d10 96c0 08fc 98ba 818c 0cbf
00000050: 90c3 98be 3caf 76be e41f cfbe f1da c73e
00000060: 4048 593f ddc0 48bd 6e98 f23d e40c 8abe
00000070: 6577 71bd b104 87be 1af9 873d b866 28c0
00000080: 7750 4bbe 6de7 cabe 92a9 edbf f9f9 3cc0
00000090: 005f 943d e3a4 b1be a797 aa3e d71a 21be
000000a0: 53a0 b0bd 0f73 a6bd 5c9a 5fbe 5a84 77be
000000b0: 711d 89be f36e ddbf 95a9 cc3c 1477 0fbf
000000c0: f761 f63d ef1f d8bd b8db 913e 2267 0e3e
000000d0: 2483 12c0 34c7 99bd 0009 bcbe a7c0 5f3d
000000e0: 0a5f c43e 955c b83d 283d 4f3a fcbe 3e3e
000000f0: 55c5 503e 250a 0abc 9db4 693e 8ee1 163e
00000100: 277d f83d bc92 013c 887d 333d a39a d13d
00000110: 1e4b c53d fed9 08c0 aeee 8f3e ad8c c9be
00000120: 478c 9c3e 2694 8bbe b5c5 07bf aa84 463e
00000130: e3a0 08bf 9215 18bc 38a6 83be a0f4 bdbd
00000140: 4c52 e03e 6f4c 44be 6b10 3abb 7eb9 403e
00000150: 17e0 10c0 1620 143f 2896 00bf 5063 c03c
00000160: 3fdf e2bd a4e9 b3bd 14cb 013e e79d 0ebf
00000170: de3f b63d 94c9 823d f5e8 60bd 2e18 bbbc
00000180: 4154 623c 9d19 c3be 1375 e7bd 9f02 5f3e
00000190: ed8c 11bf 9091 3e3e 3131 033d 745a 64bd
000001a0: c641 f03d 88ed 3ec0 56e6 babd 6e66 b03d
000001b0: a117 323e a771 c13d 11d0 263f a353 d13d
000001c0: 51f1 a73d 2d38 f4bd c95d dc3e 49e3 3fbe
000001d0: 55c5 7ebe 09a5 a9bd 8c9e 363e 12c5 95be
000001e0: 976b 883e 29c4 353e a529 083e 26b6 bbbd
000001f0: f69d 8cbe 8d55 93be e877 943f 9f0b 1a3e
00000200: 5607 fdbc 571c a3bc d054 dabb acc8 28be
00000210: 123b 6abd a5f4 bc3c d038 723c fd56 c5bc
00000220: 3030 babb 0729 c6bd 6c11 dc3c a9e5 a03d
00000230: 0e8b 61bd d759 c7bd 2e88 053d a15f 07be
00000240: c491 9dbd d172 e0bd 8e8e 46bc 15e6 4bbd
00000250: e640 5b3d 27ae c8be 60aa 0cbc 1bf5 06bd
00000260: 7e4e f43b 45fc a63d 4bd1 a9bd 52a0 6abd
00000270: beb1 49bd ec0a bebd 0077 acbd 149e b13c
00000280: ba61 19bd 529f 80bd 7de7 41be 82f3 503d
00000290: 7e7e 03bd 50da 22bc fc6b 40bd 8c75 e9bc
000002a0: 2947 1cbd d665 6cbe 7442 123d 3ee5 6a3d
000002b0: 8256 20be 603b 93bc 9cae 2fbd ba61 b8bd
000002c0: 7f1e b2bc 5dd4 4cbe 0139 16be 550f f93b
000002d0: ba75 aebd 00dc 1039 8eed e8bd bd71 66bc
000002e0: 7919 a1bd 90c3 77bd 0aff 61be 52be e3bd
000002f0: 3737 53bd 412b 05be 0e7a 31bb 1709 e83d
00000300: 9a6d 6e3d e94e 5fbe c077 c9ba d933 bdbd
00000310: 1b64 06be 1f68 5cbd fa82 0a3d 7a29 38be
00000320: 0c61 9ebd 0e73 03bd de18 acbd 5781 f6bb
00000330: 005d adbe d39d 98bd e546 503c 4316 89bd
00000340: 50a8 0abe 8e36 98bd ddc6 c53c ad9e 90bc
00000350: a1ba e63c 8b70 77be baf8 9fbe aa1d 563d
00000360: b45c c83c c6ac 4abd 6bfc 89bd 8c14 67be
00000370: 26c6 b1bd 42cb 88bd b188 0dbd 0918 0cbe
00000380: 139a edbc f429 993c 9494 b2be b30c 2ebd
00000390: eb43 50bd 8835 4a3c 502f adbc 1ea4 58bd
000003a0: 9559 cc3d 552d f73c a6b1 4cbd 1e1b 0cbe
000003b0: 4645 d03c 4138 76bd 4afa 18bc 91a8 a3bd
000003c0: 8cea 26bd 77b3 7cbd ec4a a23c 2af1 943b
000003d0: b340 9d3d 5e8e 583d a3e1 a33d 5c70 cebd
000003e0: 44ba f0bd 5bde 9fbe 60cf ee3c 5c7d c1bc
000003f0: 387e 00be adca 67bd 0e64 46bc 6238 473d
-0.13785027 -0.51188046 0.056027144 -0.28882277 0.2904513 -0.17171517 -0.28119794 -0.10087828
0.14246584 0.3080953 -0.010958428 -0.13016519 0.2598884 0.24907915 -0.011498903 -0.120790675
-0.06943635 -4.6895127 -0.0011671791 -0.5490189 -0.29836702 -0.24090284 -0.40454018 0.39034227
0.8487587 -0.049012054 0.1184548 -0.2696296 -0.058951754 -0.26370767 0.06639309 -2.6312695
-0.19854914 -0.3962969 -1.8567374 -2.9527571 0.07244682 -0.3469611 0.33318827 -0.15732895
-0.086243294 -0.081274144 -0.21836227 -0.24171582 -0.26780275 -1.7299484 0.024983207 -0.56041074
0.12030404 -0.10552966 0.28487945 0.1390653 -2.2892542 -0.07508698 -0.36725616 0.054627087
0.3835376 0.090020336 0.00079055363 0.18627542 0.20387776 -0.00842527 0.22822805 0.1473448
0.12133246 0.007908519 0.043820888 0.10234573 0.09633468 -2.1383052 0.28111786 -0.3936514
0.30575773 -0.27261466 -0.5303605 0.19386545 -0.53370494 -0.0092824865 -0.25712752 -0.09275174
0.43812788 -0.19169782 -0.0028391134 0.1882076 -2.2636774 0.5786146 -0.5022912 0.023484856
-0.11077737 -0.08784798 0.12675124 -0.5570969 0.088989004 0.06386104 -0.054909665 -0.022838678
0.013814033 -0.3810548 -0.11301627 0.21778344 -0.5685566 0.18610215 0.032029334 -0.055750325
0.11731295 -2.9832478 -0.09125964 0.08613287 0.17391826 0.094455056 0.65161234 0.102210306
0.08200324 -0.11924777 0.43040302 -0.18739046 -0.24879964 -0.08283431 0.17833918 -0.29251915
0.26644585 0.1775061 0.13297136 -0.091656014 -0.27464265 -0.28776208 1.1599092 0.15043496
-0.030887287 -0.019910974 -0.0066629425 -0.164828 -0.05718524 0.023065874 0.014784053 -0.02408933
-0.005682014 -0.09675794 0.026863776 0.07856304 -0.055064254 -0.097339325 0.032600574 -0.13220073
-0.07693818 -0.109593995 -0.012118949 -0.04977997 0.05352869 -0.39195368 -0.008585542 -0.032948595
0.007455646 0.08153585 -0.082918726 -0.0572818 -0.049241774 -0.09279427 -0.08421135 0.021681823
-0.037446715 -0.06280388 -0.18935962 0.051013477 -0.032103054 -0.009939745 -0.046977982 -0.028498434
-0.0381538 -0.23085722 0.035707906 0.05734753 -0.15658 -0.017972648 -0.04289113 -0.09003015
-0.021743057 -0.20002885 -0.14670183 0.0076007047 -0.08518548 0.00013814867 -0.11373435 -0.014065203
-0.07866187 -0.060489237 -0.22069946 -0.11120285 -0.05156633 -0.13004781 -0.0027080807 0.11329859
0.058209993 -0.21807446 -0.0015370771 -0.09238405 -0.13124125 -0.053810235 0.033816315 -0.17984572
-0.07733354 -0.032092147 -0.084031805 -0.0075227427 -0.33860016 -0.074519776 0.012712215 -0.06693699
-0.13540769 -0.074322805 0.024142677 -0.017653788 0.028165163 -0.24164025 -0.3124445 0.052274384
0.024458267 -0.049481176 -0.06737598 -0.22566432 -0.08680372 -0.06679393 -0.034554187 -0.13681044
-0.029004132 0.018696763 -0.3487898 -0.04249258 -0.05084602 0.012341864 -0.021140724 -0.05289089
0.09978024 0.030172983 -0.049974106 -0.1368222 0.025423657 -0.06011224 -0.009337017 -0.07991136
-0.040751025 -0.06169459 0.019811116 0.0045453506 0.07678356 0.052870147 0.08002021 -0.100800246
-0.11754277 -0.3122433 0.029151618 -0.023619346 -0.12548149 -0.05658977 -0.012108816 0.048637755

fc2.bias f4 [128]
00000000: c041 8b40 c40d ddbe 5f23 9a40 d442 00bf
00000010: 0a25 ccbe 9892 c8be 6f16 6440 0a4a 51c0
00000020: 043f 94be 1d98 babd c303 42be e928 d8be
00000030: 6225 e5be 7297 55bf a44b 02bf 30e5 d1be
00000040: 0c9b 9dbf 1467 96be 8b8a 96be 0dd4 13c0
00000050: 01d2 e5be 5371 78c0 ffcb 7f40 ee75 c7be
00000060: 71b1 ecbe 2412 e0be 7f54 aebe 611b c0be
00000070: f4e3 29c0 5f73 c4be af55 e1be 093b 003f
00000080: c8f2 d8be 5860 8ebe ed1e 9dc0 6316 f6be
00000090: ed8e 33bf 8bab eb3f db5a 6c40 d8cb d9be
000000a0: be06 a0be a536 c5be 6144 cfbe 8b4b 88c0
000000b0: dabf 65bf 3c2d 3ebf cc95 a3be d643 d6be
000000c0: a415 ccbf cc89 57bf 1996 f7be da5d bfbe
000000d0: 9c5b 94be 8efb e3bd 3fd0 bebe eacc 4940
000000e0: e9fb 5ebe ccc0 d4bf 3d9e 65bf 61ec 6ebe
000000f0: c50b 06bf 16a7 5fbd 3435 a2be 63cd aebe
00000100: 53a1 82bf 19cb ccbe a9b8 36bf 4598 dcbe
00000110: 41c3 ddbf 496a b1be 578c d4be 2138 debe
00000120: 4b79 78bf 3e2c 21bf c749 8140 92cc 2dbf
00000130: 6578 e4be f3c2 72be 6872 03bf 74a6 48c0
00000140: a3ec 8940 a182 b0be 6948 b2bf 3b67 c5be
00000150: 5d24 8440 846f e7be d8cd a440 5bf0 32bf
00000160: 9fa6 cdbe 8816 51bf 6bbd b8be 5aca 93be
00000170: 3ce4 b3be d082 fabd fcc6 afbe 0ff1 ebbe
00000180: 58b3 80c0 9e82 6cbe dc50 20bf 9b19 22bf
00000190: 5f1f 24bf 857e a0bd dd30 e8be e003 b9bd
000001a0: d11c 91be c2ea d9be 6593 22bd 97b9 7c40
000001b0: 9bdf 82be fad4 b7be 8da8 9bbd 5641 7c40
000001c0: db6e a340 1d91 efbd bce8 30bf 4aef 7b40
000001d0: eaf0 c7be 3d6b 1040 49b8 17bf 2058 0bbe
000001e0: e9d2 3fc0 fcd2 c1be 8603 3cbf 3b7d 88c0
000001f0: 6f60 41be e4f6 d7be 769a 8dbf 299c b4be
4.351776 -0.43174565 4.8168178 -0.5010197 -0.3987201 -0.39174342 3.5638692 -3.270144
-0.28954327 -0.091110446 -0.18946747 -0.42218712 -0.44755083 -0.8343421 -0.5089667 -0.4099517
-1.2312942 -0.29375517 -0.29402575 -2.3098176 -0.44886783 -3.8819168 3.996826 -0.3895716
-0.46229127 -0.4376384 -0.3404884 -0.37520888 -2.6545382 -0.3836927 -0.44010684 0.5009008
-0.42372727 -0.2780788 -4.910025 -0.48063955 -0.7013996 1.8411726 3.6930454 -0.42538333
-0.31255144 -0.38518253 -0.40481856 -4.2592216 -0.8974587 -0.7428777 -0.31950223 -0.4184863
-1.5944104 -0.84194636 -0.48356703 -0.3737629 -0.28976142 -0.111319646 -0.37268254 3.153132
-0.21775784 -1.6621337 -0.8969458 -0.23332359 -0.5236171 -0.054602705 -0.31681216 -0.34141073
-1.0205482 -0.399987 -0.7137552 -0.43084922 -1.7325212 -0.34651402 -0.4151332 -0.43402198
-0.9706008 -0.62958133 4.040256 -0.67890275 -0.44623104 -0.2370718 -0.51346445 -3.1351595
4.3101363 -0.34474662 -1.3928348 -0.3855532 4.129439 -0.45202267 5.1501274 -0.69898003
-0.40166184 -0.81675005 -0.36082014 -0.2886532 -0.35135067 -0.12231982 -0.343315 -0.4608235
-4.0218925 -0.23096702 -0.6262338 -0.6332032 -0.6411037 -0.07836632 -0.4534978 -0.09033942
-0.28342298 -0.42561918 -0.039691348 3.9488275 -0.25561222 -0.35904676 -0.07600508 3.9414878
5.107282 -0.116976 -0.69105124 3.93648 -0.3905099 2.2565453 -0.5926557 -0.13607836
-2.997248 -0.3785628 -0.73442876 -4.265287 -0.18884443 -0.4218055 -1.1062763 -0.3527539

fc3.weight f4 [2, 128]
00000000: f9c4 da3f 6673 313d 954e 0040 5124 92be
00000010: 6605 713e b5d7 9a3e 6f6c 85bf 680b 73c0
00000020: c89e 043e 1980 21be 531a aabd 29e9 4abb
00000030: f68a 6c3d 7964 263e 2bc9 efbd 2429 a13e
00000040: b1ef 02bf 0f71 8abe ff7f be3c 79f0 83be
00000050: 4125 0c3d b2b6 6fc0 a5a3 1a40 df75 ea3b
00000060: bb9b 38be 5ff5 993e c2f1 ca3e fbc3 873e
00000070: fbb2 b53f 28a4 843c e4ae a83d 46a4 d73f
00000080: 708c 81be 4818 4d3e 61a7 b5c0 7eb3 6cbe
00000090: 7cd2 7d3e 4950 973f dd92 b3c0 6484 993e
000000a0: a995 9abc ac27 923d b98d 923d b5a7 6b40
000000b0: 0d58 593e 45a4 f0bd 8413 683c 69bd 2f3d
000000c0: acd3 893e 7a3a e23d 9258 6a3e 5b94 8a3e
000000d0: b567 4f3d dbe6 2c3d bc8a 243d 1eef 0f3f
000000e0: 5279 fd3b 374a 8740 f058 2cbe 51e0 c4bd
000000f0: 087a eebd cf02 f6ba 0713 f7bb 4590 223e
00000100: 9021 083e af9e 9e3d 6f5d 9bbd 1e90 68bc
00000110: f2fe d13d fb72 26be 389a 9b3e ce42 96be
00000120: 65a5 203d 9ffe e63d a90e db3f 45b1 95be
00000130: 89fb a8bd 089e 343d 5c37 313e abd6 59bf
00000140: 5895 6c3e 676b ea3b 3bd2 56bd af0f 90bb
00000150: ebeb 0540 8598 5f3e 8b8c 1340 a022 16be
00000160: 06db 753e 08e9 9c3e 9208 89be 4ead 733e
00000170: 7ec2 103d 3eec 12bb 07b6 953e 1da0 863c
00000180: bb84 ad40 b31e 43be 7881 d93e a337 373e
00000190: 2b86 89be 4f9e 16bb e650 d7bc 4b81 78bc
000001a0: c913 26bc bba0 153d b1a1 b5bc 073e 18c0
000001b0: b3e2 d63d 3a43 933e d06c 3dbd c0bc cc3f
000001c0: f6c5 2f40 c26a 1f3d 6e4c 1bbe 8574 2d40
000001d0: bd42 5ebe b4b6 c23f 32c5 de3a f708 193d
000001e0: f971 833f 3203 db3c b8ba d23e c98a 14bf
000001f0: b45c a2be e0c1 5c3c 1be1 243e a97d 8d3e
00000200: 59a8 0940 75f6 75be 7891 3b40 5d66 88bc
00000210: 1d86 b13c f86e cebc 349f dd3f 81f0 27c0
00000220: 1013 0e3c 6cb5 ffbd 9e61 debd ed6b 93bd
00000230: 572e 963e 069f 63be ee88 53be bdb3 6eba
00000240: 08fa f83a 1572 2bbe 9e77 ee3d b5ac a1be
00000250: adfa 96be 2d37 1e40 04e9 4fc0 b32f 953e
00000260: 887e 9abd edc9 aebe c523 6ebe 20cd d63d
00000270: 90c5 973f 4c5d 8b3e aaf6 9c3e 0c14 f0bf
00000280: 3b1d 433d 2c91 d3bc 1ba2 f53f 0680 5a3e
00000290: b5fc bd3e e9e6 10bf 3f89 0c3e f3a6 5b3d
000002a0: 7206 d43b 6f81 953e 3db7 9d3e 6557 82c0
000002b0: e419 08bd 0393 de3d 31aa 87bc cbcb d1bd
000002c0: 5401 313e 03a7 20bc 9176 8dbd a6fb 8dbb
000002d0: b647 17be aaf9 7c3d 11c2 923e 21d6 1140
000002e0: 97a3 3fbe f3a0 d0c0 0876 e2bb e69f d7bd
000002f0: c3ac 803e d94e aa3d 2f3d 803d 0c5d 7b3e
00000300: 2cc2 88be ce00 69bd c2a1 07bd 1165 9b3e
00000310: 6ed3 2fbf 2d87 993e 3db7 cdbc e80c c03c
00000320: 89fa 423e 8eea fcbe 56e5 2040 341e 353d
00000330: 3be5 6a3c 49cc 54bd a6fa a23e fc4a e0bf
00000340: 7808 44c0 be86 e03d 6fd8 903d 7b41 77be
00000350: 723c 0740 e62f 9ebe 3a2d 2640 ef0e 903e
00000360: ca88 99be 2f77 4c3e 7ea5 afbd 75ae 9abd
00000370: 9de4 a13e 649f a7bb b9aa 383d 8bfa 76bd
00000380: fe12 933e 2651 32be 5540 1d3e 527c b1bc
00000390: c590 3dbc 11c2 5cbd f40e a2be f133 f13b
000003a0: 7bb7 72bb 9c80 78be 2dd7 af3d 45fe f13f
000003b0: 7261 923e 13ca 9e3e 8e39 a93b 0c18 0740
000003c0: 8492 f03f 854d 86bd 1103 89be f097 06c0
000003d0: 536f e7bc e5c3 6a3f 602b f43c d94c 953d
000003e0: d0b3 08c0 9ee6 8bbe 123b c8bc 904f 9fc0
000003f0: f365 ae3d fd2b 50be 9d5e 103e 92b6 d43c
1.7091361 0.043322943 2.0047963 -0.28543332 0.23537216 0.30242696 -1.0423716 -3.7975712
0.12951195 -0.15771522 -0.08305802 -0.0030961728 0.05774971 0.16249265 -0.117082916 0.314767
-0.5114699 -0.27039382 0.023254393 -0.25769404 0.034215216 -3.7455258 2.416238 0.0071551646
-0.18028156 0.30070016 0.39637572 0.2651671 1.4195246 0.016191557 0.08236483 1.6847007
-0.25302458 0.20028794 -5.676682 -0.23115346 0.24787325 1.1821376 -5.6116776 0.2998382
-0.018870192 0.07136473 0.07155938 3.682111 0.21224995 -0.11750082 0.014164809 0.042905245
0.26919305 0.1104631 0.2288535 0.2706631 0.050636012 0.04221235 0.04017137 0.5622424
0.00773541 4.2278094 -0.16830802 -0.096130975 -0.11644369 -0.0018769148 -0.00754011 0.15875347
0.13294053 0.0774511 -0.075861804 -0.014194516 0.10253705 -0.16254799 0.30391097 -0.29347843
0.039220233 0.11279034 1.7113849 -0.29236808 -0.082511015 0.044096023 0.17306274 -0.8509318
0.23103845 0.0071539166 -0.052446585 -0.004396401 2.0925243 0.21835525 2.305453 -0.14661646
0.24009332 0.3064654 -0.2676435 0.23796579 0.035341732 -0.0022418643 0.29240438 0.01643377
5.4224524 -0.1905468 0.4248159 0.17892317 -0.26860175 -0.0022982543 -0.026283693 -0.015167545
-0.010136553 0.036530238 -0.022171827 -2.3787858 0.10492458 0.28762227 -0.04624635 1.5995102
2.7464576 0.03892017 -0.15165874 2.7102368 -0.21705146 1.5212007 0.0016996025 0.037362065
1.0269157 0.026734922 0.4115808 -0.5802427 -0.31711352 0.013473958 0.16101496 0.27634934
2.1509001 -0.24019797 2.9307537 -0.016650373 0.021670396 -0.025199398 1.731421 -2.6240542
0.008671537 -0.12485775 -0.10858463 -0.071983196 0.2933223 -0.22228631 -0.20657703 -0.00091057626
0.0018995414 -0.16742738 0.11643909 -0.31577078 -0.29488125 2.4721177 -3.2485971 0.29137954
-0.07543665 -0.34138432 -0.23255832 0.10488343 1.1857166 0.27219617 0.3065694 -1.8756118
0.0476353 -0.02582606 1.9190096 0.213379 0.37106863 -0.5660234 0.1372423 0.053626012
0.006470495 0.29200312 0.30803862 -4.0731683 -0.033227816 0.10867884 -0.016560646 -0.102439485
0.17285663 -0.009805444 -0.0690738 -0.0043329773 -0.1477345 0.061761536 0.28663686 2.2786944
-0.18714748 -6.519647 -0.006911043 -0.10528545 0.25131807 0.0831582 0.0626167 0.24547213
-0.2671064 -0.056885533 -0.03311325 0.30350545 -0.6868199 0.29985943 -0.025111789 0.023443654
0.19040884 -0.493977 2.5139976 0.044218257 0.014336879 -0.051952634 0.31831855 -1.7522883
-3.063017 0.109632 0.070725314 -0.24146073 2.1130643 -0.3089592 2.5965104 0.28136393
-0.29987174 0.1996734 -0.08576487 -0.07552806 0.3161973 -0.0051154364 0.04508469 -0.06029753
0.28725427 -0.17413768 0.15356572 -0.021665726 -0.01157016 -0.053896014 -0.31652033 0.007360928
-0.0037035632 -0.2426781 0.085859634 1.8905722 0.2858997 0.31013545 0.0051643318 2.1108427
1.8794713 -0.065577544 -0.26760152 -2.1030235 -0.028251326 0.9170516 0.029805839 0.07290048
-2.135975 -0.27324384 -0.02444223 -4.978462 0.08515539 -0.2032928 0.14098592 0.025965963

fc3.bias f4 [2]
00000000: 56c2 b740 57a0 ad40
5.7424726 5.4258227
