weights/adaptive_epsilon_weights.pth (torch, 72498 bytes, 6 tensors)

fc1.weight f4 [128, 4]
00000000: 4d76 05be 6cdc ed3e e15c 36c0 68e8 943f
00000010: 5806 2ebe db74 2a3c 9dbf cb3d 1590 173f
00000020: 3736 cabe c6e4 c73e 8a2b d3bf 20b5 293e
00000030: 664c 92bd a924 163e 5f22 cabe 4791 603e
00000040: 4cf6 813c af82 c93d 3fa4 953e 1c93 a23e
00000050: 6a70 243e b107 29be 2040 5541 5043 853f
00000060: 6687 23be d415 1b3e 8633 523f 9c10 b6bd
00000070: 2b88 1cbd 5856 923d fdd9 d8be 99af 2b3d
00000080: 2d6b 79be 4524 a9bd 8ba3 da3f b62e fc3d
00000090: 6474 00bc d94b cf3c d133 d2be 0191 b03d
000000a0: 36c5 c83e 9faf a0bd a3c2 3fbf 96c2 1a3e
000000b0: c8ee e0bd 3293 833d ee40 12bf 140f 273e
000000c0: c9cf 8ebe d46d 11bc 8bb5 1c3f 764b 1c3e
000000d0: b180 eebe 2455 af3e 0a5d 21c1 e4df 05bf
000000e0: 843a 1ebd f916 36bc fc52 36be ea23 a53e
000000f0: 9e8f d7bd d51b 16bc 2f55 23bf f446 843e
00000100: f272 323c c708 2ebd 395b 403e 5171 9fbd
00000110: e506 8ebd 1326 923c d609 2cbb 892c ac3e
00000120: d527 65be c037 4f3d b96b 363e d9e6 003e
00000130: 538a afbe ed1a 083e 6d76 44be a391 cb3e
00000140: bd67 09bf b4a5 103e f896 023d ebf3 563e
00000150: 8dfb 2abd b1a3 653c 925e b53e 96ee 183e
00000160: 1e21 77be bbb4 07be 5cf3 083f 6ff3 bf3d
00000170: a4f7 12b9 b458 9dbe fea5 d13d 1158 81be
00000180: ec76 5c3d 0ec9 a53d 5da8 cb40 0574 203e
00000190: e882 063e 0457 99bd ee66 1040 b91d aebc
000001a0: 0445 b9bd 16a8 30bd e41f 723f 9949 d13d
000001b0: f708 d1bd 6ad5 0bbe 37c1 983d 1a78 52be
000001c0: c994 ecba 5747 663c f6cd 423e 79e6 e63c
000001d0: eb63 373e e4d1 cdbb 8431 813e 09e8 dc3c
000001e0: f928 2cbe 38a9 443e 4140 05bf 65a4 f63d
000001f0: a525 38be 141f 263e 4299 9ebf b2b5 023f
00000200: c02b 93bc f28f 92be a616 2040 7a69 bfbe
00000210: 0918 7bbc 76c8 843e f697 db3f ea95 303e
00000220: 2fbd 23be 2e82 51bd e687 8dbe 4680 8b3e
00000230: 36ee 1dbe 878d 983d a23a 41be 7012 5c3d
00000240: 46ee f33d 9628 d3bd 8352 6a3e 0427 cebb
00000250: b97f 82be bff3 173e 3807 893f 5b69 2f3f
00000260: 4070 13bc b3b7 3e3e 508a cd3f 0cf6 553e
00000270: 919a 30bd 06a4 353d 6826 aa3f c278 30be
00000280: fd6e 14bb 8bd3 413e 09e1 28bf 0d69 603e
00000290: 3683 1e3e eeec 193e ed13 42bf 55a9 73bd
000002a0: cf7c 29bd 6746 49bb 693e 8bbe bc49 a83e
000002b0: 32f2 74be 8b61 aa3e 316a 4cba 11b9 be3e
000002c0: a0d6 57be 4e6d 6d3d fd5e 933c e27b 073e
000002d0: d395 7fbe 538b 043d ae01 9c3e 5b30 c3bc
000002e0: b529 303e 79a7 c93c 88f3 babc 4750 23be
000002f0: a275 a9bd d518 35bd 182a dd3d 38e4 82be
00000300: b30e 0bbf 0229 07bd d8e7 8bbf 92aa 3b3e
00000310: 7dfc 61bd 1c5e 14be 5029 533f 53ec 8bbd
00000320: 9156 09be 4a0e 9e3d 4c16 65be 555c 4cbd
00000330: 0f63 6fbd 382c a73d 3400 6f3e 6a24 d33d
00000340: 0371 8cbe a29b a73d 7875 843c 2b6c e9bd
00000350: ee11 7c3e a425 d7bd 1369 1bbe 68ce dabe
00000360: bb56 1a3e 912c 19bd a24d d03e c5f6 263d
00000370: fb85 f8bd fcfa 203e 2484 86bd 1dfc 353e
00000380: 46d4 293b c214 a83b d9ce a33d 7c8c 29bd
00000390: 3028 cf3c c6a0 f1bd 4334 8c3e 33c0 e5bb
000003a0: d6b1 313e cb45 2d3d 3b22 433e 8eef 053e
000003b0: d302 563e 06a1 1c3e c1fd f33f 599d 8f3e
000003c0: 317d 1abc 943a 6b3d ab5f b53e 0d9a a5bd
000003d0: 157b 6b3e 318d efbd 5608 7fbe b951 88bd
000003e0: acc0 96bd 11bd c1bd cb25 243f 1f18 40be
000003f0: 27a7 d53e 9f4a 86bd 92aa 963f 3297 51be
-0.1303341 0.4645723 -2.8494189 1.1633425 -0.16994607 0.010403837 0.09948657 0.59204227
-0.39494488 0.39041728 -1.6497662 0.16573 -0.07143478 0.14662422 -0.39479348 0.21930419
0.015864514 0.09839379 0.29226872 0.3175286 0.16058508 -0.1650684 13.3281555 1.0411167
-0.15969619 0.15145046 0.8210987 -0.08889887 -0.038215797 0.07145375 -0.42353812 0.04191551
-0.2435729 -0.08258871 1.7081159 0.12313597 -0.00784025 0.025304722 -0.41055158 0.08621407
0.3921296 -0.07845997 -0.7490637 0.15113291 -0.10983044 0.0642456 -0.57130325 0.16314346
-0.27892902 -0.008876283 0.6121451 0.15263161 -0.4658256 0.34244645 -10.085215 -0.52294755
-0.038630024 -0.011113876 -0.17805094 0.32253963 -0.1052544 -0.009161909 -0.63801855 0.25835383
0.010891663 -0.04248884 0.18784799 -0.07785285 -0.06934909 0.01784042 -0.002625098 0.33627728
-0.22378476 0.050590277 0.1781453 0.12588061 -0.3428522 0.13291521 -0.19185801 0.3975955
-0.5367392 0.1412571 0.031882256 0.20991485 -0.041743804 0.014016078 0.35423714 0.14934763
-0.24133727 -0.13252537 0.53496337 0.09372603 -0.00014015898 -0.30731738 0.102367386 -0.25262502
0.05382435 0.08094989 6.364302 0.15669258 0.13135874 -0.074873 2.2562823 -0.021254407
-0.09046367 -0.04312905 0.9457991 0.10219116 -0.10206788 -0.1365563 0.07458728 -0.20553628
-0.0018049713 0.014055095 0.1902388 0.02818607 0.1790921 -0.0062811244 0.2523309 0.026966112
-0.16812505 0.19205177 -0.5205117 0.120430745 -0.1798311 0.16222793 -1.239052 0.51058495
-0.017965198 -0.28625447 2.5013824 -0.3738516 -0.015325555 0.2593419 1.715575 0.17244688
-0.15990137 -0.05114954 -0.27642745 0.27246302 -0.15422902 0.07448869 -0.18870023 0.05372852
0.119106814 -0.103104755 0.22883038 -0.006291272 -0.2548807 0.14839076 1.0705328 0.68520135
-0.00899893 0.18624763 1.6057835 0.2089464 -0.043116156 0.044345878 1.3292971 -0.17233565
-0.0022649162 0.18928353 -0.65968376 0.21915074 0.1547974 0.15031788 -0.75811654 -0.05948766
-0.041378792 -0.003071213 -0.27196053 0.32868755 -0.23920515 0.33277544 -0.0007797806 0.3725057
-0.21077967 0.05796557 0.01798963 0.13230851 -0.24959497 0.032359432 0.30470031 -0.023826769
0.1720341 0.02461599 -0.022821203 -0.15948592 -0.0827439 -0.044213135 0.10799044 -0.25564742
-0.54319304 -0.032998092 -1.0930128 0.18326786 -0.055172432 -0.14489025 0.8248491 -0.06832185
-0.13411929 0.07717569 -0.22371787 -0.049892742 -0.05844408 0.08162731 0.23339921 0.1030968
-0.2742997 0.081839815 0.016169295 -0.113975845 0.24616215 -0.10505226 -0.15176801 -0.427356
0.15072148 -0.037396017 0.4068423 0.04076268 -0.1213493 0.15720743 -0.065681726 0.17771955
0.0025913878 0.0051294276 0.079984374 -0.041393742 0.025287718 -0.11798243 0.27383623 -0.0070114373
0.17352995 0.042302888 0.19056027 0.13079664 0.20899515 0.152958 1.9061815 0.28049734
-0.009429262 0.05742891 0.3542455 -0.080860235 0.22996171 -0.11696852 -0.24905524 -0.06656212
-0.07360968 -0.0945989 0.6412017 -0.18759201 0.4172909 -0.065572016 1.1770804 -0.20467833

fc1.bias f4 [128]
00000000: c2f1 7abd 130a cdbf ec6d dbbf 3416 4cbf
00000010: d09b a6bf b96f 1cc0 fea2 92bf 740d 03bf
00000020: 8d50 e8bf 02e3 d1be cdcc a3bf 6d14 77bf
00000030: 3966 8cbf 7b3b 8bc0 dd0c a1bf ea95 5ebf
00000040: 24d2 c9be e139 80bf a555 aebf 7fcc 1dc0
00000050: a384 bebf 9f81 ddbe 0e16 e2bf 7817 e2bf
00000060: 6805 00c0 4707 3fbf 32b7 74bf 7a3f 75bf
00000070: 1bcf 98bf c763 a6bf eda1 60bf ea65 b1bf
00000080: 2dce aebf 79a4 d4bf 844e c3bf f533 dbbf
00000090: 08dd 84bf 1a6e 3ec0 3702 70bf 9f45 5fbf
000000a0: c381 4abf d5e4 e1bf c1b8 8ebf 1183 9fbf
000000b0: 8f93 8dbf dc23 45bf e156 cebf 71bb 7dbf
000000c0: 5582 ddbf 04da c6bf 960f 1dbf 6d77 c7be
000000d0: 2f7d 7cbf fddd acbf 3553 26bf 29b0 a3bf
000000e0: af6d 37be c0fb 47bf ef5c bcbf a8b9 b5bf
000000f0: 24a9 69bf a8fa 8dbf dda9 3dbf 689f b1bf
00000100: 0721 cdbf c572 8dbf d05b a7bf 8390 87bf
00000110: f392 59bf c455 d7bf bb1b 16c0 681f 04bf
00000120: bb9e 8fbf 6b95 cfbf 5013 92bf 0bd0 8abf
00000130: 9eed f9be c9ae c5be 8ddf c3bf 1da6 c5bf
00000140: 66b1 cdbe 2538 11c0 4133 6ec0 b2c0 b1bf
00000150: bb51 cdbf e375 9bbe 75bf 30bf e69c 43bf
00000160: 20d6 e4bf d1a3 17c0 bcce f7bf 8409 aebf
00000170: 3879 9abf 196c d2bf 7336 50bf c2ba 1ebf
00000180: 9142 37bf 6b41 1cbf 83b3 b9bf 5ae6 b2bf
00000190: 54be a6bf 2522 c4bf 8ef6 69bf d230 80bf
000001a0: 3471 7ebf 3f67 95bf 5e2a d9bf a84e 4bc0
000001b0: 808d 05c0 4c48 98bf 509d 81bf 8565 d9bf
000001c0: 3111 eabf 616c babf b063 a8bf 516b 82bf
000001d0: a4ed 8dbf ed2f 73c0 6362 70bf 319c 8fbf
000001e0: d583 8fbf 0070 71bf 6666 34c0 7cfb a7bf
000001f0: fdfc d7bf 3880 e2bf d310 f1bf 5975 23c0
-0.061265714 -1.60187 -1.714292 -0.7972138 -1.30163 -2.444319 -1.1455991 -0.511924
-1.8149582 -0.40993506 -1.2796875 -0.9651554 -1.0968696 -4.351011 -1.258205 -0.869475
-0.39418137 -1.0017663 -1.3619887 -2.4656065 -1.4884228 -0.43262956 -1.766298 -1.7663412
-2.00033 -0.7462048 -0.95592034 -0.9579998 -1.1938204 -1.29992 -0.8774708 -1.3859227
-1.365667 -1.6612693 -1.5258336 -1.7125231 -1.0379953 -2.97547 -0.9375338 -0.8721561
-0.7910425 -1.7647959 -1.1150132 -1.2461873 -1.1060656 -0.7700784 -1.6120263 -0.9911414
-1.7305399 -1.5535283 -0.6135191 -0.38958302 -0.98628515 -1.3505245 -0.64970714 -1.2788135
-0.17912935 -0.78118515 -1.4715861 -1.4197283 -0.91273713 -1.1092119 -0.74087316 -1.3876772
-1.6025704 -1.105065 -1.3074894 -1.0590976 -0.8498985 -1.6823049 -2.3454425 -0.5161042
-1.1220316 -1.6217474 -1.1412144 -1.084474 -0.488141 -0.38609913 -1.5302597 -1.5441319
-0.40174407 -2.2690518 -3.7218783 -1.3886931 -1.6040567 -0.30363378 -0.6904214 -0.76411283
-1.7877846 -2.3693736 -1.9359965 -1.3596654 -1.2068243 -1.6439239 -0.8133308 -0.6200372
-0.7158595 -0.6103732 -1.4507908 -1.3976548 -1.3026834 -1.532292 -0.9139184 -1.0014899
-0.99391484 -1.1672133 -1.6966054 -3.1766758 -2.0867615 -1.1897063 -1.0126133 -1.6984106
-1.8286496 -1.4564325 -1.3155422 -1.0189 -1.1088147 -3.7998002 -0.93900126 -1.1219541
-1.1212107 -0.94311523 -2.81875 -1.3123622 -1.6874081 -1.7695379 -1.8833259 -2.5540373

fc2.weight f4 [128, 128]
00000000: f063 24bd 6afe 483d fd11 4abd 1079 aabc
00000010: 54a8 3f3c 0c26 43bd d309 69bd 673f 0abe
00000020: 0565 50bd 19c4 a7bd e071 053b 35e9 06be
00000030: ae4b 70bd 0b98 0bbe 3de0 25bd 4546 49bc
00000040: 3b14 863b 85e1 e1bd eec9 13be 1c33 21bb
00000050: 006b 313a ee06 08bd 00c4 b3ba c089 ea3a
00000060: 81ee f13a 5c52 86bd ff7f f2bc 00bc 54bb
00000070: c8fb 4fbc 4005 f33c fac6 9cbd 3070 973c
00000080: 223d 93bd 3501 17be 60c9 41bd 34cf b6bd
00000090: 6725 d43c f0ca d0bd 861c 9439 e637 5e3b
000000a0: 7573 943d 1ddf a33d f880 103c 5981 f03b
000000b0: 4f78 3fbd 2a0e 483d bcf2 b5bc f54c 5abd
000000c0: 0693 e7bd f2a6 41bd 4e1d bebd 2ae8 093d
000000d0: cb42 573b afc2 a23d e8e2 6cbc 0d6c 5bbc
000000e0: 1588 01be f9b4 a73d 40d9 a53c 715e 05bd
000000f0: c827 703c 6081 44bb d8f0 3ebc 7e74 97bd
00000100: 5455 88bc 68d0 c5bc b485 98bd c7dd eebd
00000110: 800e 27ba 2856 c5bd d8ff abbc 8591 843c
00000120: e40a 97bd c4f0 82bd ae05 02be e0a6 9bbd
00000130: 9573 c93b ffe3 a2bd d794 13be 29b1 903d
00000140: 1dee a0bd e7b4 fcbd a00f 3dbd 30c2 50bc
00000150: 36bd 103d 97aa 143c bc60 9dbc 2051 0fbe
00000160: 7e31 2f3d 80a4 83bd 1217 5b3d 76d0 a2bd
00000170: 6d71 a8bb 2247 c63c 40cf 5b3b 021d 453d
00000180: 7cc4 37bd 82fc 213c 110b ae3d aad8 58bd
00000190: 1e7b abbb 8b16 75bd 55e9 d3bd 358d 803d
000001a0: 167d 213d 6f58 04bd 4215 76bd f7ac afbe
000001b0: 4dba 043c 7914 5dbd 3b2b b7bd cbf7 9c3d
000001c0: f76c bb3c 550e ccbc 6b4b d6bd 94de 47bd
000001d0: 91b0 b4bc 7685 87be d12d e8bd 5c98 93bc
000001e0: b0e5 8c3c d7db ab3d 3557 16be 33ab 96bd
000001f0: c251 10be da35 c7bd d6b1 753d a250 a9bd
00000200: b61d 05be 2fbd 82bb f1a4 823d f150 a7bd
00000210: 2b4a 353d c561 8bbe 371a 14bd 134f dbbd
00000220: 35c7 abbd b6f4 ddbe c7e0 e1bd 03c1 bfbc
00000230: b944 e6bd 027c b5be c3af b13d 304c 42bd
00000240: 35dc 47bb 9ddf 7abe 16e3 40bd b3a8 11be
00000250: 4d1c 75bd b57a 613d a877 443d b0ab 0b3e
00000260: 87ba fcbd 47f1 abbd 013e 9fbd 455e 02bd
00000270: 2fe4 243a 1f7c 62bd 00d7 843b e687 b4bd
00000280: b69a bbbd 99eb c0bd 2691 523c 8d3c eb3d
00000290: 7117 0abe 4c96 c2bd 79a6 023d eb5c 973c
000002a0: d4ec acbd 1c0b 0f3c 21a4 92be a66b 9cbd
000002b0: 75fa 07be 4ddb 7d3c 7a2d 52bd cefc 9dbd
000002c0: 76b0 b5bd d072 003d edad 8e3c 1dc4 21bc
000002d0: 80fa 16be f7cb d33b e03a 56bd 424d 4d3b
000002e0: 74b9 cabd fe24 1d3d 90ec 0abc 3cf0 15bd
000002f0: 5dc9 a4bb 4ccb 68be 20e7 073c cd1b 4fbc
00000300: 2dcb 79bd 44d9 3c3d e22b 9bbd 7ed3 debd
00000310: 80aa b1bd 399d 9cbd 3833 0abd f91c 7ebc
00000320: 4add 45bd 5c7a 0dbe 2ba8 21be 8c22 c9bd
00000330: 59b9 c83c 0f6b eebd 4e33 d73d ee42 29be
00000340: 0634 d2bd 14ab 64bc e48e 9a3d eb3c 2d3d
00000350: 56f0 493d 8162 6d3d eed6 903d c226 f5bd
00000360: 5752 b4bd ed06 10be 5e9a 70be 1db1 bdbd
00000370: b110 3c3d 9110 e3bd ebc3 53bd 591d 58bd
00000380: c513 94bd 91ee 9bbe 4814 f83d 6163 89bd
00000390: 3cbb f0bc 8c48 683c b652 b33b ff1a 9abe
000003a0: 8c62 dabd f841 723c 4348 89be 5dc3 873e
000003b0: 71db 22be 3d19 0cbd a105 e4bd b4ef 8c3c
000003c0: a979 96bc 13f6 e9bd 0474 cebc 8445 98be
000003d0: 1318 c7bd 1a69 c8bd e727 8ebd 8c9c d3bc
000003e0: 0b95 fdbd 086b a8bb b2b4 f3be ddd7 07bf
000003f0: 02b2 acbc b5e7 5dbc b72a 52bd aa00 55bf
-0.04013437 0.049070753 -0.04933356 -0.02080968 0.011697847 -0.047643706 -0.056894135 -0.13500749
-0.05087759 -0.081916995 0.0020362064 -0.13174899 -0.058665924 -0.13632219 -0.040497053 -0.01228482
0.004091767 -0.110293426 -0.14432499 -0.0024597114 0.00067679584 -0.033209734 -0.0013715029 0.0017893836
0.001845792 -0.065586776 -0.029602049 -0.003246069 -0.012694307 0.02966559 -0.07655139 0.018486112
-0.071893945 -0.14746554 -0.047311187 -0.089262396 0.025896741 -0.10194957 0.0002825001 0.003390783
0.07248584 0.0800154 0.008819811 0.007339638 -0.046745595 0.048841633 -0.022210471 -0.05329605
-0.11307339 -0.047278352 -0.09282933 0.033668675 0.0032846208 0.07947289 -0.014458396 -0.0133924605
-0.12649567 0.08188815 0.020245194 -0.03256077 0.014657922 -0.002998434 -0.011654101 -0.07395266
-0.01664225 -0.024147227 -0.07447377 -0.116633944 -0.0006372705 -0.096355736 -0.02099602 0.01618267
-0.07375124 -0.06393579 -0.12697479 -0.07600188 0.0061478117 -0.07953643 -0.14412247 0.070650406
-0.078579165 -0.12339192 -0.04615748 -0.01274161 0.035336696 0.009073875 -0.019211166 -0.1399579
0.04277181 -0.0642786 0.0534888 -0.07949917 -0.0051404745 0.02420384 0.0033540279 0.048123367
-0.044865116 0.009886863 0.084982045 -0.052941002 -0.0052331826 -0.05983595 -0.10347239 0.06276933
0.039425932 -0.0323109 -0.060078867 -0.3431165 0.008101058 -0.053974602 -0.089437924 0.0766445
0.022879107 -0.024909178 -0.104636036 -0.04879625 -0.02205685 -0.2646901 -0.11336864 -0.018016987
0.017199367 0.083915405 -0.14681704 -0.073568724 -0.14093688 -0.09727068 0.05998405 -0.082673326
-0.12999615 -0.0039898376 0.06379116 -0.08169735 0.044260185 -0.2722303 -0.036157813 -0.107084416
-0.08387605 -0.43350762 -0.11029201 -0.023407465 -0.112435766 -0.35446173 0.08676102 -0.04743594
-0.0030496244 -0.24499364 -0.047091566 -0.1422451 -0.059841443 0.055048663 0.047965676 0.13639712
-0.12340265 -0.083956294 -0.07775498 -0.031828184 0.00062901055 -0.055294152 0.0040539503 -0.08814983
-0.09160368 -0.09419937 0.012851989 0.114861585 -0.13485505 -0.09501323 0.031897042 0.018476924
-0.08443609 0.008730676 -0.28640845 -0.0763772 -0.13279136 0.01549418 -0.0513129 -0.07714234
-0.08871548 0.031359494 0.017416919 -0.009873417 -0.14743996 0.0064635235 -0.05230224 0.0031326567
-0.098986536 0.038365357 -0.008479252 -0.03660606 -0.005028887 -0.22733802 0.008294851 -0.012640906
-0.06098478 0.04610564 -0.07576729 -0.10880183 -0.086750984 -0.07647175 -0.033740252 -0.015509837
-0.04830674 -0.13816208 -0.15786807 -0.098210424 0.024502443 -0.116415136 0.105078325 -0.16529438
-0.10263829 -0.013956804 0.075467855 0.042294424 0.049301468 0.05795527 0.070722446 -0.11970283
-0.088047676 -0.14065142 -0.23496386 -0.09262297 0.045914356 -0.11087144 -0.051700514 -0.052762363
-0.07230333 -0.3045545 0.12113243 -0.06708408 -0.029386155 0.014177453 0.0054725064 -0.3009872
-0.106633276 0.014786236 -0.26812944 0.26516238 -0.15904023 -0.034203757 -0.11133886 0.017204143
-0.018368559 -0.11423888 -0.025201805 -0.29740536 -0.09721389 -0.097856715 -0.069412045 -0.025831483
-0.12381943 -0.0051397122 -0.47598797 -0.53063756 -0.021080974 -0.013544013 -0.051310267 -0.8320414

fc2.bias f4 [128]
00000000: 24e2 cebe ec68 02bf 8165 3740 10e8 5740
00000010: 8583 fdbd 5e3d 44bf 8b83 dfbd 90f9 e9be
00000020: e060 1cc0 6ecc 6840 4b06 efbe 369f debf
00000030: b95c c8bd 325f 0bbf 098f 80bf e4b9 e2bd
00000040: 2f58 c9be dee7 2cbf de71 fdbe 1dcb d3bd
00000050: 5799 80bf d612 d7be 7dad 81be 90e4 04be
00000060: e58c 3bbe d339 b2be c632 a1be f01f 9fbe
00000070: d35b 8840 063b 62be 3464 99bd c242 cbbe
00000080: b036 28be fd82 9ebd 9808 f2be 5efc d4be
00000090: 91ed 04bf 8698 56bf ffd0 d7be eb5b cabe
000000a0: 0a80 3fbf c928 b9be 9d84 61bf 4298 5bbf
000000b0: 5e67 9bc0 6727 4c40 b0fa 46c0 21da 32c0
000000c0: 99d2 7fbe 96a2 9840 2e89 3cc0 1af7 8640
000000d0: f6ee 7bc0 c3e2 a3be b4c3 82be 308b 883e
000000e0: c790 d0be ba2f 68bd 22fd 2cbd ebd3 a5be
000000f0: 847a 92be 2bf5 bdbe 53f8 82be aa6e bbbd
00000100: 400a f6bd 5318 2cbe 92f1 e4be 41ef 6ec0
00000110: 75a5 943f b44a 7fbf 43c0 93be 5524 06bf
00000120: 697e 0a40 6eec 84bf bc16 6ebf 4ede 53bf
00000130: 070f 49bf 4ea9 ac40 41bc bcbd a407 6bbf
00000140: f8ac 613f 031c 15be a1a5 e8be ba05 d3be
00000150: 1906 4040 994c 04bf 38b0 7fbf e89e a7bf
00000160: 9b2b 0ebe f963 4fbe 964e 94bf 9743 28bf
00000170: ca0a 8140 25bb 14be 5b1d e2be 8be0 2ec0
00000180: 7d6b 38be 8871 4ebe 1a26 3340 4a87 3240
00000190: c234 9e40 3e82 e0be 1b13 95c0 d4e4 c4be
000001a0: a76f eabf de11 a6be bc4d 90bf 36f7 cdbd
000001b0: 649a 4bbe f0f6 b5be a5a8 d8be de87 80be
000001c0: 121e 71be 7dc0 02bf ea31 e9bd a057 9cbe
000001d0: ff11 cdbf 7cc3 06be 3584 ccbe 7073 d4be
000001e0: fca4 abbe 5835 b4be 6ee7 f1be 7d5d d9be
000001f0: 6f16 8cbe 6c30 df3f d383 a4be 94b9 cfbd
-0.40406907 -0.5094135 2.8655703 3.373539 -0.12378601 -0.7665614 -0.10913762 -0.45698214
-2.4434128 3.6374774 -0.4668449 -1.7392337 -0.097833104 -0.5444213 -1.0043651 -0.11070612
-0.3932509 -0.675413 -0.49500936 -0.10341475 -1.0046796 -0.42006558 -0.25327674 -0.12977815
-0.18315466 -0.3480974 -0.3148405 -0.31079054 4.261209 -0.22092828 -0.07489815 -0.3969937
-0.16427112 -0.07739828 -0.47272182 -0.4159879 -0.51925 -0.8382648 -0.4215164 -0.39523253
-0.7480475 -0.3616393 -0.88092977 -0.857792 -4.856368 3.189905 -3.1090508 -2.7945635
-0.2498268 4.769847 -2.9458728 4.217664 -3.93646 -0.32008943 -0.25539935 0.26668692
-0.40735456 -0.05668614 -0.042233594 -0.32388243 -0.28609097 -0.3710111 -0.2558008 -0.09151967
-0.12013674 -0.16806154 -0.44715554 -3.733353 1.1612993 -0.9972336 -0.28857622 -0.5239919
2.1639655 -1.0384653 -0.9300344 -0.82761085 -0.78538555 5.395667 -0.09215594 -0.91808534
0.88154554 -0.14561467 -0.45438865 -0.41215307 3.0003722 -0.5167938 -0.99878263 -1.3095369
-0.13883822 -0.2025298 -1.1586483 -0.65728134 4.032567 -0.14524515 -0.4416302 -2.732455
-0.18009754 -0.20160496 2.7992005 2.7895074 4.94394 -0.43849367 -4.658582 -0.38455832
-1.8315324 -0.32435507 -1.1273723 -0.10056917 -0.19883114 -0.3553996 -0.42316166 -0.25103658
-0.23546627 -0.51074964 -0.113864735 -0.30535603 -1.6021117 -0.13160509 -0.39944616 -0.41494322
-0.3352431 -0.35196948 -0.4724688 -0.42454138 -0.27360865 1.7436652 -0.32131824 -0.10142818

fc3.weight f4 [2, 128]
00000000: 9fb7 763e 0954 e6bd 5b0d 33c0 6346 6cbd
00000010: c3f6 8a3c ba3c ea3d 3eba 973b 12f0 9f3e
00000020: cb32 0cbf d71e ec3f 2fc8 32be 82ee fcbf
00000030: e1fd a73d f253 67be 95ed 81be 665e ddbc
00000040: ae0d 3b3e 3e5d 8f3d 65ab 5e3e 7dd3 073d
00000050: 46f5 34bd c113 5e3d ef06 58be e467 963c
00000060: 6d60 0fbe 8caa 043d 6e19 93bb 7808 94be
00000070: e0cd 2440 e684 113d 53b7 e8bb c32a 3e3e
00000080: 9448 9e3c d61e cabd 90bc 973e 2763 663e
00000090: 3176 1fbe 5b11 bdbf 2804 56be 5781 da3d
000000a0: 1790 2b3e 4bbf 5ebd 935f aebe 397b 11be
000000b0: e015 a5c0 749b 95c0 6ade 4ebf ba20 923e
000000c0: 153c d13e b2b8 2a40 2f78 62c0 2f80 2240
000000d0: f87f 41c0 f8ad 5e3e 0385 8fbc 562a acbe
000000e0: e623 8abd 1b3f 0d3c b158 5f3d 2689 cb3e
000000f0: e9db debb 22df b43d f592 2f3d 3a44 33bc
00000100: 679f bf3d d502 033b 44df c83d f2a3 e2bf
00000110: bf20 283c e315 bcbe 9461 f03c 236b 0cbd
00000120: c309 1540 a293 0940 fbf6 b6bd bcbd e4bd
00000130: 4200 633e 1dc3 4440 80fa c33c b358 443e
00000140: d305 84bf 27e2 933d 180c a0be 780f a0be
00000150: f1bd 0540 3b74 8cbe 4cb4 dabe 6f52 663e
00000160: 4186 a0bd d517 323e 57af e1bd a6ab 4a3e
00000170: 677a 1940 946d 5f3d e8e1 39be e95b b9bf
00000180: 58ab 09be 19d7 c3be 8787 fc3f 32b5 07c0
00000190: accd 1940 da47 8bbe 3f3b 1ec0 4f73 5dbd
000001a0: 511e 6a3f b446 6bbd 3374 1f3e 0736 cfbd
000001b0: c4b0 bf3d f383 243c 4d25 413e 104d eebc
000001c0: c7d5 18be 640d 3ebe d0ac 48bc 2572 513e
000001d0: 575b a13d b6f2 d53c 3420 b03c 1123 b13d
000001e0: 99d7 dd3d 2ad0 a73e 8619 34be 5099 973b
000001f0: a16c f13b 9826 05c0 3cd6 ae3c 5ce0 67bc
00000200: 9199 a7bb 5e30 eebc cb5b ba3f 8452 64c0
00000210: bf32 603d bc6a 23bc aaa8 a93d 74fc d0bc
00000220: 6506 c0bf db71 c7bf e29f 6b3e 8d4e 6fbe
00000230: 54e5 063d 8bf4 5b3e dd52 06bf a77e a53b
00000240: 1c1a 33bd 3464 ecbb d727 e9be e23b 423d
00000250: cd19 183e ce6a be3d bfac e2bc 8e47 ac3b
00000260: 6ffa 993d 0b76 6ebe 1650 a5bd 7110 873e
00000270: 8b1b 3140 b67f 6cbe 402a a33d 31f6 73bd
00000280: e03d b2bc e081 393d ee0f 96ba e272 03bd
00000290: 3bb7 8b3e 31f5 8840 4444 8039 7a9a a0be
000002a0: 37f6 083e 1ccb 2dbd b9e8 cb39 759c aebe
000002b0: ab0a 83c0 8d7d 113d db45 cb3e 788d 763e
000002c0: 2f01 8b3e 40ac 3240 7f5f 47c0 4270 2e40
000002d0: 0be8 06c0 cbdf 2f3b 4825 b43d 773b 69be
000002e0: 4cde 9c3e fb02 983d 928a 1c3d d862 3bbe
000002f0: 9f3e 01be 0cc9 983e 64b8 e7bc cec4 5bba
00000300: 1850 96bc ca11 803d 8337 94be 777a 05c0
00000310: b69a 6f3f d1a7 3bbd b9aa 9a3e c546 8cbe
00000320: 3fa6 a4bf 8838 5ac0 d981 09be 0c92 24bd
00000330: f4b0 113e 30c9 3640 b43a edbc f548 ad3e
00000340: 3413 debf a854 493c ce4f ddbc 74f8 d73d
00000350: e550 b7be bee5 513e 4919 e9bd 4eaa 9e3e
00000360: ef68 01be 6128 d1bd 76d3 0b3e d05b 0cbe
00000370: eccd 1640 f2ee 353c 3f7d 81bc 3d9a 0cbe
00000380: d21d e33d 7d0a 7dbe 4ec5 af3f 7d77 8c3f
00000390: 9411 4a40 3203 a8be ad57 efbf 3c74 923e
000003a0: d494 aebf fb48 12bd f0a3 fcbe 29c2 efbd
000003b0: 1ed3 a7bc e5f3 7abe e859 cbbb b57c 583e
000003c0: 4223 59bd b6f2 0d3e 3268 d4bc f516 cabb
000003d0: e5ff 4dbf 9871 703c 5f72 91be c553 92be
000003e0: 3081 a5bd 581d 6b3e 6537 d63d 33d7 553e
000003f0: 8f4e bf3b 06f0 4ec0 e01f 5abe 243b e3ba
0.24093483 -0.11246497 -2.7976902 -0.057684314 0.016963368 0.11437364 0.004630356 0.31237847
-0.54765004 1.8446912 -0.17459176 -1.9760287 0.082027204 -0.22590616 -0.25376573 -0.027022552
0.18266937 0.070002064 0.2174507 0.033160675 -0.044179223 0.054218058 -0.21096395 0.018360086
-0.14001627 0.03238921 -0.0044891154 -0.2891271 2.5750656 0.035527132 -0.007101932 0.18571
0.019321717 -0.09869163 0.2963605 0.22498761 -0.1557243 -1.4770921 -0.20900023 0.10669201
0.16754185 -0.05438165 -0.34057292 -0.14207162 -5.1589203 -4.675226 -0.80808127 0.28540593
0.4086615 2.667523 -3.5385854 2.5390737 -3.0234356 0.21746051 -0.01751948 -0.3362605
-0.06745128 0.008621003 0.054527942 0.39753073 -0.0068011177 0.08831622 0.04286476 -0.010941559
0.093565755 0.0019990702 0.098082095 -1.7706282 0.0102617135 -0.36735448 0.029343404 -0.03428186
2.3287208 2.1496358 -0.089338265 -0.111690015 0.22168067 3.0744088 0.023923159 0.19174461
-1.0314277 0.072208695 -0.31259227 -0.31261802 2.089718 -0.27432427 -0.4271568 0.22492383
-0.07838107 0.17391904 -0.110197715 0.19792041 2.3980958 0.05454786 -0.18152583 -1.4481174
-0.13444269 -0.38250044 1.972886 -2.1204343 2.4031782 -0.27203256 -2.472366 -0.054065045
0.9145251 -0.057440475 0.1557167 -0.10117727 0.09359887 0.010041225 0.18861885 -0.02908948
-0.149253 -0.18559796 -0.012248233 0.20453699 0.0787875 0.02611671 0.02149973 0.086492665
0.108321376 0.32776004 -0.17587861 0.0046264306 0.007367686 -2.0804806 0.02134239 -0.014152613
-0.005114742 -0.029075798 1.4559263 -3.5675364 0.054735895 -0.009974178 0.08284123 -0.025511004
-1.5001951 -1.5581621 0.23010209 -0.23369808 0.032933548 0.21480004 -0.5247019 0.0050504985
-0.04372607 -0.0072140936 -0.45538208 0.04742039 0.14853592 0.09297715 -0.027670262 0.0052575534
0.075184695 -0.23287217 -0.08071916 0.2637973 2.767306 -0.23095593 0.07967043 -0.05956096
-0.02175802 0.045289874 -0.0011448839 -0.032091983 0.2728823 4.2799306 0.00024464924 -0.31367856
0.13375174 -0.04243003 0.0003889257 -0.34103742 -4.0950522 0.035520125 0.39701733 0.24077404
0.2714934 2.7917633 -3.1152036 2.7256017 -2.1079128 0.0026836272 0.08796173 -0.2277659
0.3063835 0.074224435 0.03821809 -0.18299425 -0.12621544 0.29840887 -0.028286166 -0.0008383513
-0.018348739 0.06253393 -0.28948602 -2.0855997 0.93595445 -0.04581434 0.30208376 -0.27397743
-1.2863234 -3.4097004 -0.13428439 -0.040178344 0.14227659 2.8560295 -0.028958656 0.33844724
-1.734961 0.01228825 -0.027015593 0.105454355 -0.35803905 0.20497796 -0.11381776 0.30989307
-0.12637685 -0.1021278 0.13654885 -0.13706899 2.3563185 0.011104332 -0.015806792 -0.13730712
0.11089672 -0.24711032 1.3732088 1.0973965 3.157323 -0.32814938 -1.8698632 0.28604305
-1.3639169 -0.03571413 -0.49343824 -0.11706955 -0.02048641 -0.24507101 -0.006205786 0.21141322
-0.05301214 0.13862118 -0.02592859 -0.0061672875 -0.8046859 0.01467552 -0.2840757 -0.28579536
-0.08081281 0.22960413 0.104597844 0.20882873 0.0058382223 -3.2333999 -0.21301222 -0.0017336351

fc3.bias f4 [2]
00000000: 3300 9c40 b504 ee40
4.8750243 7.4380746
