weights/baseline_weights.pth (torch, 72290 bytes, 6 tensors)

fc1.weight f4 [128, 4]
000000 2b 3f 9d 3e d7 b0 bc be 3a d1 75 bf fc ca eb be
       0.30712256 -0.36853668 -0.9602238 -0.46053302
000010 03 24 dd 3e c6 9b be bd 19 38 3d be 5f c3 ee 3d
       0.43191537 -0.09307055 -0.18478431 0.11658358
000020 11 81 62 3b ff 40 40 bd 65 dc 99 be d7 9c 4b bd
       0.0034561793 -0.046936985 -0.3005096 -0.04971012
000030 94 1b fa bb b1 ad e9 bb 8d 95 d8 3e 73 4c 48 bd
       -0.007632682 -0.0071313013 0.42301598 -0.048901033
000040 b2 84 5f be 4e cc 35 3e 0e 5b 06 bf 76 85 8b 3e
       -0.21827963 0.17753717 -0.5248269 0.2725026
000050 ce ba 42 3e be a4 31 be 11 0c 4d 3f 88 a1 cd bb
       0.19016573 -0.17348 0.80096537 -0.0062753595
000060 22 87 f3 3c 7f 8a 1d bd 27 e7 a5 3e 72 2b 6b 3e
       0.029727522 -0.03846216 0.32402918 0.22965792
000070 39 fd 2a 3e e3 22 69 3c dd 62 a6 3d 3e 48 46 be
       0.1669816 0.014229509 0.081243254 -0.19363496
000080 f2 4c ec 3f 26 e7 c3 3f 51 72 0b 41 df 67 0c 40
       1.8460982 1.5304916 8.715409 2.1938398
000090 03 3d 70 3e 62 e4 d6 be 0c 23 16 bf fd ff 26 bf
       0.23460774 -0.41971117 -0.5864723 -0.6523436
0000a0 9b 29 b1 3d a1 91 8a 3d 45 70 ba 3e 9f c4 a5 3d
       0.08650514 0.06766058 0.3641378 0.08094143
0000b0 b3 e2 ab be 74 57 aa bd 9c 24 fe 3d c0 af c8 3e
       -0.33571395 -0.083174616 0.124093264 0.39196587
0000c0 66 ff 6f 3e 59 47 8e bd 9e e3 a9 bd de e6 3b 3e
       0.2343727 -0.06947202 -0.08295368 0.18349788
0000d0 a8 97 32 3e 30 92 ba 3c c6 7d d6 3e 41 b1 0a 3d
       0.17440665 0.022774786 0.41892833 0.03386045
0000e0 96 f6 a4 3e f4 3e 8f be 4f 7b 08 bf ca 6f c7 be
       0.3221938 -0.27977717 -0.53313154 -0.38952476
0000f0 8d 6f a6 3c f5 96 fa bd 5c 92 03 3f 4b c6 8f 3d
       0.020316863 -0.12235824 0.513952 0.07020243
000100 4b e3 2d bc 9b da 0a 3e 45 b4 a9 be 06 3f e5 3e
       -0.010613273 0.13559954 -0.33145347 0.44774646
000110 8f 42 3e 3d 94 9a 70 be d7 a5 be be ef a6 43 be
       0.046450194 -0.23496467 -0.372359 -0.19106649
000120 c4 50 92 3d b8 f8 23 be 59 45 52 3d 79 71 90 3d
       0.07144311 -0.16012847 0.051335666 0.07052893
000130 50 97 06 be 5f 4e 4c 3e ea f3 a9 bf 84 0d cb 3e
       -0.13143659 0.19951771 -1.3277562 0.3965875
000140 51 b9 1b bc e3 b7 63 3d 5c 50 38 c0 2f 2c 1c 3e
       -0.009504632 0.05559529 -2.8799047 0.1525123
000150 96 2d a1 bd 41 38 3f be 10 90 9e be b9 ec 40 be
       -0.07870023 -0.18673803 -0.30969286 -0.18840303
000160 ea 1e 34 3d 40 72 61 bc 1c c5 6c 3e 19 a4 64 bd
       0.043974794 -0.0137601495 0.23122066 -0.05582056
000170 2e e5 8b 3e dd 70 f6 bd ac c0 a4 be c4 28 d5 be
       0.27323288 -0.12033246 -0.32178247 -0.41632664
000180 7f b3 9a 3d db 29 a2 bd a1 cd 91 3e eb 14 9f 3d
       0.075537674 -0.079181395 0.28477195 0.07767662
000190 85 55 7d 3e 6e a5 54 be ca 8a 3e 3f e0 78 ba be
       0.24739654 -0.20766231 0.74430525 -0.36420345
0001a0 0b 0b 82 3c 73 73 b9 3d 67 b1 5a be 37 8f 66 bd
       0.015874406 0.09055223 -0.21356736 -0.056288924
0001b0 48 6b 9d 3c dc e7 52 bd 1e fe 44 3f 28 ba 25 3e
       0.019216195 -0.05149065 0.7695025 0.16184294
0001c0 93 c9 54 3e 57 b9 52 3e 9a 1e 99 3e f2 2f bb 3e
       0.2078002 0.20578514 0.2990616 0.36560017
0001d0 0b 8b 73 3e 66 25 29 bf 17 05 7f 3d b1 58 26 bf
       0.2378351 -0.6607269 0.062260713 -0.6497908
0001e0 be 1b 76 bd e9 4a 0a 3e c0 bf e9 3c ef 78 45 3d
       -0.06008505 0.13505138 0.028533816 0.048211034
0001f0 65 b9 34 3e b3 34 10 be 5a 16 91 3e ff 30 c3 be
       0.17648847 -0.14082603 0.28337365 -0.3812332
000200 39 4a 51 3c 08 6d 56 bd 4f e4 51 41 63 48 c4 3f
       0.012774044 -0.052350074 13.118239 1.5334591
000210 5f 63 5a be f5 5c 63 be ab 84 5a bd 57 c6 02 be
       -0.2132697 -0.22203429 -0.05334918 -0.12770973
000220 0b 45 36 be 23 76 89 3c b6 44 58 be d3 dd 1b bd
       -0.17799775 0.016779965 -0.21119961 -0.038053345
000230 c6 a6 e5 3d 32 81 4e be 1b e6 44 bf 90 ca d6 3d
       0.1121345 -0.20166472 -0.76913613 0.104878545
000240 1e 79 0f 3e 7b a3 b9 be 42 5f 05 3e 26 87 ce bd
       0.14011046 -0.36257538 0.13024619 -0.10084371
000250 a2 87 62 be ec 81 85 3e b1 2e 37 bc ca b4 48 3e
       -0.22122052 0.26075685 -0.011180566 0.19600216
000260 d1 d3 13 3e cf 66 8d be 36 bf 6e 3e f7 21 dd bd
       0.1443627 -0.276175 0.23315129 -0.10797494
000270 ef dd a9 3e bd 99 e5 bd bc fa be be 91 a1 35 be
       0.33177134 -0.11210964 -0.3730067 -0.17737414
000280 2b dd 1c 3c 52 a8 59 bd f1 43 71 3f 71 9e a3 be
       0.009574215 -0.05313904 0.94244295 -0.3195682
000290 d1 c4 a8 3d 25 29 83 be 5f 76 13 3b 76 4b 2a 3e
       0.08240665 -0.25617328 0.0022500975 0.16630349
0002a0 85 17 a8 3c fe 89 d8 3d cf 5f 10 bf 46 da 80 be
       0.020519027 0.10573195 -0.5639619 -0.2516653
0002b0 fb 8e f3 bd c1 c1 41 3d a7 12 59 bd 3e 1d ac 3d
       -0.11892506 0.04730392 -0.052996304 0.08404015
0002c0 3e 4c d7 3c 07 db 94 3e 57 45 6b c0 0e c9 1f 3f
       0.026281472 0.29073355 -3.6761072 0.6241616
0002d0 22 cc 73 3e 82 f8 83 bd d1 a1 1e 3f 0b cc 8e 3d
       0.23808339 -0.064438835 0.6196566 0.06972512
0002e0 1f 0a 03 be cb 42 d0 3c 4a f4 b5 be 5f e5 2e 3e
       -0.1279683 0.025422474 -0.3553794 0.17079686
0002f0 04 c1 fa 3d 8d f1 80 bd b4 6e 93 be 8f 46 8f bd
       0.12243846 -0.06296072 -0.28795397 -0.0699588
000300 dd 5f 91 3e fe 37 cf bd f8 b7 24 3c 33 2d 47 be
       0.2839345 -0.101181015 0.010053627 -0.19450836
000310 0f c5 dd bf 59 20 6a bf 10 36 a7 c0 e4 5b bc bf
       -1.7325763 -0.9145561 -5.2253494 -1.4715543
000320 58 4e 4f bd 07 15 eb 3d 92 90 1a be ee 44 20 3e
       -0.050611824 0.1147862 -0.15094212 0.15651295
000330 8a cb 91 3e 07 05 8f bd 60 7f ed bd f6 69 30 be
       0.284756 -0.06983381 -0.115965605 -0.17227921
000340 48 28 8c 3d ab 35 a5 3c cc de 8a be 76 2a ac bd
       0.068436205 0.020167192 -0.27123106 -0.08406536
000350 c3 92 95 bd 3d d7 fd 3d 94 e8 a3 3d 8d 40 72 3e
       -0.07303383 0.12394569 0.08003345 0.23657437
000360 63 cf 92 bd 49 1a 90 3c 0e 5d f8 3e 0a e7 6d be
       -0.07168462 0.017590659 0.48508495 -0.23232666
000370 93 fe 0c 3e 70 29 ff bd 62 1b ba 3e 65 79 01 be
       0.13768987 -0.124590755 0.36349016 -0.12643965
000380 63 66 28 3e 2a b7 57 be cd e8 fa bf 2c 05 a9 be
       0.16445307 -0.21065965 -1.9602295 -0.33011758
000390 ca f8 ad be 1b d0 c6 3e 68 fd a2 bd c6 65 cf 3e
       -0.33978873 0.38830647 -0.0795849 0.40507334
0003a0 ad f5 7f 3e f3 89 f1 bd 1b ab 21 3f c4 ed b9 3c
       0.24996062 -0.1179389 0.6315171 0.022696383
0003b0 4b 17 7c 3e 53 30 32 be e0 f9 27 bd 1c 49 bf be
       0.2461826 -0.17401247 -0.041009784 -0.37360466
0003c0 c5 0d 06 3e 49 25 28 be 4d 5a 69 3e be 12 d0 be
       0.1309119 -0.16420473 0.22788353 -0.406393
0003d0 e0 a7 00 3e cb 7b 97 be e3 f7 35 3d e3 63 8b be
       0.12564039 -0.29586634 0.044425856 -0.27224645
0003e0 ad 61 d0 3d ed 6d 4f bc 36 01 8b bf 08 21 1c bc
       0.1017488 -0.012660486 -1.0859745 -0.00952936
0003f0 37 36 da bd 89 15 14 3e c2 30 2c 3b 3c 49 a6 bd
       -0.10654872 0.1446134 0.002627418 -0.08119437

fc1.bias f4 [128]
000000 7d 7f 13 c0 95 35 a3 bf 20 ca 3a bf c8 b6 9f bf
       -2.3046563 -1.2750727 -0.7296467 -1.2477655
000010 90 a4 e9 bf 38 1e 47 bf e1 6a 71 bf 2a 0b b0 bf
       -1.8253345 -0.77780485 -0.9430371 -1.3753407
000020 62 a8 89 c0 f5 11 e0 bf 6d 19 1d bf 17 95 de bf
       -4.3018045 -1.750548 -0.6136692 -1.7389249
000030 cf 33 83 bf 8e 3e 67 bf 12 47 cb bf 78 58 90 bf
       -1.0250186 -0.90329826 -1.5881064 -1.1276999
000040 c0 81 d4 bf a5 35 8e bf 67 a4 bf bf c6 b8 85 bf
       -1.6602097 -1.1110121 -1.4972047 -1.0447013
000050 f1 da c6 bf e6 22 a2 bf b1 e4 ce be 03 87 c4 bf
       -1.5535566 -1.26669 -0.40408853 -1.5353702
000060 87 54 05 bf 7d 2b 8e bf 96 2c 8c bf 9d 96 8c bf
       -0.52082103 -1.1107022 -1.0951107 -1.0983464
000070 4f 83 ac bf 06 24 24 c0 48 b9 66 bf 9a 15 e4 bf
       -1.3477572 -2.5646987 -0.90126467 -1.7819092
000080 f6 f0 20 c0 b9 56 e6 bf 8d b2 74 bf 09 f9 95 bf
       -2.514707 -1.7995216 -0.95584947 -1.1716624
000090 ac b7 d0 bf 2b da a4 bf 87 fd a4 bf c4 c3 b3 bf
       -1.6306052 -1.287908 -1.288987 -1.4044118
0000a0 21 15 44 bf ab 7e da bf 24 73 72 bf a0 33 4c bf
       -0.7659474 -1.7069906 -0.9470694 -0.79766273
0000b0 17 18 c5 bf 37 55 7a bf b0 fa 5f bf 02 19 71 bf
       -1.5397977 -0.9778628 -0.87491894 -0.94178784
0000c0 42 57 88 bf b8 59 85 c0 22 4b fd be 28 08 85 bf
       -1.0651629 -4.167202 -0.49471384 -1.0393114
0000d0 f0 35 1c bf 6b f6 8d bf 39 f5 89 bf af d9 85 bf
       -0.610198 -1.1090826 -1.0777961 -1.0457057
0000e0 f8 41 be bf 64 8f b6 bf d6 6f 41 bf 19 4d 9b bf
       -1.4863882 -1.4262509 -0.75561273 -1.2132903
0000f0 12 fd e9 bf e4 a8 b5 bf fa 14 07 bf 2b 7e 0e c0
       -1.8280356 -1.4192166 -0.5276638 -2.2264507
000100 1e e9 fd bf 91 d6 b9 bf 43 27 d6 bf a9 0c b8 bf
       -1.9836767 -1.4518605 -1.6730732 -1.4378864
000110 d6 d0 dd bf 79 8c 6a bf 53 fb 57 c0 6a c0 fd be
       -1.7329357 -0.91620594 -3.3747146 -0.49560863
000120 fd f0 ef bf e1 36 a8 bf 79 28 08 c0 d9 74 8f bf
       -1.8745419 -1.3141748 -2.1274703 -1.1207534
000130 d3 69 ba bf 3f 15 be bf a8 61 cf bf be 6d 03 bf
       -1.4563545 -1.4850234 -1.6201677 -0.5133933
000140 74 ec 1f bf 82 85 12 c0 21 4f 35 bf f7 5e a0 bf
       -0.62470174 -2.2893987 -0.70823866 -1.2528981
000150 a6 da 0f c0 67 dc f0 bf b5 d6 bc bf 0f a2 19 c0
       -2.2477202 -1.8817261 -1.4753023 -2.4005163
000160 ca 45 c5 be 5a 6e b6 bf 32 63 5d bf ed 7a fa bf
       -0.38529807 -1.4252427 -0.86479485 -1.9568764
000170 8d 1a 48 bf aa 9b 29 bf 02 b7 c9 bf 8a 38 cb bf
       -0.78165513 -0.6625315 -1.5758975 -1.5876629
000180 d7 4c 94 bf 5e 9e 8e bf 58 90 bf bf ed 35 8a bf
       -1.158595 -1.114208 -1.4965925 -1.0797707
000190 a2 ce b8 bf 2c 85 d5 bf f8 2d e8 bf ee b8 fd be
       -1.4438059 -1.6681266 -1.8139029 -0.49555153
0001a0 bf 55 b7 bf fe 9b 91 bf 20 56 db bf 49 07 d4 bf
       -1.4323043 -1.137573 -1.7135658 -1.6564723
0001b0 c5 55 b1 bf 2b 7b cf bf 60 a3 ad bf 8b b9 93 bf
       -1.38543 -1.6209463 -1.3565483 -1.1540998
0001c0 5c 84 c0 bf ae 22 51 c0 07 24 2f bf 0b 5b 04 c0
       -1.5040393 -3.2677417 -0.6841435 -2.0680568
0001d0 73 9f a1 bf 2d 69 16 c0 a4 d8 d0 bf 67 99 a1 c0
       -1.2626785 -2.3501694 -1.6316113 -5.049976
0001e0 4e ab 62 bf 30 9b 9b bf 0b 3e 64 bf e2 23 60 c0
       -0.8854264 -1.2156734 -0.8915717 -3.50219
0001f0 63 82 30 bf d1 e6 ef bf 85 e4 ac bf 24 5e 9a bf
       -0.68948954 -1.8742315 -1.3507239 -1.205998

fc2.weight f4 [128, 128]
000000 14 18 87 3c eb df d6 bd 4f 19 3c bd 6c 4a 0b 3d
       0.016490974 -0.10491928 -0.045922574 0.03400652
000010 7d 86 80 3c 4f 7b fe bc 8e 1b 38 ba 93 2f 17 be
       0.015689129 -0.031064657 -0.0007023149 -0.14764242
000020 24 54 83 be 45 98 7e bd 9a b3 ce 3a d9 90 04 be
       -0.25650132 -0.062156934 0.0015770078 -0.1294588
000030 0e c2 35 bd 06 5b 65 bd 73 e2 8b bd 9a 12 ab bd
       -0.044374518 -0.05599501 -0.06830301 -0.08353157
000040 90 05 ce bd 18 41 7f 3c 63 10 e4 bd c8 b5 b4 bd
       -0.10059655 0.015579484 -0.11135938 -0.088237345
000050 51 5c 9e bd 79 0e 4d bd ab b3 a7 bd 74 7e d0 bc
       -0.07732452 -0.05006263 -0.08188566 -0.025450923
000060 11 db 58 bd e0 30 f3 bd 23 1d 88 3d 9e 1d d9 bd
       -0.052943293 -0.118745565 0.066461824 -0.10601352
000070 bb 5e df bd 2e 1a 3a bc 12 0b a5 bd 26 80 e9 bd
       -0.1090674 -0.011358781 -0.08058752 -0.114013955
000080 53 a1 38 bc 83 e4 5e bd 4f 18 ca bc ad df ff bd
       -0.011268931 -0.054417145 -0.024669794 -0.12493835
000090 ca 33 8d bc 01 85 02 bd 5e 3c 6b 3d db 7e 86 bd
       -0.017236609 -0.031865124 0.057430618 -0.065671645
0000a0 96 23 14 be 78 8e ef bd 45 41 00 be a8 57 e5 bc
       -0.144667 -0.11697096 -0.12524898 -0.0279959
0000b0 d7 66 96 3d ab b1 f7 bd 76 6f 67 bd 0b 6f dd bd
       0.07343834 -0.12094434 -0.05650278 -0.108121954
0000c0 3d e0 b4 3d 4d 63 80 3c 9f 98 b1 3c d9 b6 29 bd
       0.088318326 0.01567235 0.02167922 -0.041434143
0000d0 82 08 09 bd b3 00 ca 3c 84 5e d7 3c 35 3c 58 bd
       -0.03345538 0.024658537 0.026290186 -0.052791793
0000e0 30 57 90 3b e7 16 ea bc c8 43 78 bd 8a e5 13 3c
       0.004404925 -0.028575374 -0.060611516 0.009026894
0000f0 66 3f 64 bd 5b 5c 24 bd 2d 19 18 3c 77 03 82 bd
       -0.055724524 -0.04012714 0.009283346 -0.06348317
000100 f4 75 03 bd 66 f1 e2 bc da 87 6c bd 1a dc 9f bd
       -0.03209491 -0.027702998 -0.057746746 -0.07805653
000110 73 0b 23 bc c9 7d b9 bd 29 5a c0 3c 27 ac 0e bd
       -0.00995146 -0.09057195 0.023480492 -0.034832146
000120 42 e1 71 bd af af ba bd 2e f4 f7 bc 82 1b a7 bc
       -0.059052713 -0.0911554 -0.030267801 -0.020398859
000130 bd 8d c8 bd 41 6e c6 3c 95 28 6d 3c 7f 73 78 bd
       -0.097926594 0.024222495 0.014475008 -0.06065702
000140 dc 29 9f bd fe b2 de bd 61 9e 8b bc 63 7b ae bd
       -0.07771656 -0.10873984 -0.017043294 -0.08519628
000150 05 ff 0c be 60 9c b6 bd 3c 2f c8 bc a3 b6 4d bd
       -0.13769157 -0.08916545 -0.024436586 -0.050223004
000160 5d 50 9b bc 0c 36 c5 bc 38 39 87 bb 1a 97 dd bd
       -0.018959219 -0.024073623 -0.004126694 -0.10819836
000170 1d 53 c9 bd 4b 01 e1 bd 26 eb 81 bc 49 b9 01 bd
       -0.09830306 -0.10986575 -0.015859198 -0.031670842
000180 47 d5 07 bd 78 f6 28 bd d2 30 df bd 72 d5 ad 3b
       -0.03316238 -0.041250676 -0.108979836 0.0053049857
000190 06 17 97 bd 48 b3 5c bc 73 f1 11 be 6a a3 63 3d
       -0.07377438 -0.013470478 -0.14252262 0.055575766
0001a0 15 c5 a7 3d 48 0f ce bd 50 5b c7 bd e8 8e 78 bc
       0.08191887 -0.100615084 -0.09734213 -0.01517079
0001b0 86 d6 4e 3d 0d 18 fa bc 21 2e 68 bd 7e 79 0f be
       0.050497554 -0.030529046 -0.056684617 -0.1401119
0001c0 ea 66 14 bd 19 b1 2c bd 92 93 16 3c 78 aa 49 bc
       -0.03623096 -0.04216108 0.009190457 -0.012308709
0001d0 33 09 96 3d 35 0c b6 bd 66 ea c2 bd 4e 0f af bd
       0.07325973 -0.08889047 -0.09517364 -0.08547841
0001e0 a9 b0 a5 3d ad d2 4e bd 34 4b 0c be 1b 9f 3e bd
       0.08090336 -0.050493885 -0.13700563 -0.046538454
0001f0 2c 98 5f 3b 50 39 03 be 2a 84 0d be c8 69 96 bd
       0.00341178 -0.12814832 -0.13819948 -0.07344395
000200 9b 2a 0c 3f 75 d5 85 be 04 83 01 bf 2a e8 1b bf
       0.5475251 -0.26139417 -0.5059054 -0.6090113
000210 90 f1 2c 3e 59 55 36 3e 0a 33 9e bc 6a 0f 0c 3e
       0.16889024 0.17805995 -0.019311447 0.13677755
000220 13 06 82 bf 5d e4 2c 3e 67 76 45 bf ea 22 c9 3e
       -1.0158104 0.16883989 -0.7713379 0.3928445
000230 11 a6 35 bf 7d 56 b0 3e 8b dc 0d 3f 02 4c ae bd
       -0.7095652 0.34440985 0.55414647 -0.08510591
000240 3f 79 7b 3c da 57 37 3e 9b 15 1e bd d1 f4 05 3e
       0.015348732 0.17904606 -0.038594823 0.13081671
000250 c1 9f c4 bd e6 c2 7d 3d c1 c5 23 3e 5e 80 99 be
       -0.09600783 0.061953448 0.15993406 -0.2998075
000260 69 a7 b6 be 0b cb 28 3e 2a de 52 3e 22 77 bd bd
       -0.356746 0.16483705 0.20592561 -0.092512384
000270 3f e3 d0 bd ca ff 2b 3e fa 23 a4 3d 62 74 e0 be
       -0.10199594 0.16796795 0.080146745 -0.43838793
000280 73 a2 9e bf 97 b5 aa be b3 dc 32 3f c1 48 01 be
       -1.2393326 -0.33341667 0.6986801 -0.1262541
000290 ae 96 5e 3d f9 33 62 bc c0 66 b4 3e 6b 34 39 3f
       0.054342918 -0.013806337 0.35234642 0.7234561
0002a0 26 e4 c5 b8 f9 d2 70 3c 67 dd 24 be 29 f6 0c 3f
       -9.436188e-05 0.014698737 -0.16100083 0.5506311
0002b0 fd 85 2b bf 37 a7 11 3e f8 87 df 3d 5e e0 d9 3e
       -0.67001325 0.14223944 0.10914606 0.4255399
0002c0 99 cc 5c 3e f3 ec cc 3e 90 7f 8a 3d 9e a0 9f 3e
       0.21562423 0.40024528 0.06762612 0.3117723
0002d0 45 04 db bc cc 30 38 be 67 9a ed be 57 b9 70 3e
       -0.026735434 -0.17987365 -0.46406862 0.23508202
0002e0 c0 6a 12 bf 52 77 93 3e 1b 0f 06 be 46 df 40 3f
       -0.5719414 0.28801972 -0.130917 0.7534069
0002f0 c4 2b de bd 1e c3 99 bb 73 f4 57 3e 27 7c 0c bf
       -0.108481914 -0.0046924492 0.21089344 -0.5487694
000300 d3 a1 c4 3e e3 07 b6 be 9d b1 af 3c 8d b7 ac be
       0.38404712 -0.35552892 0.021446997 -0.33733788
000310 e6 e8 0d 3f f1 01 09 bf 6a f3 ec bf 11 96 1d 3b
       0.554335 -0.5351859 -1.8511784 0.0024045745
000320 9d 13 62 3f 6b a5 e6 bd 0c 7c 4e 3e 35 8e c7 be
       0.8831118 -0.1126202 0.20164508 -0.38975683
000330 d1 65 ad 3e 11 91 16 3f 0e 9e f9 be 54 94 86 3e
       0.33866742 0.58815104 -0.487534 0.2628504
000340 70 78 b5 3c 31 98 5b c0 fc b8 53 be 8b 41 4e 3e
       0.022152156 -3.431164 -0.20676035 0.2014219
000350 03 aa a7 bf a6 af a5 be 40 c0 85 3e 4b 7f 56 3f
       -1.3098758 -0.32360572 0.26123238 0.83787984
000360 ef 75 80 bd a9 0c 18 3f 53 73 bf 3e 21 e9 cc be
       -0.06272494 0.5939432 0.37392673 -0.40021613
000370 57 78 15 be 95 2e fa bc a3 51 03 be 9e 26 a0 3a
       -0.14596687 -0.03053979 -0.1282411 0.001221854
000380 d2 2d 64 bd 77 30 bf bd d8 d3 24 bf 54 1c 0f be
       -0.05570776 -0.09335416 -0.6438575 -0.1397565
000390 0a 31 51 bf 88 ef ea 3c 07 9a 11 bf c6 05 73 be
       -0.8171545 0.02867867 -0.5687565 -0.23732671
0003a0 7a 1e 08 3f a5 3a e6 be 7b 83 1d 3e 35 fb 92 3b
       0.53171504 -0.44966617 0.15382187 0.0044855126
0003b0 ce 5e 03 3e 7c 22 84 3e ce 1f 29 3e 19 83 52 3d
       0.12829134 0.2580756 0.16516039 0.051394556
0003c0 67 c2 8a 3e fb d3 d5 bf 85 b7 d9 3d 2c ae 36 bd
       0.27101442 -1.6705316 0.10630707 -0.044599697
0003d0 35 35 fc bd da 24 8a bf 93 33 8f 3e 7c 9d 42 bf
       -0.12314836 -1.0792496 0.27969036 -0.7602155
0003e0 ee 99 f3 3e 11 62 81 3e 9b 58 42 3e f3 33 21 be
       0.47578377 0.2527013 0.18979113 -0.15742473
0003f0 8f cf f1 bd b0 1f 7f 3e 5b 21 25 bf 09 c5 29 be
       -0.11807167 0.24914432 -0.6450402 -0.16579069

fc2.bias f4 [128]
000000 a0 1c ea be df 10 57 40 4f a7 79 40 a8 e8 87 40
       -0.45724964 3.3604047 3.9008367 4.2471504
000010 a3 ef 9a bd 61 b2 44 c0 71 b6 a3 bf 36 ec de be
       -0.07565238 -3.0733874 -1.2790052 -0.4353959
000020 09 b7 c7 be 82 01 5c be b5 30 63 40 d7 51 bc be
       -0.39006832 -0.2148495 3.5498478 -0.3678119
000030 1e e6 94 be b4 08 51 bd 0f f2 ed bf 1e 26 40 bf
       -0.29081815 -0.05103369 -1.8589495 -0.7505816
000040 76 59 73 be 7c 5e 0b bf 5b 84 17 be fa 9e 4b 40
       -0.23764595 -0.54441047 -0.14796583 3.1815782
000050 b1 09 7a bf f0 25 55 bf a6 7d 3e 40 14 e1 83 40
       -0.9767104 -0.83261013 2.976419 4.1212254
000060 db 17 c3 be f4 f1 a3 be 13 30 d9 bd 38 79 97 be
       -0.38104138 -0.32020533 -0.106048726 -0.2958467
000070 1d 56 1f c0 15 d0 eb be 21 17 44 40 4a 37 a7 be
       -2.489631 -0.46057191 3.0639117 -0.3265937
000080 e7 14 04 bf d7 78 02 bf ab 4b e4 be 0f b0 51 be
       -0.51594394 -0.50965637 -0.4458898 -0.20477317
000090 3e 33 f2 bd 66 d4 21 bf 48 cf e6 be e0 a6 16 be
       -0.1182618 -0.6321472 -0.45080018 -0.14712095
0000a0 71 26 1e bd c1 25 11 40 5e 50 b5 be ab da 2f c0
       -0.03861088 2.2679293 -0.35412878 -2.7477214
0000b0 1f 77 5e 3f 56 7c 2a be 9e d9 2e bf ab ca 75 be
       0.86900514 -0.16648993 -0.6830081 -0.24003093
0000c0 53 62 b8 be b8 8d 28 be 4e fa eb be 2b 77 37 bf
       -0.36012515 -0.16460311 -0.46089405 -0.7166621
0000d0 59 b3 79 40 33 40 4a be 27 82 98 be 3c a1 8c bf
       3.9015715 -0.19751053 -0.29786798 -1.0986705
0000e0 a1 d1 43 c0 c0 ed e4 be c9 8c bf be 05 0e 7c 40
       -3.0596697 -0.4471264 -0.37412098 3.9383557
0000f0 59 b7 68 bf 8f 5c d3 be 12 0c 24 bf dc ab d0 be
       -0.90904766 -0.41281554 -0.6408092 -0.40756118
000100 89 5c d7 be fe af d5 3f 78 1a 03 3f bd bd 92 bd
       -0.42062786 1.6694334 0.51212263 -0.07165096
000110 ec 54 82 bd 4c d9 f5 be 98 c7 de bd c0 34 f5 be
       -0.06363854 -0.48017347 -0.10877913 -0.47891808
000120 ab e5 99 be 10 03 5b bf 39 ae 5a bf 3c 8b 1c bf
       -0.30058035 -0.8555155 -0.8542209 -0.61149955
000130 55 ce 35 40 3a 1f 64 bf 88 aa 4e bf 30 8a e8 bd
       2.8407185 -0.8911015 -0.8072896 -0.11354482
000140 ec da 1d be 5c 2a 5e bf cd 11 2e bf 7e 51 1e bf
       -0.15415543 -0.86783385 -0.6799591 -0.618431
000150 81 62 90 be fe 56 2a bf 24 80 14 be 07 50 77 bf
       -0.28200153 -0.6653899 -0.14502007 -0.9660649
000160 d2 d4 bf be b6 55 67 bd 1d 35 01 bd 16 72 db be
       -0.37467057 -0.056478225 -0.031544793 -0.42860478
000170 90 21 d1 bd c0 06 59 c0 18 50 f8 bd 23 c3 01 bf
       -0.1021148 -3.391037 -0.12124652 -0.5068838
000180 c2 8b 01 bf d5 3c 0d be 03 46 b8 be 5a 48 6b bd
       -0.5060388 -0.13792737 -0.35990915 -0.057442047
000190 48 da bf be 28 f4 3c 40 21 32 8b 40 6f 0d 82 40
       -0.37471223 2.952402 4.3498693 4.06414
0001a0 03 a2 9c be fd e7 0d be 40 3d 03 bf aa 71 48 40
       -0.30592355 -0.13858028 -0.51265335 3.1319375
0001b0 71 b2 88 40 53 d5 9a be 66 78 85 be 25 8b a5 c0
       4.2717824 -0.30240878 -0.2606842 -5.1732354
0001c0 8b d8 1f be da cc ce bd de 0b 6b 40 ea 9d 2c bf
       -0.15609948 -0.10097666 3.6725993 -0.6742846
0001d0 d7 6e 08 bf a3 76 d7 bd 4f 18 56 40 00 93 e2 be
       -0.5329413 -0.10520675 3.3452337 -0.44252777
0001e0 96 60 9c be 36 d7 e1 bd ee ea 40 40 83 d6 f6 bd
       -0.3054244 -0.11027376 3.014339 -0.120526336
0001f0 30 45 b8 be 29 b1 ac be 0c c5 8c 40 e4 76 9b be
       -0.35990286 -0.33728912 4.3990536 -0.30364144

fc3.weight f4 [2, 128]
000000 aa d8 3e 3d 0e d4 14 3f d3 e0 f5 3f 4e 70 f9 3f
       0.046593346 0.5813607 1.9209236 1.9487398
000010 3d d5 1b bd 1f 4d 95 40 46 92 21 bd d0 93 79 be
       -0.038045157 4.665664 -0.039446138 -0.24372792
000020 2d 26 a2 3d c4 a9 87 3d ce b0 14 40 75 5c 8b be
       0.07917438 0.06624177 2.3232913 -0.27218977
000030 6c e9 e8 bd 8e a3 c9 3c a9 59 ff bf c8 57 21 3e
       -0.11372647 0.024614122 -1.9949237 0.15756142
000040 ac 66 de 3d 4d 5c fd 3d 9d d2 ce bc f3 e9 6f 40
       0.10859427 0.123711206 -0.025246913 3.7486541
000050 84 cc 13 3e 63 31 de 3f e5 13 50 bf d4 e7 8e c0
       0.14433485 1.7358822 -0.81280357 -4.4657993
000060 90 71 95 be fd 35 68 bd 6b bc 0e 3c 4d 28 37 bc
       -0.29188204 -0.056692112 0.0087119145 -0.011179042
000070 50 d2 2b bd 27 1a c7 be 0e b6 c7 3f cf 0e 97 bc
       -0.041948617 -0.3888714 1.5602434 -0.018439678
000080 0b 73 c9 bc 02 03 8f bd 04 86 4b bc f2 af 31 3e
       -0.02459099 -0.069829956 -0.0124220885 0.17352274
000090 6c ea fc 39 97 e5 ad bd e8 7b 88 bd e2 ec 8c 3d
       0.00048239843 -0.084910564 -0.06664258 0.06881119
0000a0 16 2d 30 3a 27 ed 82 3f 9a cc 94 be cc d1 30 c0
       0.00067205855 1.0228623 -0.2906235 -2.762805
0000b0 ff 60 3e 3f d4 ce 7e 3d 0c ca 8e 3d 38 51 fd 3c
       0.74366754 0.062208965 0.06972131 0.030922517
0000c0 fd 4e ba bd 42 03 a4 bd 74 3a 9d 3e 52 73 a1 3e
       -0.09097097 -0.08008434 0.3070866 0.31533295
0000d0 06 2b ca 3f 4c 75 04 3e 0c 60 5b be b1 3d 4f 3d
       1.579438 0.1293537 -0.21423358 0.050595943
0000e0 a4 1a b3 c0 f2 c5 9a be e4 16 31 3d ad 1f 2a 40
       -5.597002 -0.30229145 0.04323472 2.6581833
0000f0 bf 59 36 be b7 aa 83 3c 30 e6 98 3d 87 f8 cd 3c
       -0.17807673 0.016072614 0.0746578 0.025142921
000100 2e fa e8 3d fb 70 34 3f 62 ee 9d 3e 85 ad 1f bd
       0.11375843 0.70484895 0.30845934 -0.03898384
000110 00 d6 f0 3c ea f8 3d 3c 86 4d 89 3c 31 df 0c be
       0.029398918 0.01159499 0.016760599 -0.13757016
000120 7c 8a cf bc 55 50 9f bd 26 2c 8e 3e 99 b1 1d be
       -0.02533459 -0.07778994 0.27768058 -0.1539978
000130 4b 1b b6 3f 3e 8d 74 be 00 a6 9d 3d 72 d2 3b 3d
       1.4227079 -0.23882005 0.076976776 0.045854993
000140 49 6d 5e 3d a5 c8 e8 be 00 07 bd bd 5f 3c 45 bd
       0.05430344 -0.4546558 -0.09229851 -0.048153277
000150 88 08 69 3e fe 90 8e 3c 1a 3f ce 3c 8a 98 18 3f
       0.2275716 0.017403122 0.025176574 0.59607756
000160 2e eb f6 3c 24 66 29 3d 9d e4 32 3d c9 40 84 3e
       0.03014144 0.041357175 0.043675054 0.25830677
000170 a8 54 99 3c 23 d7 0a c0 c4 77 40 bb 9b b8 85 3d
       0.018717125 -2.169381 -0.002936826 0.06529351
000180 b7 7c a5 3c 7d 18 57 3d 19 2b dd 3c f7 e1 c1 3c
       0.02020107 0.05251359 0.02699809 0.023667319
000190 34 fc 51 3d b6 30 d5 3f 0f e5 12 40 a3 e7 16 40
       0.05126591 1.665549 2.2952306 2.357888
0001a0 6b bf f3 3c c6 5e 19 3c 76 7a cc 3d 54 6f e7 3f
       0.029754361 0.009360975 0.09984295 1.808085
0001b0 e2 27 98 c0 e8 e9 17 3d 2c e3 21 3d 64 4c b0 3e
       -4.7548685 0.037088305 0.03952329 0.3443328
0001c0 14 df ac 3d 1a d3 7f 3c 3c 70 44 c0 43 97 11 be
       0.08440986 0.015614295 -3.0693502 -0.14217858
0001d0 b0 e3 36 be 94 18 a6 bb 1e ed 32 40 5b 15 c1 3c
       -0.17860293 -0.005068848 2.7957225 0.023569753
0001e0 8b 18 76 be fc 41 7b 3d 1a 36 bb 3f a1 dd e3 bf
       -0.240328 0.061342224 1.4625885 -1.7802011
0001f0 8e 92 52 3d bc 4d bc bc 25 95 ce 3f 29 ee 3e 3e
       0.051409297 -0.022986285 1.6139265 0.18645538
000200 03 ff a0 be 9b 08 d0 3f 6c 07 e5 3f 7a 70 ee 3f
       -0.31444559 1.6252626 1.789289 1.8628075
000210 0a 87 1e 3b 15 9d 0b 40 6c 02 5c 3e 11 7a 08 be
       0.0024189376 2.1814625 0.21485299 -0.13327815
000220 82 f3 a0 3d 1d 65 b3 3d 67 f4 65 c0 87 85 85 3d
       0.078589454 0.0875952 -3.5930421 0.06519609
000230 60 8e 98 3e af 63 88 3d c7 53 84 c0 a4 a1 8f be
       0.29796124 0.06659638 -4.1352267 -0.2805301
000240 7e 6c b0 3d 60 6a d0 bd ca 82 62 3d 28 9b 97 bd
       0.08614443 -0.101765394 0.05530051 -0.074026406
000250 c0 a8 91 3e 40 68 bf 3f 1a 08 47 40 d2 e8 99 3f
       0.2844906 1.495369 3.1098695 1.2024176
000260 f6 fa a1 bd 36 1f 0d 3e 57 45 d9 bb 7d bd 02 3d
       -0.07909195 0.13781437 -0.0066305804 0.03191899
000270 bf af 23 c0 ba b4 3a be 91 c4 af 3f 7e 21 06 3d
       -2.5576017 -0.18233004 1.3731862 0.032746784
000280 96 bb 99 3d 05 69 50 3e 4f 41 0c bd 82 ee 2b 3e
       0.07506482 0.20352562 -0.03424197 0.16790202
000290 03 5a d5 3d ec 4c 85 3e c7 d5 11 bc 26 d1 66 3d
       0.10417559 0.2603525 -0.008901066 0.056351803
0002a0 9c a9 11 3e a7 8b c2 3f 31 2a a0 bc 6b c5 a9 bf
       0.14224857 1.5198869 -0.019551368 -1.3263372
0002b0 7f 63 02 c0 27 2d de 3d 43 07 e0 bd 1e 96 38 3d
       -2.0373228 0.10848456 -0.10938885 0.045065038
0002c0 fa 78 4b 3d 31 e7 61 b8 2f 6d 68 bc 2c d8 de be
       0.04967592 -5.3859494e-05 -0.014186188 -0.435243
0002d0 8b 30 65 c0 98 c8 20 3c de fa 31 bd d3 83 59 bd
       -3.5810878 0.00981345 -0.043452136 -0.053104233
0002e0 b6 91 c3 c0 97 fc 03 bd a9 b2 97 be 48 f8 0a 40
       -6.111537 -0.03222331 -0.29628494 2.171404
0002f0 d1 ba 68 bc 9a 8e 43 be 27 f0 81 bb 1b dc 50 be
       -0.014204697 -0.19097367 -0.003965396 -0.20396464
000300 bf d6 31 3e 67 63 55 3f b6 7b d6 3c 38 1c d1 bb
       0.17367075 0.833548 0.026182037 -0.0063815378
000310 e6 44 39 3d 10 c0 b7 bc bd 78 46 bd bc 10 d1 3e
       0.045231722 -0.02243045 -0.04845499 0.4083308
000320 1d f5 49 be 71 37 57 3c 2b d6 35 3e 7b 1f 6b 3e
       -0.1972241 0.013135777 0.1775748 0.22961228
000330 a6 69 a0 3f 81 a4 b3 be 49 5b e4 3d de 9e ce bc
       1.2532241 -0.35086444 0.11150224 -0.025222238
000340 55 67 53 bc 61 9c 4d 3d e5 ad 06 be 81 63 96 3e
       -0.012903054 0.050197963 -0.13152273 0.2937279
000350 c1 91 8f 3d bf f0 95 bd b1 7b 41 bc 6f ed 7d 3c
       0.07010222 -0.07321309 -0.0118092755 0.015498503
000360 3e f8 8e 3e de b0 d1 3c 41 f0 c2 bc f1 cb 86 3e
       0.2792377 0.025597032 -0.023796203 0.2632747
000370 60 87 a7 3d ce ca 42 c0 da 9a a0 3d 7a 2c 2d 3e
       0.081801176 -3.0436282 0.078420356 0.16911498
000380 df 0c f8 3c 61 8f 1a 3d 24 c8 81 3e fb 6a 8e bc
       0.030279575 0.037734393 0.25348008 -0.017384997
000390 35 66 94 3e 84 12 d8 3f 61 fa e0 3f 6d 39 f0 3f
       0.28984228 1.688065 1.757641 1.8767525
0003a0 9f 2b 93 3e 3a ba 57 bd 06 c3 31 3d e3 5f 90 3f
       0.28744218 -0.052667834 0.04339888 1.1279262
0003b0 75 76 23 3e 0c a1 80 bb 59 3e 80 3d 11 18 bf bf
       0.15963157 -0.0039254483 0.06261892 -1.492922
0003c0 8c b0 85 bc 29 ed 81 3d 88 91 08 40 ed 25 00 3e
       -0.016319536 0.06344063 2.1338825 0.12514468
0003d0 22 fd 1d bd 9b de 3b 3d 1a 35 43 c0 dd 81 34 be
       -0.038571484 0.04586659 -3.050116 -0.17627664
0003e0 5a 39 af bd 1c 8c b3 bb 74 d9 26 40 10 41 11 40
       -0.08555861 -0.005479349 2.6070223 2.269596
0003f0 18 a7 82 3e c8 15 67 bb 4a e5 14 40 10 93 41 3c
       0.25518107 -0.0035260785 2.3264947 0.011814848

fc3.bias f4 [2]
000000 3c a8 d3 40 a1 f4 a6 40
       6.6142864 5.217362
