weights/baseline_weights_random_poles.pth (torch, 72290 bytes, 6 tensors)

fc1.weight f4 [128, 4]
0.125349 -0.05766144 1.3233191 -0.4220479 -0.38126194 0.023571206 -0.8595857 0.30330437
-0.16894889 -0.06725709 -0.51618916 0.34439063 0.3421387 -0.18185392 14.335413 0.79651296
0.064467974 -0.1368293 0.12814246 0.1946436 -0.17540717 -0.20155387 0.17909914 -0.3081452
-0.25343654 0.117511444 -0.6967631 0.52501094 -0.0950641 0.24647327 -0.2629389 0.7056898
0.16731066 0.047913242 -1.3595855 -0.27279255 -0.22735043 0.075012535 -0.17509604 0.104659505
-0.14807734 -0.024740325 -0.3640931 0.41461226 0.1706853 -0.102515794 -0.07683392 0.14818792
-0.17427504 -0.011288244 -0.2384424 0.2694069 0.14893223 -0.22009122 -4.430106 -0.14914042
-0.12384152 0.1922311 0.24753886 0.22505999 0.033880875 -0.024042124 0.60236806 0.14139378
0.058370613 0.23095897 0.05415731 0.12463265 -0.4427443 0.086131915 -0.28819987 -0.13188756
0.69263244 -0.46524057 1.1927258 -0.7319323 0.08041 0.13779767 -0.45846865 0.23849706
0.26799515 -0.47141466 0.8949857 -0.68409437 -0.033548426 -0.015982881 -0.29242373 0.11156243
-0.08508695 0.38370264 -0.25355354 0.46452683 0.42546326 -0.31315854 -0.13015996 -0.43744433
-0.16935773 0.06844968 -0.4744826 0.23049034 -0.19549635 0.0063183587 -0.66472626 0.06708029
0.1597027 0.037143126 0.13475417 -0.12540905 0.27617198 -0.1693771 1.5821838 0.48873323
-0.08993091 -0.11120509 -0.1548225 0.3569133 0.2348409 0.18369599 -1.4216216 -0.15598008
0.021802545 0.034206513 0.19297491 0.3117015 0.026448421 -0.11256477 0.25136572 -0.024334773
-0.17732961 -0.10914807 -0.16682547 0.16038895 0.10358777 -0.013035624 -0.100174434 -0.058911797
-2.6298618 -1.2939566 -6.5092835 -1.3701633 0.017068082 0.0036522658 0.8340762 -0.14334501
0.06331669 0.046125833 -0.022000276 0.163828 -0.25896618 -0.00041866978 -0.15391575 0.32055658
0.088636935 -0.032780588 -0.053212345 -0.054083586 0.058127835 -0.1484754 -0.501667 -0.37445468
0.2030229 -0.100351445 0.46642432 -0.057892464 -0.16811554 0.12896104 -0.40057573 0.08146659
-0.20006377 0.38727757 1.9271703 1.2101841 0.09279971 0.068533584 -0.72614306 0.09858574
-0.38022563 0.09451311 0.016072929 0.013543666 -0.15013045 0.6892341 -13.325149 -0.9836054
0.02262867 0.31003016 -0.03155732 0.19355449 -0.05443387 -0.19323863 -8.391426 -0.42665714
0.017193932 0.13487549 0.30375507 -0.13639331 0.583514 -0.8029071 -2.2230387 -0.9983208
-0.03094762 -0.17138067 0.42571738 -0.4053914 -0.0025814285 0.21758416 -0.83214945 -0.05217469
0.109445944 0.18049088 -0.056222305 0.36331254 -0.29326674 0.34481418 -0.60651743 0.78325564
0.022599569 0.013319195 0.21655259 -0.21121404 0.026367597 0.22971514 -0.3056194 0.14142263
0.12684183 -0.17456946 0.1247867 -0.12646505 0.023125976 0.25667155 -0.47433287 -0.19462985
-0.24419649 0.13890252 -0.43109354 0.13201517 0.025849218 0.13529323 -0.2035487 0.49647298
-0.06300986 0.16028778 -0.37652376 0.021329887 0.046017837 -0.2654644 0.2703673 -0.21241218
0.12169844 0.027129669 4.706011 0.22215897 0.12114742 0.030361252 -0.5067741 0.030828668
00000000: 7d5b 003e 672e 6cbd 8562 a93f aa16 d8be
00000010: c434 c3be 6718 c13c cf0d 5cbf b64a 9b3e
00000020: f000 2dbe 16be 89bd f924 04bf f853 b03e
00000030: ce2c af3e ea37 3abe da5d 6541 46e8 4b3f
00000040: c907 843d fb1c 0cbe c737 033e a750 473e
00000050: f09d 33be 2364 4ebe c465 373e 35c5 9dbe
00000060: 6fc2 81be d7a9 f03d 115f 32bf 1e67 063f
00000070: f8b0 c2bd 7d63 7c3e ed9f 86be 16a8 343f
00000080: 7c53 2b3e ad40 443d e606 aebf 77ab 8bbe
00000090: 8dce 68be 2ca0 993d 604c 33be b957 d63d
000000a0: 96a1 17be 39ac cabc 696a babe 0f48 d43e
000000b0: 21c8 2e3e cdf3 d1bd 1a5b 9dbd 93be 173e
000000c0: 2875 32be 54f2 38bc 3f2a 74be b4ef 893e
000000d0: b181 183e 985f 61be 6ec3 8dc0 44b8 18be
000000e0: 9fa0 fdbd 3bd8 443e d47a 7d3e 2076 663e
000000f0: acc6 0a3d fdf3 c4bc cb34 1a3f 88c9 103e
00000100: 0616 6f3d 8280 6c3e 0ed4 5d3d 673f ff3d
00000110: 62af e2be ee65 b03d ef8e 93be 880d 07be
00000120: 5c50 313f 0334 eebe 3dab 983f ea5f 3bbf
00000130: 00ae a43d d51a 0d3e 67bc eabe 9338 743e
00000140: a936 893e 435d f1be c81d 653f cf20 2fbf
00000150: 136a 09bd 88ee 82bc 90b8 95be d87a e43d
00000160: 1142 aebd ac74 c43e c5d1 81be 76d6 ed3e
00000170: 52d6 d93e 5156 a0be a748 05be b4f8 dfbe
00000180: 1d6c 2dbe 592f 8c3d 62ef f2be a905 6c3e
00000190: 3230 48be 3c0a cf3b 802b 2abf 6461 893d
000001a0: 1b89 233e 6423 183d fffc 093e 3b6b 00be
000001b0: 6a66 8d3e 3171 2dbe 0085 ca3f 3e3b fa3e
000001c0: b22d b8bd 7fbf e3bd ca89 1ebe 57bd b63e
000001d0: 227a 703e cd1a 3c3e b2f7 b5bf 3eb9 1fbe
000001e0: 409b b23c 211c 0c3d 379b 453e 5797 9f3e
000001f0: 5caa d83c 5c88 e6bd 02b3 803e b859 c7bc
00000200: e595 35be 0689 dfbd 4cd4 2abe 003d 243e
00000210: d325 d43d 5f93 55bc 4128 cdbd 7f4d 71bd
00000220: a84f 28c0 5fa0 a5bf 0d4c d0c0 8361 afbf
00000230: 5dd2 8b3c da5a 6f3b 0586 553f 09c9 12be
00000240: 2eac 813d 71ee 3c3d ec39 b4bc 87c2 273e
00000250: 3797 84be e880 dbb9 179c 1dbe fe1f a43e
00000260: 4887 b53d f044 06bd 30f5 59bd c086 5dbd
00000270: 7417 6e3d ef09 18be 406d 00bf 86b8 bfbe
00000280: 3ce5 4f3e 0f85 cdbd 2bcf ee3e a620 6dbd
00000290: 7b26 2cbe 5d0e 043e 4318 cdbe f5d7 a63d
000002a0: 84dd 4cbe 3f49 c63e 84ad f63f 50e7 9a3f
000002b0: c60d be3d 565b 8c3d 83e4 39bf 52e7 c93d
000002c0: efac c2be 1790 c13d 60ab 833c 41e6 5d3c
000002d0: ccbb 19be a571 303f cf33 55c1 90cd 7bbf
000002e0: c35f b93c 46bc 9e3e 4042 01bd 2633 463e
000002f0: 0df6 5ebd 59e0 45be 4843 06c1 ce72 dabe
00000300: 4ada 8c3c cd1c 0a3e c985 9b3e b0aa 0bbe
00000310: 2c61 153f 528b 4dbf 4446 0ec0 f491 7fbf
00000320: dd85 fdbc 6a7e 2fbe a1f7 d93e 768f cfbe
00000330: 2f2d 29bb 62ce 5e3e bf07 55bf 21b5 55bd
00000340: 3225 e03d 9ad2 383e 5c49 66bd 1a04 ba3e
00000350: 0f27 96be 7c8b b03e ba44 1bbf 7183 483f
00000360: bb22 b93c c138 5a3c f6bf 5d3e 7e48 58be
00000370: dc00 d83c 723a 6b3e 257a 9cbe 18d1 103e
00000380: d3e2 013e 56c2 32be 2b90 ff3d 0e80 01be
00000390: b072 bd3c 746a 833e c2db f2be 0c4d 47be
000003a0: a50e 7abe 763c 0e3e 4bb8 dcbe fc2e 073e
000003b0: bdc1 d33c 4f8a 0a3e 126f 50be b531 fe3e
000003c0: 500b 81bd 7b22 243e b9c7 c0be 04bc ae3c
000003d0: 337d 3c3d f3ea 87be 956d 8a3e 9482 59be
000003e0: 083d f93d 0a3f de3c a497 9640 a47d 633e
000003f0: 231c f83d 29b8 f83c f3bb 01bf 678c fc3c

fc1.bias f4 [128]
-1.381724 -1.6700172 -1.6047444 -2.348791 -1.0234056 -1.3423029 -1.6263862 -1.7621436
-2.0209026 -0.8106756 -1.4903163 -0.8780105 -1.4375727 -1.463687 -0.7657894 -0.57484496
-1.5355794 -1.3668613 -2.3505125 -0.7768225 -2.1341162 -1.0422658 -1.5018241 -1.4369041
-1.5966928 -0.77844346 -0.8966759 -1.8775121 -1.566375 -1.6525193 -1.0072347 -0.6564123
-1.2572992 -0.74068135 -4.4810395 -1.0720736 -0.5851652 -1.7388891 -0.30167097 -1.0263134
-0.69581187 -1.8132982 -2.7368498 -1.1708667 -1.0620146 -3.1920178 -1.4864278 -2.7119234
-1.2425365 -3.4803889 -1.4369043 -1.2826155 -1.2714821 -2.0738764 -1.3868756 -1.2004715
-1.0363446 -1.5074052 -1.281207 -1.2919462 -1.461485 -1.6415328 -2.671511 -1.178949
-1.1766126 -0.813039 -1.951101 -1.3549597 -1.0714377 -1.0676615 -0.9860753 -0.6994232
-2.02146 -1.393037 -3.487906 -1.131579 -1.0490723 -1.4000164 -0.8452879 -1.2140168
-2.9745474 -0.5750009 -1.3437492 -0.93860984 -2.4327724 -1.6495411 -1.2530113 -1.4047279
-0.8872537 -0.8814624 -1.1270908 -1.5886939 -0.4519639 -1.23408 -2.1514077 -0.90022594
-1.3390121 -1.41963 -1.121059 -0.48263907 -1.6038948 -0.5940278 -1.0170892 -0.9232654
-1.2693824 -1.6747146 -1.1285169 -1.15125 -0.43198657 -1.5250683 -2.5524774 -1.6497755
-0.731753 -0.8857129 -1.0093644 -1.5440334 -2.9502294 -1.9314287 -1.1479905 -0.59386903
-1.5548583 -1.1094139 -0.48540002 -1.6961137 -1.6848068 -1.6830248 -0.69864976 -4.70856
00000000: 55dc b0bf 20c3 d5bf 4468 cdbf 9752 16c0
00000010: f4fe 82bf 95d0 abbf 6c2d d0bf ec8d e1bf
00000020: 7856 01c0 7088 4fbf afc2 bebf 4cc5 60bf
00000030: 6202 b8bf 185a bbbf c60a 44bf 0a29 13bf
00000040: de8d c4bf 50f5 aebf cc6e 16c0 d7dd 46bf
00000050: 5c95 08c0 f768 85bf c63b c0bf 79ec b7bf
00000060: 6e60 ccbf 1248 47bf 8d8c 65bf 5152 f0bf
00000070: fa7e c8bf c185 d3bf 11ed 80bf a30a 28bf
00000080: 2eef a0bf 4b9d 3dbf ad64 8fc0 b539 89bf
00000090: 63cd 15bf eb93 debf 9e74 9abe 3d5e 83bf
000000a0: ba20 32bf 281a e8bf 8c28 2fc0 f6de 95bf
000000b0: 18f0 87bf 054a 4cc0 4443 bebf 2790 2dc0
000000c0: 700b 9fbf b1be 5ec0 7bec b7bf bf2c a4bf
000000d0: edbf a2bf 64ba 04c0 2485 b1bf 0da9 99bf
000000e0: f1a6 84bf a7f2 c0bf 97fe a3bf 7e5e a5bf
000000f0: f111 bbbf bf1d d2bf 09fa 2ac0 cde7 96bf
00000100: 3e9b 96bf 5323 50bf adbd f9bf 526f adbf
00000110: df24 89bf 22a9 88bf 6e6f 7cbf 660d 33bf
00000120: 9a5f 01c0 094f b2bf da39 5fc0 95d7 90bf
00000130: 0048 86bf bd33 b3bf ca64 58bf e764 9bbf
00000140: fc5e 3ec0 4233 13bf f9ff abbf bc48 70bf
00000150: 8bb2 1bc0 2a24 d3bf ad62 a0bf 20ce b3bf
00000160: 0f23 63bf 85a7 61bf 8344 90bf 525a cbbf
00000170: d067 e7be 55f6 9dbf aab0 09c0 3575 66bf
00000180: c064 abbf 70b6 b5bf dc7e 8fbf 781c f7be
00000190: 6d4c cdbf 3512 18bf fb2f 82bf 1f5b 6cbf
000001a0: 1f7b a2bf 0c5d d6bf 3e73 90bf 295c 93bf
000001b0: 582d ddbe 7035 c3bf ca5b 23c0 d82b d3bf
000001c0: 2a54 3bbf 15be 62bf da32 81bf e3a2 c5bf
000001d0: 8fd0 3cc0 0e39 f7bf 5af1 92bf cd07 18bf
000001e0: 9905 c7bf 4601 8ebf 5a86 f8be 411a d9bf
000001f0: c0a7 d7bf 5b6d d7bf b6da 32bf 86ac 96c0

fc2.weight f4 [128, 128]
-0.024000207 0.053747855 0.030109974 -0.13186657 -0.055255655 -0.040758867 -0.041040324 -0.13506417
-0.8137174 0.13203482 -0.009492198 0.03837356 -0.019700965 -0.25779217 -0.048254367 -0.066015944
0.048411183 0.06595634 0.08845498 -0.04485994 -0.055591132 -0.06815229 0.0038477108 -0.13436608
0.014153421 -0.084693626 -0.024964109 -0.11678732 0.045097936 0.018129693 -0.056804426 -0.059760947
0.08794724 -0.08421647 -0.20480813 0.04138958 -0.05678097 -0.07429512 0.034845226 -0.5251259
-0.0868603 0.028380197 -0.09140753 -0.15321164 -0.09462208 -0.029449735 -0.09788641 -0.4352625
0.03716584 -0.1921329 -0.03431592 -0.008284152 0.049898498 0.021462373 -0.11628084 0.0014597038
-0.07169855 -0.042011745 0.08618521 0.07266625 0.030329494 -0.06329964 -0.11279623 0.075327
-0.1310123 0.14524904 -0.7943428 -0.12236827 -0.086965986 -0.021179289 0.04469016 0.0015163571
0.027519867 0.057357766 -0.13900617 0.033539735 -0.0509266 0.012421241 -0.00841518 0.030881502
-0.16468622 0.06931901 -0.040199265 0.056559425 -0.20226671 -0.017824352 -0.03663426 0.0017515867
-0.0038829893 0.022487996 0.39114416 -0.017792257 0.025921987 0.29859775 -0.16591014 -0.09265534
0.027419731 -0.11368379 -0.0599182 -0.073770955 0.015451163 -0.033320103 -0.056594413 0.1276488
-0.09970758 -0.10406259 0.090214245 -0.029283915 -0.008292926 -0.01010441 -0.13704869 0.04318928
-0.85978913 0.043241173 -0.21702982 -0.15839611 -0.63068205 0.061796244 0.028180925 -0.034311783
-0.058535367 -0.12650535 -0.19037582 -0.0346472 0.067388885 0.068455644 0.049471267 -0.22534937
-0.08624007 -0.0301009 0.024769759 0.034013435 -0.18585218 -0.19153704 -0.06694101 -0.06700593
-0.045491714 -0.11453274 0.006005515 -0.13045967 -0.09336065 -0.12110591 0.019809445 0.0657282
0.053707026 -0.09990743 -0.16119628 -0.041745223 -0.1299103 0.065235704 -0.06540039 0.055486064
-0.060870826 -0.039268885 -0.11431689 -0.023874845 -0.0059118955 -0.021007799 -0.05114673 -0.014908554
0.1704261 0.060782656 -0.06365542 -0.12091689 0.04154422 -0.07573862 0.08287322 -0.19887798
-0.36998346 -0.08264193 -0.16279966 -0.1255562 -0.029696884 -0.55500364 -0.048153866 -0.012219062
-0.01313749 -0.13308519 0.054804333 0.0102834925 -0.034211587 0.034668 -0.02198964 0.017161869
0.0074052503 -0.041054465 0.24101414 0.27901244 -0.07679027 -0.03138211 -0.12605463 0.06257749
0.038545035 0.0021046898 0.3478521 -0.007677517 -0.11235779 0.109487295 0.07141774 0.06423083
-0.047003075 -0.04311266 0.28426212 -0.07789517 0.027089285 -0.06977297 -0.01167759 0.0036250576
-2.022752 -0.111435786 -0.14064142 -0.1200609 0.087133795 0.03409844 -0.07151364 -0.024585234
-0.002728723 -0.0816366 -0.11559137 -0.02604035 -0.022260187 -0.038401626 -0.18705623 -0.006945664
0.058703892 -0.07152347 -0.07604077 0.051043592 -0.2468299 0.029941292 -0.04576576 -0.08906842
-0.037335943 -0.036081504 0.011215116 -0.073963754 -0.06367797 0.017039642 -0.23844971 -0.050090306
-0.41222334 0.04326461 -0.0029523894 0.13722448 -0.056932583 -0.109157704 -0.00769444 0.012312005
-0.036547985 0.042397976 -0.14242843 0.026490305 0.035123616 0.0092302635 0.036692403 -0.92002946
00000000: 159c c4bc b626 5c3d 31a9 f63c 0808 07be
00000010: c153 62bd c5f2 26bd e619 28bd 434e 0abe
00000020: c94f 50bf 2334 073e 2a85 1bbc 982d 1d3d
00000030: eb63 a1bc 56fd 83be 5fa6 45bd 5e33 87bd
00000040: ce4a 463d 1e14 873d e227 b53d 0ebf 37bd
00000050: 87b3 63bd 6e93 8bbd e029 7c3b 4397 09be
00000060: c0e3 673c da73 adbd 8881 ccbc 312e efbd
00000070: 9db8 383d b984 943c c2ab 68bd e5c7 74bd
00000080: af1d b43d af79 acbd 39b9 51be 1f88 293d
00000090: 2a93 68bd 0a28 98bd deb9 0e3d a76e 06bf
000000a0: d0e3 b1bd 967d e83c df33 bbbd 83e3 1cbe
000000b0: 39c9 c1bd 9240 f1bc ac78 c8bd bada debe
000000c0: 353b 183d 7dbe 44be da8e 0cbd 40ba 07bc
000000d0: 5e62 4c3d dcd1 af3c a624 eebd 8853 bf3a
000000e0: b0d6 92bd 8214 2cbd df81 b03d 0bd2 943d
000000f0: 8f75 f83c 3ea3 81bd b601 e7bd 0b45 9a3d
00000100: 1728 06be 2abc 143e 0d5a 4bbf 379c fabd
00000110: 391b b2bd 3080 adbc 070d 373d 80c0 c63a
00000120: 5871 e13c faef 6a3d a257 0ebe f660 093d
00000130: 6998 50bd 7682 4b3c d3df 09bc 34fb fc3c
00000140: 81a3 28be 20f7 8d3d fca7 24bd dbaa 673d
00000150: 011f 4fbe 6004 92bc ce0d 16bd 7f95 e53a
00000160: c079 7ebb bf38 b83c 0c44 c83e 11c1 91bc
00000170: 595a d43c cee1 983e 59e4 29be 15c2 bdbd
00000180: 589f e03c 0cd3 e8bd c96c 75bd 3a15 97bd
00000190: e026 7d3c a97a 08bd 8bcf 67bd 5eb6 023e
000001a0: 7d33 ccbd c41e d5bd 3fc2 b83d d2e4 efbc
000001b0: 0ddf 07bc f88c 25bc 7e56 0cbe 3ee7 303d
000001c0: 241b 5cbf a81d 313d 113d 5ebe 9732 22be
000001d0: 6174 21bf 0f1e 7d3d afdb e63c 838a 0cbd
000001e0: c8c2 6fbd 9e8a 01be e1f1 42be 39ea 0dbd
000001f0: 2f03 8a3d 7932 8c3d 62a2 4a3d fcc1 66be
00000200: a29e b0bd 2a96 f6bc f3e9 ca3c ac51 0b3d
00000210: 0950 3ebe 4922 44be 5e18 89bd 683a 89bd
00000220: 8555 3abd 2490 eabd e9c9 c43b 3897 05be
00000230: de33 bfbd 6006 f8bd 6b47 a23c 829c 863d
00000240: e6fb 5b3d 449c ccbd a310 25be 0afd 2abd
00000250: 3507 05be 4c9a 853d a4f0 85bd 5b45 633d
00000260: b053 79bd 69d8 20bd f91e eabd 2e95 c3bc
00000270: 93b8 c1bb 8c18 acbc 3c7f 51bd 0243 74bc
00000280: 2e84 2e3e 3cf7 783d c65d 82bd 46a3 f7bd
00000290: 462a 2a3d d91c 9bbd 6fb9 a93d aba6 4bbe
000002a0: 796e bdbe 2c40 a9bd f4b4 26be ce91 00be
000002b0: e146 f3bc b814 0ebf fd3c 45bd 7632 48bc
000002c0: a03e 57bc 7c47 08be 827a 603d 187c 283c
000002d0: 7321 0cbd 0800 0e3d 9e23 b4bc 0c97 8c3c
000002e0: bea7 f23b ba28 28bd 69cc 763e b8da 8e3e
000002f0: 3844 9dbd 878a 00bd 7714 01be a128 803d
00000300: 66e1 1d3d d6ee 093b ac19 b23e ae93 fbbb
00000310: d71b e6bd e03a e03d 7743 923d 748b 833d
00000320: 4c86 40bd e796 30bd ce8a 913e 8187 9fbd
00000330: 59ea dd3c 22e5 8ebd 5d53 3fbc 6092 6d3b
00000340: c574 01c0 7238 e4bd 4e04 10be 7de2 f5bd
00000350: 3473 b23d ceaa 0b3d be75 92bd f966 c9bc
00000360: 60d4 32bb 1731 a7bd 2bbb ecbd 9252 d5bc
00000370: ff5a b6bc 064b 1dbd ab8b 3fbe 7498 e3bb
00000380: 7e73 703d e67a 92bd 43bb 9bbd 1613 513d
00000390: fac0 7cbe 7147 f53c e174 3bbd 8169 b6bd
000003a0: 93ed 18bd 33ca 13bd 9bbf 373c 4f7a 97bd
000003b0: 9869 82bd b896 8b3c 292c 74be 7e2b 4dbd
000003c0: f00e d3be 3b36 313d e07c 41bb 9384 0c3e
000003d0: 2432 69bd 138e dfbd a421 fcbb 4bb8 493c
000003e0: 57b3 15bd 80a9 2d3d c2d8 11be 3202 d93c
000003f0: c8dd 0f3d 883a 173c c64a 163d 0d87 6bbf

fc2.bias f4 [128]
-0.2565343 -0.78179044 -0.48237118 -0.30512926 3.3814027 -0.11847904 3.6246688 -0.3196236
-0.43817148 -0.1265424 -0.13153683 -0.11497928 -0.34796956 -0.5981046 -0.04857152 -1.1258047
0.2641948 -3.7991345 -0.03813938 -0.16044095 -0.27630422 -0.23366459 -0.27628234 -0.6625618
3.6652305 -1.7503369 -1.7129872 -0.30091307 -0.34362093 -0.77541816 -0.3315931 -0.8029319
-0.050319333 -0.11668032 -0.3284804 -0.36724058 -0.13355243 -0.8579792 -0.14825232 -0.3361388
-0.752471 1.9995646 -0.45357564 -0.10202822 -0.14640117 3.6798992 -0.7067612 4.2744174
-0.36926135 -2.3727744 -0.2521759 4.6151013 -0.6702295 -0.399803 -0.11279901 4.37994
-0.9883763 -0.3422231 -0.5955635 -0.2984132 2.8498018 -1.787524 -0.049086995 -0.3147452
-0.38707072 -0.29545918 -0.061956536 2.1429563 -0.29940093 -0.042144217 -2.5544074 4.0839114
3.9960709 -0.59921956 -0.19157378 -2.7478864 -0.3603605 -0.53087497 -0.39410546 -0.3109054
-0.083695926 -0.7602724 -0.40872434 -0.47620824 -0.07718986 -0.3123983 -1.993644 -0.49116194
4.1314106 -0.52590716 -0.6503252 -0.9123524 -0.33291063 -0.06595439 -0.3693448 -2.3961377
-0.3511709 -0.56191635 -0.2088631 -0.27777937 -0.43237117 4.5183043 -1.1279658 -0.3474424
-0.4318239 -0.41626492 -0.12536247 -0.6031694 -1.2284505 -0.10091784 -0.3756525 -0.12673491
-0.43610933 -0.6102538 -0.37888813 4.0350194 -0.40848273 -0.27027494 -0.3696798 -0.14820364
-0.26526076 4.2250776 -0.1027353 -0.62077355 -1.3504406 -0.50246483 -0.2794506 -0.19717076
00000000: 7758 83be 6b23 48bf 5bf9 f6be e739 9cbe
00000010: e768 5840 24a5 f2bd 93fa 6740 b4a5 a3be
00000020: 0358 e0be 5594 01be 97b1 06be 427a ebbd
00000030: 1129 b2be 621d 19bf eef2 46bd 5e1a 90bf
00000040: 8a44 873e 0525 73c0 0a38 1cbd a24a 24be
00000050: bf77 8dbe c545 6fbe e174 8dbe a69d 29bf
00000060: 2393 6a40 0a0b e0bf 2a43 dbbf 4711 9abe
00000070: 15ef afbe ce81 46bf 92c6 a9be f28c 4dbf
00000080: a51b 4ebd 17f6 eebd 952e a8be f506 bcbe
00000090: f8c1 08be 86a4 5bbf 75cf 17be 631a acbe
000000a0: f1a1 40bf bcf1 ff3f 113b e8be 2cf4 d0bd
000000b0: 30ea 15be 7883 6b40 4dee 34bf 07c8 8840
000000c0: d30f bdbe 89db 17c0 331d 81be e9ae 9340
000000d0: 2994 2bbf fbb2 ccbe 2b03 e7bd 7828 8c40
000000e0: 3b06 7dbf de37 afbe d976 18bf 9dc9 98be
000000f0: 2763 3640 96cd e4bf 720f 49bd 4826 a1be
00000100: 222e c6be 6d46 97be 23c6 7dbd 3226 0940
00000110: 144b 99be 6a9f 2cbd 697b 23c0 67af 8240
00000120: a0bf 7f40 7466 19bf eb2b 44be 5fdd 2fc0
00000130: 2c81 b8be 6ce7 07bf 31c8 c9be fe2e 9fbe
00000140: c568 abbd 36a1 42bf 5144 d1be 91d1 f3be
00000150: b815 9ebd acf2 9fbe ba2f ffbf 9479 fbbe
00000160: 8434 8440 daa1 06bf b67b 26bf ed8f 69bf
00000170: 4373 aabe 1813 87bd c31a bdbe 525a 19c0
00000180: accc b3be c0d9 0fbf 35e0 55be 1939 8ebe
00000190: c15f ddbe f395 9040 2f61 90bf f8e3 b1be
000001a0: 0618 ddbe ad20 d5be 055f 00be 4f69 1abf
000001b0: de3d 9dbf 03ae cebd 8655 c0be ccc6 01be
000001c0: b949 dfbe 9839 1cbf a0fd c1be e11e 8140
000001d0: a624 d1be 7a61 8abe ac46 bdbe b2c2 17be
000001e0: 42d0 87be d633 8740 e366 d2bd 04eb 1ebf
000001f0: 3ddb acbf 89a1 00bf 2614 8fbe 22e7 49be

fc3.weight f4 [2, 128]
0.13228066 -0.18469813 -0.2834487 0.02541171 -4.123304 0.07834303 2.5634272 0.016183693
-0.064038664 0.033274762 -0.015058934 -0.026761506 -0.23509993 0.31008846 0.061670363 -0.081173845
0.8277784 0.098105006 -0.044792768 -0.010113537 0.076172926 -0.07332098 -0.014027443 0.024118282
2.6892023 0.24245378 0.125602 -0.010749643 0.10619734 0.35504404 0.07769165 0.025700724
-0.019595418 0.0134176435 -0.053763352 -0.1591165 0.020081233 0.22966087 -0.25974515 0.094860114
0.18342791 -2.65027 0.20942242 -0.025476838 0.048903525 2.6100008 -1.5428281 -0.41195494
0.02212214 -0.07692142 1.7466105 2.4502478 0.0057034134 0.00082550076 -0.02386225 2.5478935
0.2733842 0.017654277 -0.018708058 -0.19108291 1.8338196 0.24040674 0.018834606 0.015289588
-0.23141004 0.07911368 -0.0021289568 1.7871845 0.05153012 0.010903211 1.5100412 2.553681
2.090795 -0.2559475 -0.026580332 -0.2042767 0.0055014417 0.09853649 -0.2901883 0.008258506
-0.0060244505 0.006407468 0.2918024 -0.1985171 -0.031365234 -0.22496048 -0.62690425 0.5425208
2.0868049 0.091075785 -0.2923995 -0.4796896 -0.017633954 -0.045598622 -0.013461204 0.3521553
-0.28175718 0.2023837 0.003727339 0.17037286 -0.21823567 1.7759389 -6.052914 -0.026317421
-0.28959492 -0.118524835 -1.1080024 -0.1528123 -0.21295106 -0.06911738 0.37040374 -0.0025569256
-0.22408144 -0.5453504 -0.2442538 1.589704 0.30851898 -0.030617427 0.05883647 0.0010861545
0.0045040026 -3.1376894 0.009444485 -0.046158507 0.3422425 -0.23550536 -0.17768611 -0.5936845
-0.080883384 0.13717866 0.32216904 0.09460057 1.9133111 -0.020950463 2.4409866 0.08823444
0.30131876 0.01192788 0.013168661 -0.07238144 0.021095036 0.22450426 0.029757863 -0.23503265
-2.3540723 -1.2561432 0.06755001 -0.02417948 0.18104166 -0.04608584 0.008159803 0.3001925
-2.3793924 -0.35324338 0.2442947 0.29989246 0.31203568 0.044515096 -0.030911053 -0.11895732
0.051463354 0.038774315 0.26540333 0.0854275 0.0086585935 -0.39493495 0.09188487 0.30747065
0.13115525 -1.59426 0.040526453 -0.032068968 -0.026477253 -2.5384338 -0.30017996 3.7650478
-0.23927657 0.060589083 1.4846332 2.1739902 0.083460525 0.29893923 -0.037346784 2.9156005
-0.32424682 0.028855566 -0.22554286 -0.23243964 -0.862053 0.24847436 0.010981792 -0.21307978
0.18661585 -0.0010187841 -0.007837877 1.2059132 0.23530698 -0.050979875 -0.2184008 2.93274
2.5171812 0.15582192 -0.14723702 -3.150698 0.30988684 -0.19919458 -0.048781835 0.27662858
0.021884574 -0.22704346 -0.21062808 0.36425453 -0.0691845 0.33328772 -4.490006 -0.16263857
1.7740988 -0.04837343 0.026044682 0.10530048 0.29900604 0.05767144 0.20615773 0.36934283
0.0386216 0.06612052 0.012912789 0.053274825 0.2623384 3.071741 -2.489004 -0.29966834
0.0718314 -0.27894238 1.0026413 0.51469713 -0.3036407 -0.015282738 -0.10773916 0.01699377
-0.0558288 0.093823515 0.043759786 -3.5340528 0.03460088 0.015183423 -0.30598158 0.046051495
-0.165107 1.9582459 0.10322826 0.08604234 -0.0953069 -0.010289053 0.3895098 -0.18422857
00000000: 9574 073e 8221 3dbe 3020 91be 382c d03c
00000010: 1bf2 83c0 4f72 a03d 310f 2440 aa93 843c
00000020: b426 83bd 1e4b 083d bfb9 76bc f23a dbbc
00000030: 09be 70be eac3 9e3e 109a 7c3d 793e a6bd
00000040: 49e9 533f 47eb c83d 9f78 37bd 40b3 25bc
00000050: 8d00 9c3d 4f29 96bd 5cd3 65bc b493 c53c
00000060: e41b 2c40 ce45 783e d09d 003e 451f 30bc
00000070: fe7d d93d 55c8 b53e cd1c 9f3d 538a d23c
00000080: 9286 a0bc add5 5b3c f636 5cbd 70ef 22be
00000090: 6681 a43c 382c 6b3e 51fd 84be 0546 c23d
000000a0: 87d4 3b3e 069e 29c0 d572 563e cdb4 d0bc
000000b0: 104f 483d 410a 2740 647b c5bf c2eb d2be
000000c0: 7d39 b53c fa88 9dbd ef90 df3f dcd0 1c40
000000d0: b3e3 ba3b 6b66 583a c47a c3bc b010 2340
000000e0: 04f9 8b3e b49f 903c a441 99bc 3dab 43be
000000f0: 9aba ea3f 2f2d 763e 084b 9a3c 2e81 7a3c
00000100: c1f6 6cbe 5a06 a23d f885 0bbb 76c2 e43f
00000110: 3f11 533d 62a3 323c 0849 c13f 826f 2340
00000120: 96cf 0540 8d0b 83be ffbe d9bc e92d 51be
00000130: 7045 b43b 80cd c93d 9093 94be af4e 073c
00000140: c168 c5bb bdf5 d13b 2067 953e 1148 4bbe
00000150: d578 00bd 0a5c 66be cc7c 20bf a5e2 0a3f
00000160: 368e 0540 f185 ba3d 63b5 95be e099 f5be
00000170: 1575 90bc 9fc5 3abd 628c 5cbc b34d b43e
00000180: 7a42 90be ac3d 4f3e 5f46 743b 3976 2e3e
00000190: 2c79 5fbe f751 e33f 79b1 c1c0 a297 d7bc
000001a0: c945 94be 26bd f2bd 06d3 8dbf d47a 1cbe
000001b0: d80f 5abe 6a8d 8dbd 8fa5 bd3e 1892 27bb
000001c0: 9b75 65be 159c 0bbf ab1d 7abe 6c7b cb3f
000001d0: 33f6 9d3e 66d1 fabc 83fe 703d 4c5d 8e3a
000001e0: 5096 933b e7cf 48c0 0bbd 1a3c b410 3dbd
000001f0: 693a af3e 5128 71be 59f3 35be b5fb 17bf
00000200: 30a6 a5bd 9078 0c3e 57f3 a43e f2bd c13d
00000210: 61e7 f43f 4ea0 abbc 2039 1c40 42b4 b43d
00000220: 7446 9a3e 286d 433c 5ec1 573c b83c 94bd
00000230: 7fcf ac3c 72e4 653e c3c6 f33c 66ac 70be
00000240: 1fa9 16c0 4dc9 a0bf a957 8a3d 0b14 c6bc
00000250: fc62 393e 81c4 3cbd b2b0 053c d5b2 993e
00000260: f747 18c0 51dc b4be 6428 7a3e 818b 993e
00000270: 24c3 9f3e 7655 363d 2d39 fdbc e59f f3bd
00000280: 3dcb 523d d1d1 1e3d f2e2 873e 9df4 ae3d
00000290: c6dc 0d3c ea34 cabe 222e bc3d cb6c 9d3e
000002a0: 904d 063e b610 ccbf 11ff 253d c05a 03bd
000002b0: d3e6 d8bc b375 22c0 30b1 99be 8bf6 7040
000002c0: eb04 75be 422c 783d 7608 be3f a822 0b40
000002d0: 5aed aa3d 900e 993e f1f8 18bd 3399 3a40
000002e0: ae03 a6be 8262 ec3c b5f4 66be a804 6ebe
000002f0: 81af 5cbf 1070 7e3e f9ec 333c 9631 5abe
00000300: 3a18 3f3e b988 85ba 706a 00bc 5d5b 9a3f
00000310: 50f4 703e 46d0 50bd 76a4 5fbe 03b2 3b40
00000320: 7f19 2140 c88f 1f3e 4dc5 16be 09a5 49c0
00000330: 7da9 9e3e aaf9 4bbe 76cf 47bd 43a2 8d3e
00000340: 4747 b33c 157e 68be e3ae 57be 927f ba3e
00000350: 9ab0 8dbd b0a4 aa3e 21ae 8fc0 ba8a 26be
00000360: ab15 e33f 3823 46bd a85b d53c c7a7 d73d
00000370: 5217 993e e338 6c3d 031b 533e 811a bd3e
00000380: af31 1e3d 326a 873d 2a90 533c b436 5a3d
00000390: 3851 863e 6897 4440 d74b 1fc0 216e 99be
000003a0: 571c 933d 89d1 8ebe 8d56 803f 31c3 033f
000003b0: cb76 9bbe 7364 7abc 59a6 dcbd 8536 8b3c
000003c0: bdac 64bd 8b26 c03d 763d 333d ec2d 62c0
000003d0: a7b9 0d3d e4c3 783c 9ea9 9cbe 7ea0 3c3d
000003e0: cf11 29be cda7 fa3f 5769 d33d f736 b03d
000003f0: 4430 c3bd 6b93 28bc d46d c73e 6aa6 3cbe

fc3.bias f4 [2]
6.1525817 5.0014577
00000000: f3e1 c440 f10b a040
