weights/base_dqn_weights.pth (torch, 72240 bytes, 6 tensors)

fc1.weight f4 [128, 4]
00000000: 14bc 3a3e f593 4fbe c4e4 e4bd d5a8 853c
00000010: 8d10 ac3e 985e b4be a8da a83c b79d 0b3e
00000020: f999 6d3d 63ce ef3d f7fc a240 0096 c73e
00000030: 7b84 68be ac21 a23e 3c90 b0bd eecb bcbc
00000040: 99b1 63be 9b0d 853e fdfb 07bf 6404 6b3d
00000050: e2b6 1b3c 4df4 543d d314 a43e 5ca5 03bc
00000060: a873 34bc fbb7 c5bd 5af4 933e 95c3 56be
00000070: 0231 acbd cd99 9c3c 39d6 e23e 14e6 bdbe
00000080: 3503 81be b3b4 293e 48de 053f 8a39 463d
00000090: 0a02 8c3d 83d8 5bbe a143 cc3e 041d 9dbe
000000a0: b5b3 d23d ad66 bd3d d0d4 dd3f 3933 e23d
000000b0: 1080 733d fb55 3abc c776 febd a481 7fbc
000000c0: d328 273c a16b a8be 4c64 b4be 1cf7 b63d
000000d0: 768d b8bd 27ad 0a3e 718c 463f 95d0 b53d
000000e0: 5fe5 dabd ff41 6d3e 04ba 0d3e b78d 8e3e
000000f0: 9514 963e 73c3 63be 8694 dabe 772b 4dbe
00000100: dd51 a93d 531f 563e 3cb2 c63d 87b6 8b3e
00000110: 4224 f23d 64e2 9bbc ad4c f03d 4280 9c3d
00000120: 76d4 a03e 0b98 de3b dc3a 5fbd 4b72 4b3a
00000130: 60ae a83e 54ed 7bbe 9570 ac3e c22a 07bf
00000140: 9034 e7bd e4f9 20be 03b8 bbbf 33d3 8fbe
00000150: fe52 04be 8f4f 4fbc c1b7 60bf 5e9f f3bd
00000160: 6e67 a0bd 5080 833c cb43 6cc0 ef89 95ba
00000170: 5a99 123f 6096 3bbf b4f0 5a3f b31e 3ebf
00000180: 641c 0bbe 044f fe3d a2ff 88bf 915c 493e
00000190: aca0 55be 2670 5b3e c30a bbc0 d20f 853e
000001a0: e045 a03e e58a 4bbd 5d0a 0ebe 9fab b93d
000001b0: 9617 c93d 8801 70be b723 f3bd a8e5 bdbd
000001c0: fee5 1abd 71e9 5ebd a74b 983e c882 2f3d
000001d0: fde8 02be e207 b33c d6e0 05bf 5dcb 793e
000001e0: a728 173d 4065 e23e eb27 0fbf ca26 063f
000001f0: 169f 87be 5d07 003e 0923 2d3f b13f c73e
00000200: 80d4 97ba 9060 01bc 6e81 243e 8780 3bbd
00000210: 4ab9 b23d 398a 8b3d bdcd e73e 2c83 a93e
00000220: 499c d9bd c9c2 793d ccb1 0c41 073d 7b3f
00000230: e252 3c3d 68e5 29be 82b2 2a3e 7f3a 7ebe
00000240: be24 5cbd 2b1c 1e3e 3b04 0dbd 90d5 363e
00000250: 8b48 e83d df37 74bc cf0e 33bf 3313 2b3e
00000260: c6d8 843d 0f86 2bbe 72b0 9cbf 2e7c 703d
00000270: cd82 f4bd 2535 d5bd 2cf7 67c0 12d1 cebd
00000280: ea58 04be 014b 783d e512 cc3e 5f80 e93d
00000290: 99b4 3b3e 4309 d2be 39db 2c3f 5955 b4be
000002a0: dbd8 a83e cb9e 75bd 814b 4c3e 0ea7 c6bd
000002b0: bb77 1b3f e0f5 14bf 5449 9fc0 f89b 00c0
000002c0: e36f e13d 90d8 5bbe eba7 f0be 2646 60be
000002d0: 59da 1fbe 016c 803e 0680 07bf f420 f73d
000002e0: c00c bdbd 4cf0 aabe 23fc 44bd eb54 b2be
000002f0: 1148 a43e bb16 89bd 61b3 36bf f5e8 0cbe
00000300: 7c4c 2cbe 4b08 ddbd 8c2b c7be c42c 843c
00000310: 079f 3a3e 108b 77bd 0cb5 8e3f efad 363d
00000320: 9c50 113e f3c6 483e 1d96 ef3e c31d 14be
00000330: fa0f 073d d503 ffbd 22c7 ffc0 9df9 18bf
00000340: ce56 d73f 84ca 193f 9e5d 933f d806 af3e
00000350: a13e 293e 7b07 9dbe 7dc3 ef3e c4f9 dabd
00000360: 4f4e 8cbe 34c5 5c3d e49b e740 ffa4 3b3e
00000370: 7520 18bb d336 6ebe 593c e6be 7406 f2bd
00000380: 3be2 a03e 26ca 03bf 2fc7 3d3e 6ee7 29bf
00000390: 56f7 3cbe 8fc5 72bc 0ad0 f1be e935 393e
000003a0: 5b74 4ebe e2b9 20bd 35ee 063f 317e b4be
000003b0: 4435 0f3d fdae 0cbe cbf9 6b3e eab5 a9be
000003c0: 724f 88bd efef 263b 9a54 4ebf 7cbd 8ebd
000003d0: beb0 0c3e f990 703b 0eb5 ac3d d4c9 78be
000003e0: b6a6 22be 9b26 753e 744c 8abe 5358 293e
000003f0: 7f8f d8bd 4cbf fabd 1f27 0abf ccd2 6bbe
0.18235809 -0.20271285 -0.11176446 0.016315857 0.33606377 -0.3522842 0.020612076 0.13634382
0.058008168 0.11709287 5.0933795 0.38981628 -0.22706787 0.31666315 -0.086212605 -0.02304646
-0.22235717 0.25986943 -0.5311888 0.057377234 0.009504052 0.051990796 0.32047138 -0.00803503
-0.011013903 -0.09654232 0.28897363 -0.20973046 -0.08407785 0.019116307 0.44304064 -0.37089598
-0.2519776 0.16572838 0.522923 0.048394717 0.068363264 -0.21469311 0.39895347 -0.306862
0.10288183 0.092480995 1.733057 0.11044926 0.0594483 -0.011373038 -0.12424999 -0.015594874
0.010202604 -0.32894614 -0.3523277 0.08933851 -0.090113565 0.13542615 0.77558047 0.088776745
-0.1068828 0.23169707 0.1384049 0.27842495 0.29312578 -0.22242527 -0.4269144 -0.20036112
0.08267567 0.20910387 0.09701964 0.27287695 0.11823322 -0.01902885 0.11733375 0.07641651
0.31412095 0.0067930273 -0.054499492 0.00077608664 0.32945538 -0.24602252 0.33679643 -0.5279962
-0.112893224 -0.15720326 -1.4665531 -0.2809082 -0.12922284 -0.012653246 -0.87780386 -0.11895631
-0.07832228 0.016052395 -3.6916378 -0.0011408905 0.57265246 -0.7327633 0.85523534 -0.74265593
-0.13585049 0.12417415 -1.0703013 0.19664218 -0.20862073 0.214295 -5.8450637 0.25988632
0.3130331 -0.049693007 -0.13871141 0.09065937 0.09818952 -0.23438084 -0.118720464 -0.09272319
-0.037816994 -0.054421846 0.29745218 0.042849332 -0.1278419 0.021854345 -0.522962 0.24393983
0.036904003 0.44217873 -0.55920285 0.5240294 -0.2648856 0.12502809 0.67631584 0.3891578
-0.0011583716 -0.007896557 0.16064999 -0.04577687 0.08726747 0.06813473 0.45274153 0.3310789
-0.10625512 0.060976777 8.793407 0.98139995 0.04597748 -0.16591418 0.16669658 -0.24827002
-0.053745978 0.15440433 -0.034427863 0.17854905 0.113419615 -0.014905899 -0.6994447 0.16706543
0.06486659 -0.16750358 -1.2241347 0.058712177 -0.11939011 -0.10410527 -3.6244612 -0.10098471
-0.12924543 0.060618404 0.39858165 0.11401438 0.18330611 -0.4102269 0.6752201 -0.35221365
0.32977948 -0.05996589 0.19950677 -0.09699832 0.6072957 -0.58187675 -4.977701 -2.0095196
0.11007669 -0.21469331 -0.4700311 -0.2190176 -0.15610637 0.250824 -0.52929723 0.12066832
-0.092309475 -0.33386457 -0.04809202 -0.34830412 0.32086232 -0.066937886 -0.7136746 -0.13760741
-0.16826051 -0.107925974 -0.3890041 0.016134627 0.18224727 -0.060435355 1.1149001 0.04459947
0.14190906 0.19607143 0.46794215 -0.14464478 0.03297422 -0.12451903 -7.993058 -0.5975588
1.6823366 0.6007464 1.1512945 0.3418491 0.16527797 -0.3066977 0.46828833 -0.1069217
-0.27403495 0.053899005 7.2377796 0.1832466 -0.0023212705 -0.23263101 -0.44967917 -0.11817637
0.314226 -0.5148033 0.18533014 -0.6636876 -0.18453726 -0.014817609 -0.47229034 0.18086971
-0.20161574 -0.03923977 0.52707225 -0.35252526 0.034962907 -0.13738628 0.23044507 -0.33146602
-0.06655778 0.0025472601 -0.8059784 -0.06969735 0.13739297 0.0036707504 0.08432971 -0.24295741
-0.15883908 0.23940508 -0.27011454 0.165376 -0.10574245 -0.12243518 -0.53965944 -0.23029631

fc1.bias f4 [128]
00000000: 94c7 3fbf 5e70 05c0 71b9 debf 221d c4bf
00000010: 311f 79bf d532 4dbf 602e 28bf d6dc 8dbf
00000020: 77b4 84bf e101 e3be e8b1 ad3f f678 2abf
00000030: 9dd0 a1bf 48eb 48bf 38b3 23bf 43c8 b5bf
00000040: 249c 84bf 6331 58bf 9055 71bf a73f 89bf
00000050: 7417 e63c ad10 35bf 79fb 6ebf ba82 c7bf
00000060: 2969 0dbf 110f abbf 8d3a 84bf 9552 26bf
00000070: 56a1 0dbf 33e1 81bf e0ab bebf 46e4 a9bf
00000080: cb31 bcbd a3b7 c6bf b613 d1bf d84e 02bf
00000090: b982 d2be f7b6 3dbf 8c1a 4dbf 1e21 a9bf
000000a0: 1b1d 7bbf e866 32bf b4f7 a7bf af16 19c0
000000b0: a01a 04bf c1aa adbf 3e51 6ebf 65d9 84bf
000000c0: 80a9 7abf 2c00 abbf 65e1 d3bf 4b16 cebf
000000d0: ccd9 29c0 d098 31bf 0e34 bbbf cf8d 1ebf
000000e0: e8ac 98bf 7261 b6bf b0c6 b0bf 1634 7dbf
000000f0: 299e bdbf dbec 83bf eaf9 16bf e9f8 94bf
00000100: 9fea 72bf 639b 56bf 2ede 55bf 3f1a 50bf
00000110: 7d70 6dbf 56b6 64be c5b8 f4bf c413 8bbf
00000120: 01f3 51bf b44d 46bf 245e 8cbf bc53 5ebf
00000130: 67cc e0bf 58bd 92bf 5cdd 54bf a01c 80bf
00000140: 0a92 6abf 7f1b b5bf 336e 31bf 2877 8cbf
00000150: 008a d8bf 3cc4 3dbf d95c bcbf 1ecf 27bf
00000160: 6a88 b1bf 27e1 c4be 50ba 2dbf 2a5d 3fbf
00000170: 4384 c0bf 8666 69bf 8c9e e7bf 5b54 abbf
00000180: b942 133e a0ed d3bf c1ec 4bbf 565e 27bf
00000190: c025 a3bf 70e1 60bf db93 7abf 38c2 1fbf
000001a0: 4de4 86bf cab6 e5be 8183 9fbf 1709 35bf
000001b0: b57f 60bf da23 dabe acdf 65bf 6bd0 8bbf
000001c0: 3287 95bf df72 cabf 23c1 cbbe f031 68bf
000001d0: d1db 87bf 2af9 d4bf 3049 11bf f74c 67bf
000001e0: cc5e 7dbf a7d0 90bf 953d 8cbf 28a2 8cbf
000001f0: ea1c afbf e5df 64bf 9e82 42bf 64e7 cdbf
-0.7491391 -2.0849833 -1.7400342 -1.5321391 -0.9731322 -0.8015569 -0.6569576 -1.1083019
-1.0367573 -0.4433737 1.3569918 -0.6659082 -1.2641789 -0.7848401 -0.6394534 -1.420174
-1.036015 -0.8445036 -0.94271183 -1.072255 0.028087355 -0.7072857 -0.93352467 -1.558677
-0.55238587 -1.3363973 -1.0330368 -0.6496976 -0.55324304 -1.014685 -1.4896202 -1.3272789
-0.09189185 -1.5524791 -1.633414 -0.50901556 -0.41115358 -0.7410731 -0.8011863 -1.3213232
-0.98091286 -0.6968827 -1.3122468 -2.3920095 -0.51603127 -1.3567735 -0.93092716 -1.0378844
-0.97914886 -1.3359427 -1.655316 -1.6100553 -2.6539183 -0.693738 -1.4625261 -0.6193513
-1.1927767 -1.4248488 -1.3810635 -0.989076 -1.4813892 -1.0306658 -0.5897509 -1.1638461
-0.94889253 -0.8383085 -0.83542144 -0.8129005 -0.9274977 -0.2233518 -1.9118887 -1.0865407
-0.8201142 -0.77462316 -1.096623 -0.8684652 -1.7562379 -1.1464033 -0.8315027 -1.0008736
-0.9162909 -1.4149016 -0.69308776 -1.0973864 -1.6917114 -0.74127555 -1.4715835 -0.6555041
-1.3869755 -0.38453028 -0.67862415 -0.7475153 -1.5040363 -0.91172063 -1.809526 -1.3385118
0.14380921 -1.6556892 -0.7965813 -0.6537832 -1.2745895 -0.8784399 -0.9788186 -0.6240573
-1.0538422 -0.4486602 -1.2462007 -0.70716995 -0.87694865 -0.42605478 -0.8979442 -1.0922979
-1.1681883 -1.5816306 -0.3979579 -0.907012 -1.0613958 -1.6638539 -0.567523 -0.90351814
-0.98972774 -1.1313676 -1.0956293 -1.0986986 -1.3680699 -0.89404136 -0.75980556 -1.608624

fc2.weight f4 [128, 128]
00000000: 3046 eb3b cc90 d83c 3e4b 8abe b93b a4be
00000010: 9c1a fd3c 6800 c0be e934 b0be 5437 b23c
00000020: 6a4a 4b3d e9cd 9bbe 4f59 14bf 866f 06be
00000030: b7d0 b2be d615 aabd 20b0 d7be ae8a adbd
00000040: 0091 54be 8753 833d b017 1abd cfcb 38be
00000050: 141c 3bbf 08d5 9cbd e551 58be 8c57 0bbd
00000060: 202a 9fbb 3c66 aabe 582c 413c 93fa 16be
00000070: dadd 2b3d f908 d9be 209d fa3b 6fa7 8bbd
00000080: 1523 cebe 6dc5 97be 8756 17bf 5438 70be
00000090: 296e 99be 1e15 3d3d 8159 91be bd5f 9bbe
000000a0: d42d 82bc 0d6a 9ebe 549e 1bbd 97bd a5be
000000b0: 95b5 91be de7f 99be f5b1 1abd aeda 5c3d
000000c0: 66af 463d b81c 613e c8da d03c e1d8 b4be
000000d0: f54e 89be 3cb6 c2bc 8156 a2be 13f2 b8be
000000e0: b276 b53e f462 9e3e af43 8ebd 194c 8bbe
000000f0: 4a8a 6bbd ba03 493d c806 96be 00da 32ba
00000100: b202 4b3d c274 3b3d 4075 9ebe be0b 82be
00000110: fefc bcbe 5ad2 423d 4fb1 eabd 4417 db3c
00000120: facf 4d3d 6b19 9b3d 0018 71bd ae3f a8bd
00000130: c51f 9a3e bfa1 ad3d b41f b53c 2ff1 57be
00000140: 1713 b9be 8efc 4dbd c263 35bd 938a a0be
00000150: 7db9 75be 0ac5 a7be ddb8 3ebe a978 873d
00000160: 8c4d ce3c 8f1f 8e3e 6ed2 a2be 4675 cfbe
00000170: f517 10be 734e c7be 7cfe 8abe c1dd 803d
00000180: 7fc3 aebe 80d3 8c3e ce78 343d 187a a6bc
00000190: cec8 d3be f9e9 d1be 7828 20bd 64b3 aebc
000001a0: c24e dbbe 9080 3dbd 9939 97be 4072 123b
000001b0: d320 aabe 1f34 b4be dad4 373d 9303 2cbe
000001c0: 198b 48be 3ac9 323d e004 9fbd f009 36bd
000001d0: 63d2 3b3e 8386 95be 7f92 9ebe e051 9ebc
000001e0: 4c91 dd3c a4a2 8d3e e955 a4be 674b 9b3d
000001f0: f9cd 9d3d d395 853d 600d eabc 2e55 b0be
00000200: b73d 83bc 7e3d febe 4a46 a4be ab09 2bbe
00000210: aaaa 20bd 34f2 ebbe 945a a4bd 63ff 5fbd
00000220: 80a8 eabc ef2e 98be 78b7 e5be 9e4f 15bd
00000230: 5b9f 64be 9282 03bd ba91 bdbe 5b2d 67bc
00000240: 5272 55be 906f 4bbd e096 41bc dc3f 67be
00000250: 7e1f 9abe 7fe3 9e3e c2e7 3dbd b046 953d
00000260: 5bd5 c6bb 5557 8cbd 21ce b53c 2dfd efbd
00000270: 1258 82be ab39 4dbe 26e3 3b3d cd56 5ebd
00000280: 9a2b 89be 5f0c b53e 3efd 2cbf 1713 93be
00000290: b0eb 68be 2948 38bc 7c4d 9abd f52c cabd
000002a0: 8dbc 9d3d dc06 78be ac5b 5b3f 00f6 73bd
000002b0: 57fb afbe 7d28 5dbe 95ca 57bd 4eec d0bd
000002c0: 69e6 0abd 72c2 ccbd 6d21 103e d025 cfbd
000002d0: 86ad 9c3d fc43 aebd 1184 f5be 9b2b 03bd
000002e0: 3b34 b0bd 237a 3ebb 259e 3cbd fd0a 6c3b
000002f0: b608 3d3e ba01 a2be d038 e4bd 9a16 123d
00000300: 6f71 8ebd e47e 97bd 01a1 65be 58c0 cfbc
00000310: 8e48 7abe f697 2d3b f31c d6be f99f 713e
00000320: 5033 adbc c7c1 d6bd 177a 14be 98e2 f6bd
00000330: 10bb f8bc 00f7 c7ba a489 973d eb0e b0bd
00000340: 8f49 34be 6c99 cb3d 2764 a43e bd4a 76be
00000350: 5b38 a33e 10ac b5be 4a86 4d3c 7387 4d3d
00000360: bc64 13be 32a2 11be a850 95be 9946 8dbe
00000370: 0921 d6bd 00f0 4cbe 2339 f93b 8c95 3cbe
00000380: c96b cabe e593 57bc 5888 20bd 1235 463d
00000390: b522 ccbd 5e1b 1ebe b778 8b3d 6087 bb3d
000003a0: 1d53 c3be abb8 b93e f2c9 84bd da50 82bd
000003b0: 342a 93bd 989e 1dbe 4be7 51be e81e ffbd
000003c0: 03ef afbb af6a d13c 1962 b7bc 7eb7 693d
000003d0: 3c4c 46bd 8121 3dbe a227 77bd a009 ccbd
000003e0: e29a 7cbd c1a7 46bd 0f2d 25be b490 4dbd
000003f0: 7f5d 1e3e 3f99 0d3d e49c 8fbd a583 fabb
0.007179998 0.026436232 -0.2701053 -0.32076815 0.030896477 -0.3750031 -0.34415367 0.021754898
0.049631514 -0.30430534 -0.57948774 -0.1312848 -0.34924862 -0.08304946 -0.4212656 -0.08473717
-0.20758438 0.06412416 -0.037620246 -0.18046497 -0.7308972 -0.0765782 -0.2112499 -0.034019038
-0.0048573166 -0.33281124 0.0117903575 -0.14744024 0.04195962 -0.42389658 0.0076481253 -0.06819045
-0.4026114 -0.2964281 -0.59116405 -0.23458987 -0.29966858 0.046162717 -0.283886 -0.3034648
-0.015890993 -0.30940285 -0.03799279 -0.32371208 -0.2845885 -0.29980367 -0.03776737 0.053919487
0.048507117 0.21983612 0.025494948 -0.35321715 -0.26818052 -0.023768537 -0.31706622 -0.36122188
0.3544212 0.3093487 -0.06946503 -0.27206495 -0.05750493 0.04907582 -0.2930205 -0.00068226457
0.049563117 0.045765646 -0.3094883 -0.25399584 -0.36911768 0.047563888 -0.114596 0.026744492
0.05024717 0.075732075 -0.05886078 -0.08215271 0.30102363 0.08478116 0.022109844 -0.21088098
-0.36147377 -0.050289683 -0.04428459 -0.31355724 -0.2399654 -0.32767516 -0.18625207 0.06614811
0.025183462 0.27758452 -0.3180117 -0.4051916 -0.14071639 -0.3892704 -0.2714728 0.06292296
-0.34133527 0.27505112 0.04406052 -0.02032189 -0.4136414 -0.4099882 -0.039101094 -0.021325774
-0.42833525 -0.046265185 -0.2953613 0.002234593 -0.33228168 -0.35196015 0.044880725 -0.16798238
-0.19584312 0.043648936 -0.07764602 -0.04444307 0.18341975 -0.29204187 -0.30971143 -0.01932615
0.027046822 0.27663147 -0.32096794 0.07582741 0.07705302 0.06522717 -0.02857083 -0.34439987
-0.016020639 -0.4965629 -0.32084876 -0.16702907 -0.039225258 -0.46083224 -0.08025089 -0.054686915
-0.0286448 -0.29723307 -0.44866538 -0.036452882 -0.22326414 -0.032106943 -0.37025243 -0.014109935
-0.20844391 -0.04966694 -0.011815757 -0.22582954 -0.30102152 0.3103294 -0.0463636 0.07288873
-0.0060679144 -0.06852595 0.022193016 -0.11718211 -0.25457817 -0.2004153 0.045870923 -0.054282
-0.26791078 0.35361 -0.67573917 -0.28725502 -0.22746158 -0.011247673 -0.0753431 -0.09871856
0.07701979 -0.24221367 0.85686755 -0.059560776 -0.34371445 -0.21597476 -0.05268343 -0.102013215
-0.033911142 -0.09998025 0.14075251 -0.10114634 0.076502845 -0.08509061 -0.4795232 -0.032024007
-0.08603712 -0.0029064498 -0.046049256 0.0036017292 0.18460354 -0.31641942 -0.111436486 0.035666086
-0.069552295 -0.07397249 -0.224247 -0.025360271 -0.2444174 0.002648828 -0.41818962 0.23596181
-0.021142632 -0.10486179 -0.14499699 -0.12054938 -0.030362636 -0.0015256107 0.073993 -0.085965954
-0.17606185 0.09941372 0.3210766 -0.24051948 0.31878933 -0.35482836 0.012544224 0.050178003
-0.14393896 -0.14222029 -0.29163098 -0.27592924 -0.1045552 -0.20013428 0.007605688 -0.18416423
-0.3953536 -0.013157819 -0.039192528 0.048390456 -0.09967557 -0.15440127 0.06810134 0.0915668
-0.38149348 0.36273703 -0.064838305 -0.063630775 -0.07185784 -0.1539253 -0.20498388 -0.12457067
-0.0053690686 0.025563566 -0.022385644 0.057059757 -0.048412547 -0.18469812 -0.06034053 -0.09962773
-0.061671145 -0.048499826 -0.1613047 -0.050186828 0.15465353 0.034569975 -0.070123464 -0.007645088

fc2.bias f4 [128]
00000000: 0b4f 16bf 759f b2be a1c0 8dbe 4d07 aa3c
00000010: 2959 eabd ef55 9cbe ecd1 2cbe d05a c0bd
00000020: 3135 97be 0cff 18be 0aa2 6fbd c6e6 95be
00000030: 4bfe b5be b1a6 d3be 8fe9 98bd c61a 2abd
00000040: 771a 09bf 982b c0be 0c94 8abe c762 5dbf
00000050: 7271 a5be e845 9fbc 256a aebe 9ba0 c2be
00000060: 1666 adbe a1e6 59bf 71f8 10bc c743 12be
00000070: 3a09 2640 c7a4 5b40 5f19 b0be cf49 04be
00000080: acce 83bd 7484 0ebd a67b c3be e13d a8be
00000090: 94cb 03bf 0473 f6bd dafa 0bbd c2cb b4be
000000a0: 32fa b7be b3ac bcbc c76d 20be ab0f 91bd
000000b0: 719d a4bd f562 5c40 d457 1bbe 8d9f a2be
000000c0: 08f0 fdbf 43ae 5740 25c3 01be 11e5 91be
000000d0: 904b b8be e327 08be 91fb 2540 b275 2abe
000000e0: 9b0e febd 0493 b0be c6fe a6bf cc4c 59bd
000000f0: 8c67 6140 29a4 09be 4c24 0940 22f1 adbe
00000100: 3d97 bdbe 3285 b3bd e76f 84be 0b2c 9fbe
00000110: 725d c0bd 6e80 f9bd 3ec5 ebbe eb0e e5be
00000120: 51b2 6a40 af26 c0be ca5d 9bbd 2ed1 5a40
00000130: 4ebf 10bd 0a5a 4dbd d5de b1be 44ee 0540
00000140: cedb 5bbe d19f 11be 9f3a a4be 7948 dbbe
00000150: be15 d7bc 05fd 09bf d7c5 f7be ff1e 0abd
00000160: 007a 4340 3cf6 37be acbe b4be 588d 17be
00000170: 5198 bdbe 2137 26bc 3075 f3bd 4c49 12bf
00000180: ff14 e6bd 2965 20be 98e5 e4be e521 85be
00000190: 316e 9cbe 3996 eebe 43e0 d5be f3b1 c5be
000001a0: 4cb2 39be 2cf2 d7be a92b b8be 6d4e f2be
000001b0: c916 bbbe 65fc 2abe 1623 8ebd 1081 3e40
000001c0: a40a 6340 1b65 6dbd b015 55bf c8d9 1bbf
000001d0: b48b e3bb b6e4 bcbe 4fe7 c6be 8c50 70bd
000001e0: 3d1e a5be e4af a0be da9c 2b40 c56f bcbe
000001f0: 6ebe 5440 9174 c7be 237e b1be c291 a8be
-0.5871436 -0.3488728 -0.27686027 0.020755434 -0.11442787 -0.30534312 -0.16876954 -0.09392321
-0.2953277 -0.14941043 -0.058504142 -0.2927763 -0.35545573 -0.41338113 -0.07466423 -0.04152944
-0.5355601 -0.3753326 -0.27066076 -0.8647885 -0.32313114 -0.019442514 -0.34065357 -0.38013157
-0.33866948 -0.85117537 -0.008848296 -0.14283668 2.5943131 3.4319322 -0.34394357 -0.1291878
-0.06435904 -0.034794286 -0.38180274 -0.3285971 -0.5148251 -0.12033656 -0.034174778 -0.35311705
-0.3593307 -0.023031568 -0.15666877 -0.070830666 -0.08037842 3.4435399 -0.15170223 -0.31762353
-1.9838877 3.370011 -0.12672098 -0.28495076 -0.3599515 -0.13296466 2.5934794 -0.1664646
-0.124051295 -0.34487164 -1.3046501 -0.053051755 3.521945 -0.13441528 2.1428404 -0.33973032
-0.37029448 -0.08765639 -0.25866625 -0.3108829 -0.09392823 -0.12182699 -0.4604892 -0.44737944
3.6671336 -0.37529513 -0.07586248 3.4190173 -0.035338692 -0.050134696 -0.3474032 2.0926676
-0.21470568 -0.14221121 -0.32075974 -0.4282873 -0.026255485 -0.539017 -0.48393127 -0.033720966
3.0543213 -0.17965025 -0.3530172 -0.14800012 -0.3703027 -0.01014498 -0.11887586 -0.5714309
-0.112344734 -0.1566359 -0.44706416 -0.26002422 -0.3055282 -0.46598986 -0.4177266 -0.38612327
-0.18134421 -0.4217695 -0.3597081 -0.4732546 -0.3654082 -0.16697843 -0.06940286 2.9766273
3.5475245 -0.05795775 -0.8323622 -0.6087918 -0.006944144 -0.36893243 -0.3884835 -0.058670565
-0.32249632 -0.31384194 2.6814485 -0.36804023 3.324123 -0.3895612 -0.34666547 -0.32923704

fc3.weight f4 [2, 128]
00000000: 8710 a03e 8218 10bb 8b06 723d 9870 7cbc
00000010: 3f6c a83c fae7 44be d7e4 47bc 0790 0dbd
00000020: be42 9cbe dcbc ac3c f042 123d 113c 703d
00000030: f0d0 9ebe 8cf1 133d 12ea af3d 4369 663d
00000040: a085 43be 7737 2d3e 8295 a43d ba05 bb3c
00000050: 9d36 2f3e 2e37 133c ee89 9d3e 9e02 7b3d
00000060: 9251 993e 512b 59bf a3f4 22b9 90b3 2c3d
00000070: 93a4 d23f 8a06 da3f 380f a23e 3947 e03c
00000080: d5b1 073d 2adb 99bd 550d 743d 001f 99be
00000090: f16e db3d f21b bf3d e512 033c 40e0 5f3b
000000a0: 2014 953d 8be5 60bc 6643 0cbd 94f0 8f3d
000000b0: bd15 ac39 6d24 ae3f cf89 8a3d 02a5 983e
000000c0: 15e2 0ac0 7382 ce3f 8432 80bd 6c3a 8a3e
000000d0: f890 953e 6645 a0bc 4d69 0b40 eee0 a1bd
000000e0: 0f70 623d 8669 7bbe 37e8 d2be bc20 0d3d
000000f0: bbde dd3f fd10 53bd ed25 1ec0 c96b 5dbe
00000100: 8970 8dbe d3c7 b5bb 9757 b7be bfde a0be
00000110: 16cb 2739 3ca9 cf3d a687 9dbe d5c0 1abe
00000120: 2ea8 b93f c4ae 00bd 5e19 5e3d 54b8 c03f
00000130: b031 15bc d11f 9cba 128c 97bc 4e75 15c0
00000140: 2e76 bd3d a968 dc3d 98a1 003d 4843 82be
00000150: a3ec 273d 0f41 a33d 2924 0a3f 6de0 3cbd
00000160: d51e 9dbf 7061 a7bc 4203 96be a0d4 303b
00000170: f16b 3e3c 348b 1d3d bc83 b13d a7a6 88be
00000180: bfdd 26bc ef92 5c3d 2e84 c8bc 7886 1f3e
00000190: a626 983e 0089 6b3d 3d03 abbc 9525 2dbe
000001a0: d4f7 53bd 257f ce3e 914d 1fbd 0809 0d3e
000001b0: eebd 85be abe1 83bc 1258 763d 755b 0140
000001c0: 3bdd c13f a32a d7bb f357 e63d d2d8 18be
000001d0: 5b39 77bd 74ec f0ba d70b fe3c c0a2 d43c
000001e0: 44ee f6bc b4f9 7d3e 4300 4040 4bed 7a3e
000001f0: a84b 5bbf cbd2 e13c c9ec b93d b62d 7a3d
00000200: de71 bf3c 41bd 21be 1211 43bc 952e 833d
00000210: a5f1 11be c549 56be 8183 be3d c4ad 613d
00000220: 3535 483d fe23 f03d 1c25 57b7 ccb8 8fbe
00000230: 1edc c83b ccf2 a3bc fbe9 c0bc 8a05 47bc
00000240: ae1a 713e b6ee 44be ae9f bfbc 4c6d 203e
00000250: ceb4 0cbf 4c67 c1bc db63 c3be 70f2 993e
00000260: baf7 ec3d 6b56 a6be ad8f a83d 08b8 bb3c
00000270: 3fe3 10c0 9294 d23f 80fa a83c 2ec7 2ebc
00000280: 2ce1 043d 4e4f 033d ffaf 6abe e6ad 803c
00000290: 1ac3 f3bb 56cd f13d a05a b03d 8a69 8bbe
000002a0: 21e0 633e 5b94 f13c 6927 a0be 71df 9abc
000002b0: b043 e93b a529 b63f 6120 903c 524b 5c3d
000002c0: 5cea 65bf 77c9 d23f 243d d8bc 9e90 a0bc
000002d0: 4e70 663d b8dc 08bd 2883 d9bf 5348 253c
000002e0: 1fbc abbd 5a45 783d 82e9 5dbf a1e5 1b3d
000002f0: 5337 eb3f b851 afbc 108d 9c3f e7af 32bc
00000300: fb61 98bd d377 8e3d aafa 40be bc38 673c
00000310: 92b6 c53c 56c4 efba 0049 dc3b ce5b ae3d
00000320: ac5b d53f 2bd6 35be f52f 2cbd 6410 cf3f
00000330: cd5e a13d 0d12 023d fa67 28be 7769 973f
00000340: 261c 123d 5762 cdbc f238 2abd 085b 013d
00000350: 0ad0 c73a aeb1 003f 7b64 89be 3188 f7bc
00000360: 2738 3740 429a f5bd de98 e6bd 4570 2e3c
00000370: 0f78 983e 4ac5 613d 9549 873c 9c69 2dbd
00000380: c1c5 b23d f8e2 113c d779 77be 3150 873d
00000390: 9ba2 803d d503 6b3e 89d8 85be 9df8 dfbc
000003a0: aad8 de3d fb25 bb3e 363d 76be bff9 a73e
000003b0: a5af b53b c183 013c 8552 eb3c 5f01 d2bf
000003c0: 24dc d53f 35a9 723d a174 b23d c84a d43e
000003d0: 0449 20bc 9e0f b2bd 30c6 9bbe 319e cfbb
000003e0: c7d6 693d 09e0 6fbc 3e33 b0bf 34a9 ff3c
000003f0: a0bd 2a40 6082 823e 7918 98bc 7812 543e
0.3126261 -0.0021987264 0.05908827 -0.015407704 0.020559428 -0.19229117 -0.012200556 -0.034561183
-0.3051967 0.021086149 0.035708368 0.058651034 -0.31018782 0.03611903 0.08589567 0.05625273
-0.19093943 0.1691569 0.08036329 0.02282988 0.17110677 0.008985324 0.30769295 0.061281793
0.29945046 -0.8483172 -0.00015540658 0.04216343 1.6456474 1.7033246 0.31652236 0.027377712
0.03312858 -0.07512505 0.059583027 -0.29906464 0.1071452 0.09331502 0.00800011 0.0034160763
0.07279229 -0.013726602 -0.034243964 0.070283085 0.00032822593 1.3604866 0.06764566 0.2981339
-2.170049 1.613356 -0.06259635 0.26997697 0.29212165 -0.019564342 2.178302 -0.0790423
0.05528265 -0.24551973 -0.4119279 0.034455046 1.7333597 -0.051529873 -2.4710648 -0.21623148
-0.2762492 -0.0055475025 -0.35809013 -0.31419942 0.00016002016 0.10139701 -0.30767554 -0.15112622
1.4504449 -0.03141667 0.05422341 1.5056252 -0.009106085 -0.0011911337 -0.018499408 -2.3352847
0.092510566 0.1076215 0.031404108 -0.25441957 0.04099716 0.07971393 0.53961426 -0.046112467
-1.2275034 -0.020432204 -0.2929936 0.0026982203 0.011622415 0.038462833 0.086677045 -0.26689646
-0.010184704 0.053851064 -0.02447709 0.1557864 0.29716986 0.0575037 -0.020875568 -0.16908868
-0.05175002 0.4033138 -0.038892332 0.13772976 -0.26121467 -0.016098818 0.060142584 2.021207
1.5145639 -0.006566362 0.11247244 -0.1492646 -0.060357433 -0.0018381015 0.031011505 0.025956511
-0.03014291 0.24802285 3.000016 0.24504583 -0.8566232 0.027566334 0.09078366 0.06107875
0.023369726 -0.15794851 -0.011905925 0.06405369 -0.14252336 -0.20926578 0.09302426 0.055097356
0.048878867 0.11725615 -1.2823639e-05 -0.28070676 0.0061297556 -0.020013236 -0.02354907 -0.012147317
0.23545334 -0.19231686 -0.02339157 0.15666693 -0.54963386 -0.023608826 -0.3816212 0.30067778
0.115706876 -0.32487807 0.08230529 0.022914901 -2.26387 1.645159 0.02062726 -0.010667605
0.032441303 0.032058053 -0.229187 0.015707921 -0.0074390294 0.11806743 0.08611035 -0.27228957
0.22253467 0.029489687 -0.31280068 -0.018905373 0.0071186647 1.4231459 0.017593564 0.05378277
-0.8981073 1.6467732 -0.026396342 -0.019600209 0.056259446 -0.03341362 -1.6993151 0.010088044
-0.083854906 0.060613014 -0.8668443 0.038060788 1.8376259 -0.021401271 1.2230549 -0.010906196
-0.07440563 0.069564484 -0.18845621 0.014112648 0.024134908 -0.0018292766 0.0067225695 0.08513604
1.6668601 -0.1775748 -0.042037923 1.6176877 0.0787941 0.031755496 -0.16445914 1.182906
0.035671376 -0.025071306 -0.041558214 0.031580955 0.0015244496 0.5027112 -0.26834473 -0.030216308
2.8628023 -0.11992313 -0.11259626 0.010646884 0.29779097 0.05511979 0.016514579 -0.042337045
0.08729125 0.008904211 -0.24167572 0.06607092 0.062810145 0.2295068 -0.26141766 -0.027340228
0.10881169 0.36552414 -0.24046788 0.3280773 0.00554462 0.007904948 0.028725872 -1.6406668
1.6707807 0.0592434 0.087136514 0.41463304 -0.009783033 -0.08694385 -0.30424643 -0.0063359966
0.057089593 -0.0146408165 -1.3765638 0.031208612 2.6678238 0.25490093 -0.018566357 0.2071017

fc3.bias f4 [2]
00000000: 51f4 3540 be92 4440
2.843037 3.0714564
