weights/dqn_weights.pth (torch, 72240 bytes, 6 tensors)

fc1.weight f4 [128, 4]
-0.3005323 0.04807394 -1.0815032 0.2463179 0.04280333 0.0027159923 -7.7651 -0.36341688
0.16069824 -0.02684224 0.16950853 0.01984758 -0.32622448 0.32281405 -0.99685085 0.22387457
0.02901873 -0.07959709 0.026771778 -0.2691908 0.295577 -0.16351523 -0.2716854 -0.2319703
0.48103938 -0.20652471 -0.9308521 -0.15550096 -0.08149302 -0.0015204896 -0.86771506 0.2108069
0.052070502 -0.01605342 4.1911354 -0.018712351 0.095595434 -0.07793085 -0.085637435 0.04554278
-0.06537931 0.007314386 -0.40339524 -0.063445866 -0.16306193 0.18218988 3.0512757 0.12904988
0.10711053 0.015008099 -4.247941 -0.060283 0.17769921 -0.21840756 -0.34469706 -0.19954409
0.36051396 -0.24333417 0.30472168 -0.050363865 0.028254038 -0.09384553 0.0014900309 -0.10688294
-0.15579906 0.27850434 -0.14905132 0.03622809 -0.21719514 -0.013612821 -0.06310139 -0.010736078
0.5559991 -0.4863314 0.41119736 -0.3754474 0.013224254 0.06307974 -0.5906834 0.17080447
-0.13759105 0.29926905 0.10384294 0.31393817 0.07374674 -0.035269868 6.6089272 -0.034690157
-0.092224 0.09066922 -0.23493773 0.10302574 -0.2243776 0.3135074 0.56473964 0.071949445
-0.06285267 -0.017732082 0.19390674 0.061322123 -0.294583 0.12509938 -0.45907453 0.15985802
0.3090327 -0.25036693 0.33485246 -0.18963377 -0.27696034 0.32154372 0.17377605 0.17885892
0.12189046 -0.004441058 0.19875465 -0.08714511 0.23655325 -0.3418316 -0.2077966 -0.23482074
0.06310876 0.013131439 0.6893529 -0.0015272751 0.019225601 -0.037933737 -0.5185788 0.09140826
0.03967802 0.115963645 -0.2513703 -0.151856 0.29384992 -0.18410559 -0.27055982 -0.18295483
-0.19743636 0.087965764 0.052816063 0.11875831 0.064016014 0.095905446 -0.58823353 0.17955333
-0.18445373 0.22285242 -0.41479883 0.21044944 0.1359049 0.1597094 -0.228423 0.3600763
-0.09385233 0.35502458 -0.3832444 0.44155043 -0.06935193 -0.08866791 0.2200053 0.004245741
-0.04086989 0.08497409 -0.27041665 0.08590826 0.086367145 0.05175001 -0.43112618 0.06328255
0.07409785 -0.011474925 -6.030553 -1.4017347 -0.036270354 -0.20165694 1.2799474 -0.27313966
-0.13601306 0.20843028 6.4141736 0.88544446 -0.031035969 -0.086632185 -0.49483204 -0.020784289
-0.00871669 0.12493415 -0.4170101 0.23951268 0.7207599 0.3920279 1.4797777 0.36080492
0.26646557 -0.31240734 0.8191914 0.024774378 0.18411143 -0.24668829 0.21741892 -0.09720663
-0.05674907 0.0744122 -0.1995229 0.03577483 2.0933897 0.27996373 -3.9589508 -0.38999975
-0.0375975 0.030116448 5.3749146 0.3711415 0.6320525 -0.5041409 -0.18375024 -0.035637196
0.10079836 -0.08365491 -0.19673608 -0.27643764 -0.055656437 0.084698185 3.7997289 0.07574346
0.13089044 -0.005812919 0.45636034 0.16802102 0.0023725142 -0.003253332 7.5821476 0.8757354
-0.06218787 0.2766127 0.087811515 -0.122836344 0.0713262 -0.15132274 -0.57178736 -0.13239913
0.239914 -0.20029837 0.22567795 -0.22704715 0.32826716 -0.12995274 0.17419505 -0.22537602
0.17145988 -0.06979427 0.8777491 -0.20983447 0.09708579 -0.04440008 -0.24664527 0.031529702
00000000: 5fdf 99be 2ee9 443d b26e 8abf c23a 7c3e
00000010: 8b52 2f3d cafe 313b b37b f8c0 c711 babe
00000020: 148e 243e 42e4 dbbc a593 2d3e 6497 a23c
00000030: e506 a7be e247 a53e 9e31 7fbf 603f 653e
00000040: b0b8 ed3c cd03 a3bd 7d50 db3c 60d3 89be
00000050: de55 973e 8970 27be 591a 8bbe 9f89 6dbe
00000060: cb4a f63e 377b 53be 534c 6ebf a53b 1fbe
00000070: d0e5 a6bd 2a4b c7ba 9322 5ebf c4dd 573e
00000080: e147 553d 7682 83bc c81d 8640 a54a 99bc
00000090: 8ac7 c33d 369a 9fbd ae62 afbd 118b 3a3d
000000a0: 96e5 85bd 84ad ef3b d289 cebe e8ef 81bd
000000b0: b5f9 26be fc8f 3a3e 1a48 4340 a725 043e
000000c0: c45c db3d 88e4 753c 22ef 87c0 4feb 76bd
000000d0: c8f6 353e 3ba6 5fbe 227c b0be 4955 4cbe
000000e0: 4995 b83e 982c 79be 7b04 9c3e 574a 4ebd
000000f0: 0375 e73c 1632 c0bd 244d c33a 71e5 dabd
00000100: ca89 1fbe 1f98 8e3e e9a0 18be e863 143d
00000110: 6768 5ebe 4f08 5fbc 4d3b 81bd 60e6 2fbc
00000120: f555 0e3f 6e00 f9be 7688 d23e a43a c0be
00000130: 8baa 583c f32f 813d 0737 17bf 5ee7 2e3e
00000140: abe4 0cbe cb39 993e 9bab d43d 81bc a03e
00000150: 8808 973d 2377 10bd 557c d340 4417 0ebd
00000160: f0df bcbd c9b0 b93d 8493 70be 29ff d23d
00000170: 3ec3 65be 0b84 a03e c792 103f 3b5a 933d
00000180: e7b8 80bd df42 91bc 7d8f 463e e82c 7b3d
00000190: 95d3 96be 0d1a 003e d10b ebbe d2b1 233e
000001a0: 8939 9e3e 1830 80be c871 ab3e 5b2f 42be
000001b0: bfcd 8dbe 61a1 a43e 59f2 313e cb26 373e
000001c0: b5a1 f93d 4b86 91bb 5786 4b3e 2379 b2bd
000001d0: 043b 723e 8d04 afbe a2c8 54be d974 70be
000001e0: 2a3f 813d 3f25 573c 6f79 303f d92e c8ba
000001f0: 027f 9d3c 6860 1bbd 95c1 04bf 4134 bb3d
00000200: 6b85 223d 597e ed3d 9cb3 80be 2480 1bbe
00000210: 7f73 963e 2d86 3cbe d186 8abe 8358 3bbe
00000220: c22c 4abe 6527 b43d a855 583d 8f37 f33d
00000230: d41a 833d 136a c43d 7996 16bf d4dc 373e
00000240: 70e1 3cbe 6d33 643e 8360 d4be 0f80 573e
00000250: a72a 0b3e dc8a 233e b8e7 69be ec5b b83e
00000260: a735 c0bd c8c5 b53e 9c38 c4be e612 e23e
00000270: 6208 8ebd 8597 b5bd 1249 613e db1f 8b3b
00000280: 3067 27bd e506 ae3d 0d74 8abe abf0 af3d
00000290: 42e1 b03d d2f7 533d 92bc dcbe 489a 813d
000002a0: 9dc0 973d 5301 3cbc 4afa c0c0 0b6c b3bf
000002b0: 3990 14bd 287f 4ebe 51d5 a33f f6d8 8bbe
000002c0: 0247 0bbe bf6e 553e e940 cd40 7dac 623f
000002d0: 253f febc 376c b1bd a05a fdbe d043 aabc
000002e0: 73d0 0ebc 7add ff3d 5982 d5be d042 753e
000002f0: b983 383f e2b7 c83e 5b69 bd3f 6cbb b83e
00000300: 2d6e 883e dbf3 9fbe 87b6 513f a3f3 ca3c
00000310: b587 3c3e db9b 7cbe 11a3 5e3e 4514 c7bd
00000320: b671 68bd 6c65 983d bb4f 4cbe a188 123d
00000330: 19fa 0540 6857 8f3e 735f 7dc0 0cae c7be
00000340: d6ff 19bd c5b6 f63c 4dff ab40 4206 be3e
00000350: 31ce 213f 610f 01bf 0629 3cbe 4ff8 11bd
00000360: 5f6f ce3d 4453 abbd 2f75 49be 3c89 8dbe
00000370: 01f8 63bd 3e76 ad3d c22e 7340 631f 9b3d
00000380: 2508 063e 4c7a bebb 10a8 e93e b40d 2c3e
00000390: 2f7c 1b3b db35 55bb f4a0 f240 3230 603f
000003a0: b5b8 7ebd 2ea0 8d3e 86d6 b33d 9f91 fbbd
000003b0: 7913 923d 59f4 1abe a860 12bf a393 07be
000003c0: 04ac 753e 041b 4dbe 1f18 673e 0c7f 68be
000003d0: a212 a83e 5512 05be 3060 323e f9c8 66be
000003e0: 2e93 2f3e 4cf0 8ebd 2ab4 603f d9de 56be
000003f0: ead4 c63d dcdc 35bd 9490 7cbe 4a25 013d

fc1.bias f4 [128]
-1.0833225 -1.5206286 -0.4338344 -0.68743 -0.77147675 -0.5827222 -1.1175007 -0.7105527
-1.0942912 -0.5256701 -0.7723345 -0.9384724 -1.5595481 -0.7093327 -0.7400141 -0.34360915
-0.59536886 -0.61261344 -0.99394745 -0.30191317 -0.8308131 -1.4260929 -0.20796637 -1.0259084
-1.5424792 -0.928811 -0.54892015 -0.5814082 -0.5234681 -0.6912966 -0.36250818 -0.78472507
-0.99061674 -0.8471199 -0.9916154 -0.6084068 -0.3938237 -1.2790136 -0.99560684 -0.8420577
-0.13464712 -0.56970084 -2.0250602 -0.7441007 -1.4761621 -1.1173115 -0.97894305 -0.28143355
-0.9395413 -0.6826729 -0.12305381 -2.6291711 -1.6098002 -1.1725292 -1.1745669 -0.96715474
-0.56458914 -1.5719595 -1.0625564 -0.50472844 -0.4696604 -0.7521849 -0.9756455 -0.3968156
-0.76898164 -1.0939608 -0.58353835 -1.0142094 -1.5139107 -1.0435483 -0.797816 -0.6377526
-0.17782272 -1.0941277 -0.69901043 -1.4347713 -0.31472576 -1.2773458 -1.0715362 -0.7951455
-2.5308247 -1.2544068 -0.9312937 -0.675083 -0.28679335 -0.57394904 -0.7710704 -0.7372652
-0.88183314 1.2319262 -0.70754707 -1.1190078 -1.2981973 -1.4093299 -0.3734495 -0.47846478
-0.5837261 -1.0407758 -0.5205349 -0.06759494 -0.3269669 -1.6855596 -0.20617557 -0.8691589
-0.68793696 -0.8602207 -0.577931 -0.6024699 -0.95959413 -1.2636755 -0.597377 -0.8248397
-0.5046073 -1.4535987 -0.76949155 -0.3797183 -0.7607608 -0.8601056 -0.7240347 -0.7060295
-0.6585058 -1.4389919 -1.2264305 -0.62228537 -0.8481131 -0.57178515 -0.8839517 -2.7543702
00000000: 50aa 8abf f5a3 c2bf 8b1f debe 6afb 2fbf
00000010: 807f 45bf 482d 15bf 430a 8fbf c8e6 35bf
00000020: bc11 8cbf 5192 06bf b7b7 45bf ba3f 70bf
00000030: 469f c7bf d496 35bf 9071 3dbf 8aed afbe
00000040: 186a 18bf 3cd4 1cbf 5773 7ebf 5d94 9abe
00000050: 2bb0 54bf 368a b6bf 23f5 54be f750 83bf
00000060: f56f c5bf 8fc6 6dbf 0886 0cbf 2bd7 14bf
00000070: 0102 06bf d0f8 30bf ac9a b9be bee3 48bf
00000080: 0f99 7dbf dadc 58bf 82da 7dbf 8cc0 1bbf
00000090: 43a3 c9be b8b6 a3bf 17e0 7ebf 1891 57bf
000000a0: efe0 09be ead7 11bf 969a 01c0 627d 3ebf
000000b0: e1f2 bcbf 1004 8fbf 039c 7abf 0f18 90be
000000c0: c785 70bf a7c3 2ebf a303 fcbd 5744 28c0
000000d0: ef0d cebf 7015 96bf 3558 96bf 7497 77bf
000000e0: ea88 10bf f835 c9bf d901 88bf e235 01bf
000000f0: 5477 f0be 318f 40bf e7c3 79bf 6a2b cbbe
00000100: fbdb 44bf e806 8cbf c562 15bf 9dd1 81bf
00000110: d3c7 c1bf fe92 85bf ab3d 4cbf c143 23bf
00000120: 2917 36be 600c 8cbf 59f2 32bf 96a6 b7bf
00000130: bc23 a1be 1180 a3bf 1928 89bf a88e 4bbf
00000140: 08f9 21c0 6790 a0bf 4469 6ebf 3dd2 2cbf
00000150: 94d6 92be 53ee 12bf df64 45bf 6abd 3cbf
00000160: d1bf 61bf c2af 9d3f ce21 35bf a63b 8fbf
00000170: 542b a6bf ec64 b4bf c634 bfbe 56f9 f4be
00000180: 136f 15bf 2438 85bf c641 05bf 376f 8abd
00000190: 3568 a7be 6bc0 d7bf b01f 53be 3381 5ebf
000001a0: a31c 30bf 6c37 5cbf 49f3 13bf 783b 1abf
000001b0: f6a7 75bf 1ec0 a1bf b3ed 18bf b228 53bf
000001c0: f22d 01bf 860f babf 66fd 44bf 706a c2be
000001d0: 38c1 42bf e12f 5cbf 575a 39bf 59be 34bf
000001e0: d693 28bf e330 b8bf adfb 9cbf 184e 1fbf
000001f0: f11d 59bf 8360 12bf a94a 62bf 9a47 30c0

fc2.weight f4 [128, 128]
0.38233945 -3.3265316 0.08096872 -0.027058037 0.3066652 0.08912905 -0.014148165 -0.33302173
-2.5086942 -0.10062975 -0.20052318 -0.4058952 -3.2042065 -0.11085904 0.05245441 -0.04759153
0.17274521 -0.008401438 0.35946092 0.11356369 0.07443903 -2.6813595 -0.10322102 0.139281
-0.42781448 -0.08807693 0.10405379 -0.13342416 0.100245446 -0.0056760423 0.11110353 0.1533422
0.36199507 0.34208634 -0.30212417 0.22135036 -0.034304537 -0.05393976 0.049324796 0.27185526
0.07767304 -0.12409881 -0.98073924 0.028267771 -0.7250448 -0.22375838 -0.22970203 0.2968586
0.0033824416 -0.015820088 -0.0845768 -1.1056559 -2.1693842 -0.1210677 0.08612793 -2.5107307
-0.2550895 -2.6532593 -0.041177653 -0.052455712 -0.22668482 0.29746744 0.23217668 -0.07775797
0.043221183 -0.06633714 -0.023338886 0.043069262 0.0050516585 -0.08721674 0.11226011 -0.10971354
-0.025364267 -0.33635446 -0.23891196 -5.719269 -0.013148004 -0.5759721 0.22240224 -0.023494357
-1.8499322 -0.21248257 0.030722538 0.11851685 0.047548592 0.22709234 -0.17537437 0.29978323
-0.14455469 0.4881186 0.089169726 -0.6411326 -3.2173996 -5.6364484 0.15294251 0.030631915
-0.22134829 -0.0023227525 -0.097825415 0.045619786 -0.10334142 -2.9029279 0.07248763 0.14240333
0.15525001 -0.27961257 0.050977565 -0.22665074 -0.043650348 -0.46477985 -0.16519614 -0.036986675
-0.2082296 -3.8960133 0.13544916 -0.04445764 -0.04304943 -0.14795017 0.025353977 0.027359346
0.20369714 0.19949386 0.07189375 0.083772704 -0.060290948 -0.27147216 0.19022882 -0.5082503
0.01750957 -0.16307393 0.15133184 -0.4047494 -0.09176522 0.06452422 -0.09761731 0.032401264
-0.11863662 -0.021806777 -0.06700763 -0.18966042 -0.1201135 0.018267367 0.031988043 -0.22675338
0.009577681 0.2521256 -0.18455648 -0.30459225 -0.11680689 -0.35591316 -0.32259724 -0.13365053
0.05811603 -0.07398041 -0.060704865 -0.23443475 -0.043410346 -0.059594397 0.02940687 -0.025031704
0.08177831 0.07145879 -0.03008676 0.011442403 0.008090359 -0.056674685 -0.11654885 -0.044367753
-0.069508776 -0.066559955 -0.2541749 -0.48759714 -0.12613977 0.1472651 -0.13824092 0.33423477
-0.15550746 -0.09097819 -0.12861258 -0.26189703 -0.36114812 -0.39513317 0.07167869 0.021383438
-0.39776078 -0.15881231 -0.10686019 0.021763071 -0.023561925 -0.011316498 -0.04832888 -0.09228841
-0.046909377 -0.0070239515 -0.08887027 -0.14826645 -0.37808973 -0.062606886 0.07386312 0.011933804
-0.060106844 -0.19815019 -0.0089994725 -0.06998408 0.04594525 -0.0823595 -0.1442854 -0.015907058
-0.05189844 -0.05506533 -0.050235927 -0.08677145 -0.09426627 0.07296148 0.07284081 -0.10595179
-0.06974185 -0.60781974 -0.07281179 -0.076327845 -0.19666141 -0.2690724 -0.48344696 -0.086176515
-0.17493904 -0.04554791 -0.33118117 -0.5052466 -0.44961035 -0.20342712 -0.14650464 -0.43616176
-0.0023840782 0.037195455 -0.07560186 0.07671391 -0.3775076 -0.021274354 -0.25624853 -0.0886302
0.05582689 -0.07742124 0.046024717 -0.012707324 0.01673796 0.048560575 -0.20239478 -0.14206783
-0.10018853 -0.13026966 -0.0014077656 -0.00805622 -0.010079217 0.005751348 0.25315702 0.092776164
00000000: ffc1 c33e e5e5 54c0 eed2 a53d d1a8 ddbc
00000010: 3903 9d3e 4b89 b63d b4cd 67bc d381 aabe
00000020: 728e 20c0 f816 cebd f355 4dbe 7fd1 cfbe
00000030: b811 4dc0 100a e3bd 6fda 563d 56ef 42bd
00000040: 1fe4 303e 2fa6 09bc 430b b83e 1494 e83d
00000050: 7d73 983d 659b 2bc0 8b65 d3bd ae9f 0e3e
00000060: 800a dbbe ad61 b4bd 271a d53d 58a0 08be
00000070: 7c4d cd3d 18fe b9bb 3f8a e33d bd05 1d3e
00000080: 6b57 b93e f125 af3e 05b0 9abe aba9 623e
00000090: ea82 0cbd f0ef 5cbd cc08 4a3d 9d30 8b3e
000000a0: 0b13 9f3d 8427 febd ba11 7bbf d091 e73c
000000b0: 899c 39bf eb20 65be 0237 6bbe dafd 973e
000000c0: f4ab 5d3b 2199 81bc 9a36 adbd 2286 8dbf
000000d0: 31d7 0ac0 58f2 f7bd d763 b03d d0af 20c0
000000e0: 179b 82be 00cf 29c0 e6a9 28bd cddb 56bd
000000f0: 1120 68be a74d 983e b9bf 6d3e 923f 9fbd
00000100: b208 313d c4db 87bd 3131 bfbc 6569 303d
00000110: 6288 a53b b19e b2bd a1e8 e53d 7eb1 e0bd
00000120: b9c8 cfbc a736 acbe 56a5 74be 4004 b7c0
00000130: ba6a 57bc e872 13bf 6abd 633e 3d77 c0bc
00000140: 94ca ecbf 0895 59be d5ad fb3c f6b8 f23d
00000150: 50c2 423d e58a 683e 5795 33be 307d 993e
00000160: 2506 14be aeea f93e 9e9e b63d 4421 24bf
00000170: e0e9 4dc0 c95d b4c0 f69c 1c3e c8ef fa3c
00000180: 20a9 62be 5239 18bb b158 c8bd d0db 3a3d
00000190: aba4 d3bd 92c9 39c0 6574 943d 2ed2 113e
000001a0: dcf9 1e3e 6129 8fbe dacd 503d 2217 68be
000001b0: b5ca 32bd a0f7 edbe 2d29 29be 577f 17bd
000001c0: 243a 55be 4858 79c0 2fb3 0a3e 3719 36bd
000001d0: 9954 30bd 4080 17be 25b3 cf3c b520 e03c
000001e0: fc95 503e 1e48 4c3e 083d 933d 0691 ab3d
000001f0: a4f3 76bd 66fe 8abe 58cb 423e b11c 02bf
00000200: 3b70 8f3c dafc 26be bcf6 1a3e 503b cfbe
00000210: 67ef bbbd 4625 843d 96eb c7bd 30b7 043d
00000220: c2f7 f2bd 20a4 b2bc 4c3b 89bd 5736 42be
00000230: 11fe f5bd 72a5 953c e505 033d 0a32 68be
00000240: b5eb 1c3c 9b16 813e 60fc 3cbe 84f3 9bbe
00000250: 7338 efbd 403a b6be 772b a5be afdb 08be
00000260: 130b 6e3d 0b83 97bd aaa5 78bd aa0f 70be
00000270: 0ccf 31bd 4119 74bd ade6 f03c 4a0f cdbc
00000280: 637b a73d fc58 923d 8278 f6bc eb78 3b3c
00000290: 6d8d 043c b723 68bd 2ab1 eebd f6ba 35bd
000002a0: 9e5a 8ebd 9650 88bd 3623 82be 55a6 f9be
000002b0: c92a 01be aacc 163e 078f 0dbe d220 ab3e
000002c0: 593d 1fbe c652 babd 04b3 03be 5e17 86be
000002d0: 68e8 b8be e54e cabe 47cc 923d 522c af3c
000002e0: 4da7 cbbe b29f 22be 84d9 dabd 7848 b23c
000002f0: f004 c1bc d568 39bc 81f4 45bd b501 bdbd
00000300: 0c24 40bd 2d29 e6bb 9e01 b6bd 29d3 17be
00000310: fa94 c1be 0a38 80bd 8c45 973d 0086 433c
00000320: 9832 76bd e2e7 4abe 8672 13bc d053 8fbd
00000330: 1631 3c3d 19ac a8bd 8dbf 13be 854f 82bc
00000340: 7593 54bd 2f8c 61bd 30c4 4dbd 3bb5 b1bd
00000350: ad0e c1bd d46c 953d 902d 953d 41fd d8bd
00000360: d1d4 8ebd 139a 1bbf 591e 95bd c651 9cbd
00000370: 9c61 49be dcc3 89be 5c86 f7be 507d b0bd
00000380: 3823 33be 7290 3abd 9490 a9be d757 01bf
00000390: 5433 e6be 334f 50be 5005 16be 9850 dfbe
000003a0: 323e 1cbb 435a 183d 26d5 9abd 2f1c 9d3d
000003b0: ad48 c1be 8e47 aebc 0233 83be c083 b5bd
000003c0: bdaa 643d 078f 9ebd 6a84 3c3d 6132 50bc
000003d0: 0c1e 893c 74e7 463d 9440 4fbe 3b7a 11be
000003e0: a52f cdbd 6965 05be c684 b8ba 3cfe 03bc
000003f0: 4d23 25bc ce75 bc3b cc9d 813e 6e01 be3d

fc2.bias f4 [128]
3.1340582 -0.4291953 2.363354 -0.028119212 -0.5986897 -0.44697285 -0.29719275 -0.042134017
1.8727512 -0.061152827 -1.5719572 -0.08364074 -0.05651335 -0.13999785 -0.3369242 -0.05344035
-0.04354958 2.5197213 0.110985145 -0.12711142 -0.84236544 -0.027269205 -0.09813294 -0.4345618
-0.33277965 2.2274642 -0.37121782 -0.04164395 2.3262146 -0.19660474 -0.13125601 -0.1144817
-0.079885334 -0.46820822 2.4331534 -0.3805421 2.365812 0.0008636411 -0.44685692 -0.38613433
-0.07072821 -0.34689692 -0.08522012 -0.024801314 -0.3399065 -0.34604287 -0.16605505 -0.08790917
-0.11858696 -0.30037493 -0.4453686 -0.43898553 -0.09015116 2.04177 -0.2412107 -0.050268102
-0.14885344 -0.27645072 -0.3093413 -0.31081715 -0.22608286 -0.4481746 1.4178973 -0.09624906
-0.29898915 2.1424475 -0.22313386 -0.2365251 -0.12030807 -0.065678515 -0.38231665 0.021297421
-0.2678181 -0.7102025 -0.04544367 0.0004234382 2.1169026 -0.35285884 -0.080714196 -0.46864524
-0.104288176 0.0042786077 -0.12077714 0.01029078 -0.13000265 -0.23555478 -0.21884032 -0.043725975
-0.23626857 -0.25019717 -0.026974363 2.9086006 -0.0566598 -0.3323222 -0.47418925 -0.5316745
-0.08829601 -0.062465522 -0.16345216 2.9793615 -0.03409528 -0.16011265 -0.08489735 2.9018695
-0.37700614 -0.3405615 -0.11849269 -0.106296726 -0.14633329 -0.06107759 -0.025924634 -0.07163971
-0.6343451 -0.34913394 -0.108081125 -0.2636542 -0.20995364 2.2408924 -0.39145586 -0.27340692
-0.5762362 -0.31465045 -0.16580226 -0.04837678 -0.337959 -0.10198461 -0.057055302 -0.3421447
00000000: 6994 4840 7dbf dbbe 3141 1740 435a e6bc
00000010: ba43 19bf a0d9 e4be a629 98be b894 2cbd
00000020: 50b6 ef3f 637b 7abd e535 c9bf d64b abbd
00000030: 8b7a 67bd 995b 0fbe 5481 acbe 45e4 5abd
00000040: 0b61 32bd 1d43 2140 2e4c e33d 7f29 02be
00000050: 43a5 57bf ab63 dfbc ecf9 c8bd e27e debe
00000060: 1862 aabe c68e 0e40 4310 bebe d992 2abd
00000070: b3e0 1440 c152 49be fa67 06be 6275 eabd
00000080: ec9a a3bd fdb8 efbe c9b8 1b40 6ad6 c2be
00000090: 7769 1740 f965 623a 6eca e4be 66b3 c5be
000000a0: f4d9 90bd 799c b1be e387 aebd 202c cbbc
000000b0: 3a08 aebe 882c b1be 560a 2abe b909 b4bd
000000c0: b8dd f2bd beca 99be 5a07 e4be b6c2 e0be
000000d0: 2ca1 b8bd 5cac 0240 f0ff 76be ede5 4dbd
000000e0: 096d 18be f38a 8dbe fc61 9ebe 6d23 9fbe
000000f0: 4482 67be 2477 e5be a97d b53f 3a1e c5bd
00000100: 1b15 99be dc1d 0940 347d 64be a333 72be
00000110: 1464 f6bd 7582 86bd 02bf c3be ee77 ae3c
00000120: 741f 89be d5cf 35bf 2423 3abd ea00 de39
00000130: 557b 0740 eaa9 b4be 7c4d a5bd 45f2 efbe
00000140: 0a95 d5bd 9033 8c3b 015a f7bd a99a 283c
00000150: 6a1f 05be 4635 71be ad17 60be 021a 33bd
00000160: 63f0 71be d819 80be 57f9 dcbc 8326 3a40
00000170: 1b14 68bd 2326 aabe efc8 f2be d21b 08bf
00000180: 8ad4 b4bd d9db 7fbd 0160 27be dcad 3e40
00000190: 7ea7 0bbd 92f4 23be a9de adbd 3bb8 3940
000001a0: f306 c1be 145e aebe 4cac f2bd 19b2 d9bd
000001b0: 65d8 15be 7f2c 7abd e65f d4bc d7b7 92bd
000001c0: 7164 22bf afc1 b2be a359 ddbd affd 86be
000001d0: 16fe 56be c86a 0f40 e76c c8be fefb 8bbe
000001e0: 3784 13bf dd19 a1be 11c8 29be bb26 46bd
000001f0: f608 adbe 4fdd d0bd d2b2 69bd 972d afbe

fc3.weight f4 [2, 128]
2.2052255 0.13431951 3.1846209 -0.0052573374 -0.47445902 -0.13092728 -0.13227695 0.01890867
2.253108 -0.024102954 -1.749513 0.0006491249 -0.022114791 0.040879734 -0.018310027 -0.02251521
0.042479176 1.4823679 0.07050611 0.051018603 -0.5555846 -0.009353793 -0.068391904 0.01930474
-0.0023749536 -2.4642763 0.26290575 -0.0020525903 -3.094502 0.008958373 -0.10155293 -0.0629163
-0.0075008473 0.2959087 -0.34948 -0.022456149 1.5228223 0.018929383 0.01293589 0.31611127
-0.061587688 -0.19921218 -0.27298918 0.02240462 -0.18909213 0.036741078 -0.0077262754 0.08119215
-0.06492133 -0.01645619 -0.026695034 0.003057035 0.074047275 3.002822 0.3344507 -0.0043923026
-0.042034052 -0.03210256 0.48949504 -0.08347003 0.16668451 0.026458478 1.3581353 0.10044406
-0.26900536 -1.840373 -0.015932376 -3.5947802 -0.017274313 0.0078079286 -0.28613186 0.013618861
0.026625486 -0.13563278 -0.0017770318 0.028719237 2.9251409 0.024169499 0.06262804 -0.27360883
0.061372604 0.0624775 0.009725278 0.06592748 0.016134871 0.19917455 -0.031550605 -0.0005105316
0.069241 -0.047875397 0.013605497 2.0306244 0.041322835 0.28978086 -0.0012333103 -0.13641101
0.005718429 0.3064964 0.11746443 2.4043396 0.064517416 0.010253952 -0.02293635 2.0700097
0.093872696 0.2573737 0.016959235 -0.012695864 0.0382137 0.047924746 0.009109858 -0.06410275
-0.27168962 0.28222227 0.03223248 0.023513375 0.034082398 -1.6200669 -0.24087672 0.0073307687
-0.153807 -0.0124717215 0.033160925 0.031064823 -0.015362168 -0.0497596 0.045319185 0.0077325166
1.5857284 0.005658792 0.17131746 0.12602653 0.012475854 -0.07328719 -0.059608076 0.022086116
-2.6126447 0.037642755 -4.5427785 0.041930526 0.018855426 0.046560682 -0.2500573 0.079779446
0.014117156 1.6186632 -0.12221958 -0.024896743 -0.21201694 -0.019244634 0.045571852 -0.18792266
-0.17039731 1.8274661 -0.0064911903 -0.055134308 2.5123754 0.07904443 -0.111488454 0.059316024
0.0146542005 -0.16766545 3.1289341 -0.28864422 1.3511013 0.015091076 0.057414673 0.07753491
0.008395334 0.12077321 0.024502497 -0.003613014 -0.2514005 -0.0056749964 -0.06274648 -0.010039556
0.026506467 0.01609318 -0.21751723 -0.26035425 0.018449996 -0.28935665 0.30218428 0.10606619
0.059296306 0.017457832 0.29548046 -0.01466777 -0.0016665496 -0.19691099 -2.99111 0.066454306
-0.07537198 1.9137801 0.11169256 -0.51219827 0.10322041 -0.022580732 0.027857617 -0.06838861
0.017927373 0.28164768 0.0036284297 0.067816205 -2.1880922 -0.02966269 0.026387513 0.05972687
0.047616694 -0.0008023914 0.09308986 0.0013690296 -0.03745069 -0.012719044 0.2315708 0.038086083
0.0033221203 -0.1513072 -0.045186933 1.566138 0.046691336 0.04554065 -0.065784894 -0.2778914
-0.028435102 0.059637863 0.07694986 1.6373389 -0.07031761 -0.024507746 0.012296659 1.5782335
0.3238526 0.002766361 -0.017215448 0.012612996 0.012857794 -0.0033392054 0.04609725 0.01564945
-0.28890398 0.1735483 0.019176545 -0.25646713 0.15393876 2.7354805 0.0058610123 -0.4257198
-0.48794356 -0.25629205 -0.0072884965 0.004457074 0.2647062 -0.02520949 0.048225358 0.010445063
00000000: 6a22 0d40 0e8b 093e d4d0 4b40 be45 acbb
00000010: 4bec f2be cd11 06be 9c73 07be 5be6 9a3c
00000020: ec32 1040 8f73 c5bc 0bf0 dfbf 092a 2a3a
00000030: 142a b5bc 8271 273d e9fe 95bc d171 b8bc
00000040: a5fe 2d3d 3bbe bd3f 8265 903d e2f8 503d
00000050: cb3a 0ebf a740 19bc 0e11 8cbd f924 9e3c
00000060: 1ca5 1bbb b4b6 1dc0 959b 863e c084 06bb
00000070: 520c 46c0 24c6 123c fcfa cfbd 43da 80bd
00000080: abc9 f5bb 5881 973e 0bef b2be f5f5 b7bc
00000090: d7eb c23f cb11 9b3c 0ef1 533c 56d9 a13e
000000a0: 5f43 7cbd 47fe 4bbe 3dc5 8bbe e589 b73c
000000b0: 5ea1 41be d07d 163d b22c fdbb 1248 a63d
000000c0: 79f5 84bd 22cf 86bc 8baf dabc 8958 483b
000000d0: 19a6 973d 3c2e 4040 1f3d ab3e 4eed 8fbb
000000e0: e62b 2cbd f97d 03bd 189f fa3e 56f2 aabd
000000f0: 58af 2a3e 73bf d83c 61d7 ad3f 9eb5 cd3d
00000100: 12bb 89be 5891 ebbf 9d84 82bc e110 66c0
00000110: dc82 8dbc a7d9 ff3b e07f 92be a521 5f3c
00000120: b11d da3c 52e3 0abe 4beb e8ba 9b44 eb3c
00000130: 8235 3b40 1dff c53c 2143 803d 7516 8cbe
00000140: d761 7b3d 68e8 7f3d c656 1f3c fd04 873d
00000150: 472d 843c 6af4 4b3e 353b 01bd 32d5 05ba
00000160: 3ace 8d3d fe18 44bd 97e9 5e3c c0f5 0140
00000170: 2242 293d 285e 943e 07a7 a1ba 54af 0bbe
00000180: a961 bb3b 19ed 9c3e 3191 f03d b3e0 1940
00000190: b521 843d 3100 283c 03e5 bbbc 0a7b 0440
000001a0: 5440 c03d 7cc6 833e 18ee 8a3c 5002 50bc
000001b0: f885 1c3d bd4c 443d 8441 153c 4d48 83bd
000001c0: e71a 8bbe 707f 903e 3406 043d 1f9f c03c
000001d0: fc99 0b3d 5a5e cfbf 63a8 76be f236 f03b
000001e0: 957f 1dbe 3156 4cbc c0d3 073d a87b fe3c
000001f0: 9ab1 7bbc b9d0 4bbd 9ca0 393d 0d61 fd3b
00000200: 26f9 ca3f 636d b93b d86d 2f3e 190d 013e
00000210: 8667 4c3c 9817 96bd 9927 74bd f1ed b43c
00000220: 9235 27c0 4a2f 1a3d 715e 91c0 58bf 2b3d
00000230: b276 9a3c 6ab6 3e3d 8307 80be 6863 a33d
00000240: a54b 673c 5b30 cf3f 424e fabd 41f4 cbbc
00000250: f81a 59be eca6 9dbc 8da9 3a3d cc6e 40be
00000260: a27c 2ebe 69ea e93f 0db4 d4bb 83d4 61bd
00000270: c2ca 2040 0ce2 a13d 0f54 e4bd 5cf5 723d
00000280: 2c18 703c 7eb0 2bbe 7540 4840 2dc9 93be
00000290: e3f0 ac3f 8f40 773c a62b 6b3d 9fca 9e3d
000002a0: 958c 093c f257 f73d 76b9 c83c 51c8 6cbb
000002b0: 91b7 80be 52f5 b9bb 3a81 80bd f37c 24bc
000002c0: 1724 d93c d8d5 833c d6bc 5ebe 274d 85be
000002d0: 7224 973c 8e26 94be e6b7 9a3e 3b39 d93d
000002e0: afe0 723d ba03 8f3c 3749 973e 1651 70bc
000002f0: 2070 daba 09a3 49be 596e 3fc0 3219 883d
00000300: a05c 9abd bff6 f43f 12bf e43d 6d1f 03bf
00000310: 3965 d33d 3afb b8bc a835 e43c 540f 8cbd
00000320: 6ddc 923c 2034 903e f3ca 6d3b 39e3 8a3d
00000330: b409 0cc0 2bff f2bc a02a d83c 2aa4 743d
00000340: b909 433d 9357 52ba e6a5 be3d 0371 b33a
00000350: e565 19bd 8a63 50bc e520 6d3e 2700 1c3d
00000360: eeb7 593b 46f0 1abe ef15 39bd 3677 c83f
00000370: 6a3f 3f3d d588 3a3d 3bba 86bd c847 8ebe
00000380: bbf0 e8bc d546 743d e397 9d3d 5294 d13f
00000390: ae02 90bd 78c4 c8bc ed77 493c 8e03 ca3f
000003a0: 02d0 a53e d64b 353b 6907 8dbc bda6 4e3c
000003b0: 7fa9 523c 92d6 5abb 78d0 3c3d 4633 803c
000003c0: 39eb 93be a5b6 313e 2118 9d3c a94f 83be
000003d0: 1fa2 1d3e 1d12 2f40 bc0d c03b f2f7 d9be
000003e0: bdd3 f9be b638 83be 57d4 eebb a60c 923b
000003f0: 9287 873e 2284 cebc f487 453d c521 2b3c

fc3.bias f4 [2]
2.4142442 2.0455093
00000000: fa82 1a40 a0e9 0240
