weights/dqn_weights.pth (torch, 72240 bytes, 6 tensors)

fc1.weight f4 [128, 4]
0.35004726 -0.1432383 0.2334649 -0.39043045 -0.22606364 0.12707387 1.0387127 0.14655446
-0.06932431 0.12741502 0.32847646 0.1275548 -0.047883153 0.4501598 -0.16964881 0.20342207
0.078265145 -0.085115924 -1.1523491 0.24778074 -0.12065454 0.10454018 0.88244194 0.17005919
-0.1168582 0.21284582 -0.14020649 0.120095685 -0.02319406 0.14442167 -0.947056 -0.04026673
0.0108979605 0.08759525 -22.015013 -1.5464523 -0.07361667 0.025423922 -3.1485095 -0.09092172
0.16010514 -0.3947939 0.7964023 -0.35389155 -0.0034242317 -0.24798462 0.20410524 0.082994245
0.05419526 0.2158377 0.39900544 0.2966412 0.20931228 -0.13537279 0.3479136 -0.19625194
-0.22002797 0.23275413 0.9647082 0.2489423 -1.903443 -0.93098944 -1.1640232 -0.46764287
-0.17433938 0.40799484 -0.27203667 0.28800455 0.0898013 -0.22512251 1.0460517 -0.112812765
-0.25131217 0.13636978 1.0506375 0.069354765 -0.08042898 -0.06269786 -1.965037 -0.07400119
0.026490452 -0.0744722 0.19401012 -0.22608735 -0.10564291 -0.12703787 19.767626 -0.6336126
-0.06017133 0.13962357 -22.044668 -3.2184348 -0.0370344 0.01709887 0.2400722 -0.38642803
0.09648228 -0.04668161 -0.152031 0.14626198 -0.071460664 0.15874586 -0.5158874 0.00780797
0.13670966 -0.22936401 0.85330725 -0.39610338 -0.32196605 0.42134762 0.053469073 0.06447374
0.06339549 0.19634756 0.561107 0.31386018 -0.3509243 0.042182915 -0.18073896 0.120720945
-0.00835795 -0.15496501 -0.07212019 0.020722814 0.10943885 -0.3429569 -0.69098276 -0.46402913
0.07286718 -0.2238052 0.37468293 -0.12504008 3.4692032 1.4868032 3.5006976 1.1246382
-0.1585709 -0.02866798 -0.18004873 -0.1206141 -0.08866107 0.09837471 0.9321016 0.14455394
-0.31535783 0.3641158 -0.965397 0.25991347 -0.25069436 0.038986027 -0.17103666 0.22076094
-0.18457775 0.12629369 0.14019646 0.053356957 0.08554931 0.2256802 0.0065029785 0.18142165
0.31253532 -0.56212175 0.5713851 -0.78253645 0.020783255 -0.014879197 21.686817 3.0151732
0.126768 -0.18176648 0.43014058 -0.2800179 0.015882114 0.08606099 -0.19937783 -0.03529654
0.13759905 -0.056985293 0.47468558 0.19597068 -0.47697234 0.45877022 -0.5430719 0.3556389
-0.17764834 -0.09644555 -0.25818118 0.10815777 -0.17299688 -0.043536548 0.1116705 0.008910101
-0.30466813 3.5236295e-05 -0.1584438 0.0491531 -0.21044701 0.2380125 0.05020407 0.03321044
-0.016812265 0.21400078 1.2706506 -0.1135574 -0.110992916 0.03918705 -0.22480948 0.41264725
-0.11915773 0.20792168 0.48833022 -0.036794525 0.16446336 -0.06349646 0.07539593 -0.018513681
0.13584915 -0.07705587 0.24719031 -0.17963338 -0.057961535 -0.005964714 0.012753452 -0.21740434
-0.0012813751 0.09241426 -0.30600196 0.23444447 -0.22128613 0.097334154 -0.3041193 0.1129579
-0.045043822 -0.11562725 0.35163468 0.15345289 0.023387998 0.039666552 -0.8123753 -0.059905212
-0.05828335 0.029169539 -0.13012782 0.11636059 -0.09260166 0.13164124 0.37258947 -0.018332062
0.21039124 -0.07132343 2.5788505 0.038260464 -0.015646977 0.06443978 12.672645 -0.057597756
00000000: 6539 b33e 10ad 12be 6c11 6f3e 80e6 c7be
00000010: 3a7d 67be a71f 023e 8af4 843f 5f12 163e
00000020: e7f9 8dbd 1579 023e 112e a83e ba9d 023e
00000030: 2021 44bd 587b e63e 6bb8 2dbe e04d 503e
00000040: 7a49 a03d 4251 aebd 2d80 93bf 3cba 7d3e
00000050: ba19 f7bd 2919 d63d b7e7 613f ff23 2e3e
00000060: 5a53 efbd 41f4 593e 4a92 0fbe baf4 f53d
00000070: 7801 bebc 46e3 133e 4372 72bf baee 24bd
00000080: 5c8d 323c 2365 b33d bf1e b0c1 26f2 c5bf
00000090: 56c4 96bd d445 d03c 2e81 49c0 2b35 babd
000000a0: 9af2 233e 6d22 cabe 05e1 4b3f 4631 b5be
000000b0: 1369 60bb aeef 7dbe f700 513e e3f8 a93d
000000c0: d9fb 5d3d 8f04 5d3e 714a cc3e 5be1 973e
000000d0: f555 563e 2a9f 0abe bb21 b23e 45f6 48be
000000e0: 034f 61be 1957 6e3e 1ef7 763f bbea 7e3e
000000f0: 05a4 f3bf 5355 6ebf b6fe 94bf e36e efbe
00000100: 0686 32be b3e4 d03e 6448 8bbe 5575 933e
00000110: bee9 b73d 8486 66be 06e5 853f 610a e7bd
00000120: fdab 80be 85a4 0b3e 4a7b 863f df09 8e3d
00000130: f3b7 a4bd bc67 80bd 5586 fbbf f08d 97bd
00000140: 8102 d93c e184 98bd 97aa 463e 7183 67be
00000150: 4f5b d8bd 3716 02be 1924 9e41 6f34 22bf
00000160: 3676 76bd 7bf9 0e3e 7b5b b0c1 d6fa 4dc0
00000170: 62b1 17bd ee12 8c3c 7dd5 753e e5d9 c5be
00000180: 8098 c53d 3735 3fbd 04ae 1bbe b3c5 153e
00000190: f859 92bd 468e 223e 3211 04bf 00da ff3b
000001a0: 9efd 0b3e 66de 6abe 5872 5a3f 10ce cabe
000001b0: bcd8 a4be e0ba d73e 6302 5b3d cf0a 843d
000001c0: 7fd5 813d 560f 493e b5a4 0f3f 48b2 a03e
000001d0: 5aac b3be fec7 2c3d a213 39be 8b3c f73d
000001e0: c8ef 08bc 26af 1ebe c0b3 93bd e4c2 a93c
000001f0: 7a21 e03d 0c98 afbe 3fe4 30bf 3a95 edbe
00000200: 633b 953d 312d 65be 71d6 bf3e 820a 00be
00000210: 6d07 5e40 914f be3f 6e0b 6040 25f4 8f3f
00000220: 6960 22be 1dd9 eabc b25e 38be 8604 f7bd
00000230: ef93 b5bd ae78 c93d 369e 6e3f f305 143e
00000240: 9576 a1be 636d ba3e 4224 77bf 6113 853e
00000250: 035b 80be d0af 1f3d 3c24 2fbe 280f 623e
00000260: f301 3dbe 2253 013e a98f 0f3e d38c 5a3d
00000270: 7a34 af3d b618 673e f016 d53b 99c6 393e
00000280: a104 a03e 36e7 0fbf 4b46 123f 4f54 48bf
00000290: a541 aa3c e0c7 73bc 9a7e ad41 99f8 4040
000002a0: 78cf 013e fe20 3abe 633b dc3e 825e 8fbe
000002b0: 351b 823c bf40 b03d b429 4cbe 1b93 10bd
000002c0: c4e6 0c3e 6969 69bd fd09 f33e 8aac 483e
000002d0: b835 f4be eee3 ea3e c306 0bbf 4d16 b63e
000002e0: 72e9 35be 3f85 c5bd 5330 84be d281 dd3d
000002f0: 1826 31be 6153 32bd 81b3 e43d acfb 113c
00000300: 76fd 9bbe afca 1338 173f 22be c354 493d
00000310: 6c7f 57be 8cb9 733e c8a2 4d3d ac07 083d
00000320: e0b9 89bc 0523 5b3e aea4 a23f c890 e8bd
00000330: 4150 e3bd 9a82 203d 7534 66be 8046 d33e
00000340: f808 f4bd 6ce9 543e 6b06 fa3e dbb5 16bd
00000350: 1569 283e 6f0a 82bd 2e69 9a3d 01aa 97bc
00000360: 0a1c 0b3e 78cf 9dbd 751f 7d3e d0f1 37be
00000370: 1369 6dbd a673 c3bb dbf3 503c 3e9f 5ebe
00000380: d0f3 a7ba b043 bd3d 4aac 9cbe 3612 703e
00000390: d598 62be 2157 c73d 86b5 9bbe 7956 e73d
000003a0: df7f 38bd fbcd ecbd 7609 b43e c122 1d3e
000003b0: 3098 bf3c 6579 223d d4f7 4fbf 2b5f 75bd
000003c0: 86ba 6ebd f5f4 ee3c 3a40 05be 764e ee3d
000003d0: f0a5 bdbd f6cc 063e 0cc4 be3e 1f2d 96bc
000003e0: cd70 573e 0512 92bd e30b 2540 01b7 1c3d
000003f0: 172e 80bc 01f9 833d 27c3 4a41 a0eb 6bbd

fc1.bias f4 [128]
-1.5932257 -0.9195739 -0.6001204 -1.4236608 -0.9617733 -0.57356924 -1.5228631 -0.9501594
-4.23761 -1.944047 -1.656131 -1.3095977 -1.3980676 -0.99960583 -1.3947697 -3.7159777
-1.593572 -0.83070254 -1.0066354 -1.5284632 -0.65298057 -3.3411913 -4.939312 -1.2670609
-1.358584 -1.1541129 -0.91067696 -1.5481415 -1.167091 -1.0716667 -1.3267183 -1.2137687
-1.1154383 -7.3822217 -0.7326681 -0.80478644 -1.0033523 -1.2574971 -0.5550546 -1.0429978
-1.8966284 -4.763633 -1.6559114 -1.1451386 -1.150794 -1.7078215 -1.1967518 -0.69964284
-1.460712 -1.5651984 -1.4192339 -1.5679584 -0.90833145 -0.857895 -0.8716217 -0.98399425
-0.8397447 -1.0527041 -1.0742779 -1.2125634 -1.0777688 -0.77851284 -2.561441 -2.8253586
-1.4657111 -1.480299 -3.7386982 -1.0541003 -1.2340431 -1.200231 -1.0966558 -1.4637758
-1.1314517 -1.3521752 -0.7788197 -1.2767085 -1.49364 -0.8665933 -1.1432194 -1.4150742
-1.1615021 -0.5011056 -1.3394316 -0.8633646 -1.1264514 -1.7419327 -1.026912 -0.41756874
-1.3033242 -0.7785202 -0.93137187 -1.5424467 -0.99296993 -0.88739514 -2.5599227 -0.9884126
-1.0749232 -1.1564078 -4.1628046 -0.5183556 -2.46545 -0.9594746 -2.1790535 -0.7264215
-4.1726546 -1.8876688 -1.7912128 -0.88188297 -2.1453474 -0.8971968 -1.2883078 -0.20262818
-0.3154167 -2.2147844 -0.8858914 -1.2063401 -1.1299888 -0.73961806 -0.7046767 -1.4887385
-1.9143422 -1.505383 -1.0076967 -1.9525226 -1.7074393 -1.3555117 -1.5239671 -3.2620916
00000000: d2ee cbbf 3269 6bbf 7ea1 19bf 843a b6bf
00000010: c636 76bf 6fd5 12bf 2eed c2bf a53d 73bf
00000020: 809a 87c0 88d6 f8bf 1afc d3bf e6a0 a7bf
00000030: e1f3 b2bf 2be6 7fbf d087 b2bf 94d2 6dc0
00000040: 2bfa cbbf eca8 54bf 6ed9 80bf afa4 c3bf
00000050: bc29 27bf 14d6 55c0 d80e 9ec0 0d2f a2bf
00000060: 15e6 adbf f9b9 93bf 2022 69bf 8029 c6bf
00000070: 3d63 95bf 602c 89bf e8d1 a9bf c65c 9bbf
00000080: afc6 8ebf 293b ecc0 2390 3bbf 7c06 4ebf
00000090: d96d 80bf aaf5 a0bf 0f18 0ebf f480 85bf
000000a0: b8c4 f2bf ae6f 98c0 e8f4 d3bf e793 92bf
000000b0: 384d 93bf e599 dabf 2a2f 99bf cb1b 33bf
000000c0: 9cf8 babf 6c58 c8bf 75a9 b5bf dcb2 c8bf
000000d0: 6988 68bf 029f 5bbf 9a22 5fbf 0ce7 7bbf
000000e0: 82f9 56bf 02bf 86bf f081 89bf 4735 9bbf
000000f0: 54f4 89bf 9e4c 47bf a6ee 23c0 add2 34c0
00000100: 6c9c bbbf 707a bdbf d546 6fc0 c2ec 86bf
00000110: 20f5 9dbf 2ba1 99bf 385f 8cbf 015d bbbf
00000120: 69d3 90bf 1414 adbf ba60 47bf 2f6b a3bf
00000130: 982f bfbf 0fd9 5dbf 0355 92bf 2721 b5bf
00000140: 1aac 94bf 7548 00bf 7f72 abbf 7605 5dbf
00000150: 8f2f 90bf a7f7 debf da71 83bf 92cb d5be
00000160: 54d3 a6bf 1a4d 47bf 636e 6ebf e56e c5bf
00000170: 4733 7ebf 542c 63bf c6d5 23c0 9c08 7dbf
00000180: 1597 89bf 2c05 94bf b235 85c0 f4b2 04bf
00000190: efc9 1dc0 21a0 75bf 9d75 0bc0 c2f6 39bf
000001a0: 6386 85c0 229f f1bf 7646 e5bf 15c3 61bf
000001b0: 5f4d 09c0 b1ae 65bf 45e7 a4bf c37d 4fbe
000001c0: 4c7e a1be 07bf 0dc0 c7c9 62bf 5a69 9abf
000001d0: 79a3 90bf 9c57 3dbf b165 34bf fc8e bebf
000001e0: 2a09 f5bf 64b0 c0bf 35fc 80bf 43ec f9bf
000001f0: 5f8d dabf 6881 adbf 5b11 c3bf 1cc6 50c0

fc2.weight f4 [128, 128]
-0.09144327 -0.019258061 -0.04064429 -0.044969473 0.07235869 -0.068413466 -0.021524962 -0.076309904
0.005264973 0.009353541 -0.06440498 -0.076733515 0.011888675 -0.1285766 0.048190527 -0.0043992586
-0.024720665 -0.12856886 -0.031621277 -0.025798775 -0.043673877 -0.027943961 -0.013680178 0.04866054
-0.10738019 -0.050531898 -0.024892066 -0.095524766 -0.108958125 -0.025859997 0.04570272 -0.0009126514
-0.04854675 -0.30584347 0.06615148 -0.07056238 -0.009940334 -0.031866916 -0.14325418 0.044236995
-0.058636907 -0.026091903 -0.09847552 0.019764155 -0.07768304 -0.01746776 -0.12833485 -0.053115997
0.06862734 -0.10396086 -0.0788444 0.034042336 -0.02450156 -0.03803677 -0.06493573 0.008801189
-0.0053623696 -0.06535115 0.037918292 0.027074844 -0.03572516 -0.11474022 0.06532361 -0.016049616
-0.031998675 -0.050612092 -0.07881584 0.01756356 -0.026883861 0.07307509 0.026437128 -0.14488772
0.09418412 0.03591551 -0.038414907 -0.008716147 0.07025721 0.027157798 -0.10017785 0.09668391
0.018289754 0.058451317 -0.044290427 0.010105855 -0.011578932 -0.08995469 0.045852035 -0.06076198
0.024916539 0.025334872 -0.07547547 0.08822317 0.06941793 -0.056998037 -0.058261734 -0.08969457
-0.0977274 -0.13044128 0.007861324 -0.14820984 0.050799347 0.1322761 -0.042087547 -0.08478018
-0.04657108 -0.123459384 -0.010699504 -0.03184949 0.029796623 -0.023373958 0.08308539 0.016133996
0.011954941 -0.08199909 -0.0849307 0.018437624 0.04834351 -0.13531466 -0.13330773 0.013194464
-0.06949182 -0.06978652 0.00035958723 -0.107282884 0.102006055 -0.057030562 -0.020075481 0.031156948
0.0052212253 0.0051254705 -0.010754414 -0.051151827 0.05024568 -0.022226758 -0.07904295 0.013988182
0.0811489 -0.0115171 0.086515374 -0.02831361 -0.021123894 -0.08302086 0.03287924 -0.1653204
0.015644908 -0.058503658 -0.022243865 -0.051623788 0.010192551 -0.38109404 -0.3592312 0.042937793
0.08194209 0.011481263 0.014367312 -0.08676103 -0.055090807 0.061355226 0.044909842 -0.023808405
-0.08708885 -0.1677035 0.045417942 -0.012774654 -0.056592923 -0.030523855 0.029705003 0.01473023
-0.0507924 -0.35862038 -0.037973836 -0.04820233 0.059956424 0.084218256 0.016522408 -0.080795415
0.040289365 0.07366168 -0.0594825 0.029480495 -0.036999315 0.06873181 0.03341399 0.009471431
-0.07731603 -0.055826597 0.05591052 -0.0051891655 0.02130419 -0.08475508 0.069689564 0.057514064
0.0539267 0.05824522 -0.026111975 -0.03286645 0.025189273 -0.0850279 -0.0770108 -0.07479714
0.0049510673 0.057630308 -0.035346024 -0.022673309 -0.028430715 -0.013605021 -0.06557043 -0.027062207
0.04536193 -0.06852965 -0.030761413 -0.054647602 0.021744773 0.062339984 -0.050233815 0.044756405
0.053122304 0.05084809 -0.019835405 -0.067612424 -0.027586345 0.0068425536 -0.083034664 0.0034886599
-0.04817412 -0.07132121 -0.2837325 -0.086010136 0.074150674 0.06879171 -0.06314192 0.06109824
-0.33787706 0.060002916 -0.08321969 -0.013083391 -0.072838195 0.08615992 0.048730575 -0.02026055
0.008129358 0.051753826 -0.076051876 -0.04445071 -0.036038324 0.0016691759 -0.022366792 -0.05659585
-0.01475326 -0.07407139 0.0527936 0.0627091 -0.0063401684 0.026476532 -0.00037385523 0.06398939
00000000: 9c46 bbbd 15c3 9dbc a17a 26bd e931 38bd
00000010: cb30 943d 5c1c 8cbd 1e55 b0bc 5e48 9cbd
00000020: cb85 ac3b 983f 193c c2e6 83bd 7626 9dbd
00000030: b8c8 423c 96a9 03be 6e63 453d a827 90bb
00000040: fe82 cabc 8ea7 03be 5085 01bd f457 d3bc
00000050: 61e3 32bd bcea e4bc d322 60bc 4650 473d
00000060: 25ea dbbd 89fa 4ebd 72ea cbbc 7da2 c3bd
00000070: 7025 dfbd 58d8 d3bc c632 3b3d 003f 6fba
00000080: f5d8 46bd 8497 9cbe 6d7a 873d 0283 90bd
00000090: c8dc 22bc e286 02bd 39b1 12be da31 353d
000000a0: 412d 70bd b0be d5bc 89ad c9bd 70e8 a13c
000000b0: 4918 9fbd 8c18 8fbc 366a 03be 2990 59bd
000000c0: 7e8c 8c3d 6ee9 d4bd 2c79 a1bd fa6f 0b3d
000000d0: 7fb7 c8bc 72cc 1bbd 06fd 84bd dd32 103c
000000e0: d1b6 afbb d3d6 85bd 3650 1b3d 10cc dd3c
000000f0: 8c54 12bd ecfc eabd 63c8 853d 7c7a 83bc
00000100: 0b11 03bd a04e 4fbd 336a a1bd 74e1 8f3c
00000110: 8b3b dcbc 65a8 953d ad92 d83c 725d 14be
00000120: 9be3 c03d 241c 133d f358 1dbd 2cce 0ebc
00000130: 03e3 8f3d 087a de3c 0b2a cdbd 3702 c63d
00000140: 65d4 953c a66a 6f3d e169 35bd 0793 253c
00000150: 90b5 3dbc 2a3a b8bd 58cf 3b3d 8ee1 78bd
00000160: c51d cc3c 148b cf3c e292 9abd 59ae b43d
00000170: fd2a 8e3d c676 69bd dba3 6ebd c9b1 b7bd
00000180: 4e25 c8bd 6692 05be c8cc 003c 52c4 17be
00000190: fa12 503d 6373 073e fe63 2cbd 3ba1 adbd
000001a0: 51c1 3ebd 46d8 fcbd f94c 2fbc 9c74 02bd
000001b0: 0c18 f43c be7a bfbc ac28 aa3d 712b 843c
000001c0: a8de 433c 24ef a7bd 26f0 adbd 800a 973c
000001d0: d803 463d ed8f 0abe d281 08be 982d 583c
000001e0: ba51 8ebd 3cec 8ebd fb86 bc39 21b7 dbbd
000001f0: 8de8 d03d e198 69bd 5675 a4bc db3c ff3c
00000200: d016 ab3b 90f3 a73b 4833 30bc 9484 51bd
00000210: 6ace 4d3d e414 b6bc 45e1 a1bd b02e 653c
00000220: 6531 a63d 38b2 3cbc f92e b13d f2f1 e7bc
00000230: 040c adbc d706 aabd 62ac 063d c049 29be
00000240: c029 803c 88a1 6fbd c438 b6bc 7773 53bd
00000250: a8fe 263c c21e c3be 27ed b7be 8adf 2f3d
00000260: 41d1 a73d e81b 3c3c e064 6b3c c4af b1bd
00000270: e6a6 61bd 9e4f 7b3d 62f3 373d d809 c3bc
00000280: a45b b2bd 77ba 2bbe 2a08 3a3d c84c 51bc
00000290: fbcd 67bd 2a0d fabc e857 f33c 1057 713c
000002a0: b10b 50bd 179d b7be 748a 1bbd ce6f 45bd
000002b0: de94 753d 9f7a ac3d 005a 873c 1178 a5bd
000002c0: 7606 253d efdb 963d eca3 73bd 1481 f13c
000002d0: 988c 17bd 43c3 8c3d 1cdd 083d 102e 1b3c
000002e0: de57 9ebd 6eaa 64bd 6e02 653d e009 aabb
000002f0: 2086 ae3c 1294 adbd 67b9 8e3d de93 6b3d
00000300: 3ee2 5c3d 8a92 6e3d c8e8 d5bc f89e 06bd
00000310: bc59 ce3c 1c23 aebd d7b7 9dbd 3e2f 99bd
00000320: 903c a23b c20d 6c3d fec6 10bd 60bd b9bc
00000330: 88e7 e8bc 98e7 5ebc ca49 86bd 90b1 ddbc
00000340: 6ecd 393d 4659 8cbd 5cff fbbc 2ad6 5fbd
00000350: 1822 b23c 3658 7f3d f9c1 4dbd 7e52 373d
00000360: c696 593d 1646 503d dc7d a2bc 6278 8abd
00000370: c2fc e1bc 8037 e03b 140e aabd 00a2 643b
00000380: 3a52 45bd db10 92bd 6345 91be 1526 b0bd
00000390: 4fdc 973d abe2 8c3d 8d50 81bd 2642 7a3d
000003a0: 39fe acbe 9ec5 753d 166f aabd b85b 56bc
000003b0: 312c 95bd 9d74 b03d b699 473d 74f9 a5bc
000003c0: 0031 053c d2fb 533d 16c1 9bbd f311 36bd
000003d0: ec9c 13bd 40c8 da3a 903a b7bc 0dd1 67bd
000003e0: a8b7 71bc beb2 97bd 1a3e 583d a16d 803d
000003f0: 30c1 cfbb 50e5 d83c 0002 c4b9 df0c 833d

fc2.bias f4 [128]
-0.41635564 -0.52443266 2.3952513 8.032123 -0.078337535 -0.6984554 -1.1243236 -0.06086324
-0.38191292 -0.42083782 7.101902 -0.29717585 -0.34382638 -0.38635892 -0.47280368 -0.39118928
-8.933645 -0.6552667 -0.13293722 -0.47878066 -0.32095572 -0.6447071 -0.300777 -0.14855827
-0.14634623 -0.086957574 -4.3519025 -0.28048867 -0.47800177 -0.23709525 -1.0081393 -0.14438213
-0.122057356 -0.6280566 -0.23291461 -0.328609 -0.36549827 -0.37963536 -0.081501886 -0.35400194
-0.34921688 -6.2065177 -0.3930256 -0.06489704 -0.60775846 -0.6645304 -0.44957775 -1.0004456
-1.2174556 8.362256 -0.018099848 -0.44418773 -0.4481846 -0.078549124 -0.04771687 -0.9017399
-0.116357766 -0.33765236 -0.36600184 4.064657 -0.52904624 -0.7113107 -0.22735451 -0.35942656
-1.7272569 -0.15071943 9.214042 -0.3231111 -0.2824607 -0.57833 -0.01667207 -0.43064466
-0.3613729 -0.35941324 -1.2655833 -0.4103353 -0.35198355 -1.170442 -0.02819646 -0.8278163
-0.3372474 -0.37242588 9.480073 -5.5412674 -0.34660372 4.7760887 8.203636 -1.4518913
-0.085742 -0.917805 7.965236 -0.32799917 8.615558 -1.2472165 -0.55736256 -0.004137211
-2.733536 -0.36771002 -0.24196343 -0.46909073 5.617289 -0.22293939 -0.14341424 -0.35583022
-0.30836797 -0.35293394 -0.5753776 -0.7253962 7.829803 6.4155087 -0.28200403 -0.7375954
-0.38911337 -0.16288982 -5.979966 -0.30630916 -0.35221872 -0.110985294 -0.123376206 -1.0012742
-0.31702012 -0.4355569 -0.40947524 -0.03984105 -4.332779 8.368695 -0.32822898 -0.22480762
00000000: 912c d5be 3841 06bf cc4b 1940 9383 0041
00000010: 6e6f a0bd f9cd 32bf d6e9 8fbf bc4b 79bd
00000020: 178a c3be 0e78 d7be c842 e340 6f27 98be
00000030: 030a b0be d6d0 c5be 5313 f2be f649 c8be
00000040: 36f0 0ec1 8fbf 27bf b220 08be bd22 f5be
00000050: 4f54 a4be 860b 25bf 71ff 99be a91f 18be
00000060: c9db 15be d016 b2bd c942 8bc0 369c 8fbe
00000070: a6bc f4be 19c9 72be b50a 81bf e9d8 13be
00000080: 35f9 f9bd 51c8 20bf 2b81 6ebe 703f a8be
00000090: 9722 bbbe 915f c2be 76ea a6bd be3f b5be
000000a0: 8ecc b2be cb9b c6c0 a73a c9be bde8 84bd
000000b0: 0f96 1bbf aa1e 2abf 0e2f e6be 9a0e 80bf
000000c0: 96d5 9bbf cdcb 0541 2246 94bc 936c e3be
000000d0: 7478 e5be 5dde a0bd c472 43bd 6dd8 66bf
000000e0: fb4c eebd c5e0 acbe 9864 bbbe ac11 8240
000000f0: 936f 07bf 7518 36bf 9fcf 68be c206 b8be
00000100: c116 ddbf 3256 1abe b76c 1341 d16e a5be
00000110: b09e 90be 6f0d 14bf dd93 88bc 757d dcbe
00000120: de05 b9be 0305 b8be a2fe a1bf 7817 d2be
00000130: 3037 b4be 0bd1 95bf 43fc e6bc c5eb 53bf
00000140: b1ab acbe 9bae bebe 61ae 1741 1052 b1c0
00000150: 0b76 b1be b8d5 9840 1842 0341 93d7 b9bf
00000160: 8099 afbd 45f5 6abf 37e3 fe40 82ef a7be
00000170: 53d9 0941 caa4 9fbf 50af 0ebf 7191 87bb
00000180: 41f2 2ec0 7d44 bcbe 43c5 77be a92c f0be
00000190: d5c0 b340 394a 64be 2fdb 12be 612f b6be
000001a0: 68e2 9dbe c2b3 b4be f24b 13bf 91b3 39bf
000001b0: bf8d fa40 d94b cd40 d562 90be 0dd3 3cbf
000001c0: de39 c7be 97cc 26be e25b bfc0 8ed4 9cbe
000001d0: 0356 b4be 424c e3bd aaac fcbd c129 80bf
000001e0: 7650 a2be 5001 dfbe bda6 d1be 5e30 23bd
000001f0: 20a6 8ac0 2de6 0541 a10d a8be f833 66be

fc3.weight f4 [2, 128]
-0.21489182 0.30905384 0.7383031 -3.8277829 0.028177753 0.25414112 0.029725935 0.013430646
-0.31108576 0.30158287 2.4291816 -0.019058065 -0.2243834 -0.30435467 -0.18401888 -0.22975853
-5.2465806 0.2041369 0.023104355 -0.084766276 -0.30948538 0.3086771 0.074919604 -0.10653897
0.009462571 -0.020266311 1.2682647 0.5036772 0.15020695 -0.13856038 -0.19356152 0.03561705
0.015718738 0.27029178 0.41429967 -0.27372175 0.0017144354 0.014728738 0.03867848 -0.1838079
0.0729094 -4.829138 0.008770071 0.019852558 0.061063357 0.023260232 0.18699619 -0.3083081
0.091558285 2.7387416 -0.021050729 0.005373967 -0.005255964 -0.026290404 0.014667066 -0.28474507
-0.01775501 -0.30905217 -0.07715676 -3.2673662 -0.28174835 -0.12122024 0.28790602 -0.29323813
0.21607561 0.37536418 4.2054343 0.29826078 -0.017216368 0.03516233 0.026296243 0.049649037
-0.041678175 -0.24452016 0.24112871 -0.023769684 -0.032597806 -0.14690721 0.027767133 -0.028007515
-0.34505573 -0.27269584 3.909717 -0.48141527 0.015992953 -3.1925519 3.073721 -0.3071614
-0.019361043 -0.24809203 0.3727635 -0.05289437 -4.2378306 0.20499653 -0.028498668 0.07349673
-4.6359773 -0.015059094 0.24400055 -0.008415499 -2.0842083 -0.08445165 -0.012039283 0.30963215
0.21719107 -0.2457372 0.30085474 -0.16360477 7.5976825 -2.6502938 -0.027325824 0.045917355
-0.007686509 0.1976803 -5.0469713 -0.038425893 -0.31317836 0.009867168 -0.02255222 -0.10854471
-0.2994888 -0.29402962 0.23425522 0.04569381 5.7082276 2.8661728 0.03465933 0.99566334
-0.02725419 -0.0492558 -0.041416418 3.6517732 -0.0022427123 0.11102537 -0.25929442 -0.027604615
0.093001775 0.054020643 2.7363877 0.26409036 0.011359648 -0.013269235 -0.12869863 0.00059373677
0.4920206 0.07122288 -0.021510165 0.040038295 -0.0020891526 -0.2206128 0.24840161 0.015279303
-0.011264333 -0.01813149 -1.0948812 -0.13724299 0.1232218 -0.17005557 -0.23758459 0.0039618486
0.08955285 0.06644708 0.19557665 0.020401984 -0.24026442 -0.10140937 0.0034349707 0.027431974
-0.29719657 -2.2348883 0.30740854 0.0027890238 0.11336635 -0.30905476 -0.08783224 -0.6080169
0.16554238 3.726454 0.06793125 0.30892205 0.28042105 0.020330047 -0.0016720175 -0.29693398
-0.0007026398 0.0582753 0.31635344 -2.329742 -0.034838352 0.3334867 0.28088394 0.007986854
-2.673456 0.047098752 -5.990673 -0.014942617 0.31423607 0.28672537 0.028302917 0.2928333
-0.26768023 0.058386065 0.28798765 -0.24915539 0.2978856 -0.20766835 0.04221165 0.19841754
-0.26104835 -0.0054371078 -5.0979323 -1.8510685 -0.14683114 -4.7673407 3.5707438 0.43919486
0.00089215924 0.26710814 8.035901 0.20415166 3.7072608 0.0019589323 -0.124641106 0.03817569
-3.2672815 0.28411824 0.011881302 -0.33099577 -2.6045218 -0.08423768 0.09335211 -0.0068169083
-0.015570024 -0.020521624 0.19399482 0.05308101 0.08925359 3.1157684 -0.19028097 0.23126955
0.2436498 0.019071028 0.36665753 0.10488375 0.005085688 -0.010303103 -0.04728856 0.19753626
0.09021662 0.025152164 -0.04091527 0.017406577 -3.5173554 3.7051532 0.28863737 0.8758108
00000000: 9a0c 5cbe 4e3c 9e3e 6f01 3d3f 65fa 74c0
00000010: 08d5 e63c c91e 823e ce83 f33c 360c 5c3c
00000020: a246 9fbe 1269 9a3e b677 1b40 a91f 9cbc
00000030: c3c4 65be 60d4 9bbe 726f 3cbe d245 6bbe
00000040: fde3 a7c0 4309 513e 5845 bd3c f199 adbd
00000050: de74 9ebe ed0a 9e3e 736f 993d 1a31 dabd
00000060: e608 1b3c 8905 a6bc 7f56 a23f fdf0 003f
00000070: dacf 193e c6e2 0dbe fe34 46be 2fe3 113d
00000080: 95c4 803c af63 8a3e 161f d43e 4225 8cbe
00000090: e8b6 e03a ce50 713c 536d 1e3d 2338 3cbe
000000a0: 8651 953d 4c88 9ac0 58b0 0f3c d5a1 a23c
000000b0: 921d 7a3d 3e8c be3c ee7b 3f3e 8fda 9dbe
000000c0: e982 bb3d 8b47 2f40 9472 acbc 1a18 b03b
000000d0: 393a acbb f95e d7bc 224e 703c 1bca 91be
000000e0: f472 91bc 163c 9ebe 5d04 9ebd 871c 51c0
000000f0: 5241 90be 5142 f8bd 6b68 933e 4f23 96be
00000100: ed42 5d3e bc2f c03e eb92 8640 a3b5 983e
00000110: 5709 8dbc 6006 103d 386b d73c ca5c 4b3d
00000120: bcb6 2abd 7e63 7abe 72ea 763e a4b8 c2bc
00000130: 4785 05bd d86e 16be e677 e33c 0470 e5bc
00000140: 25ab b0be ca9e 8bbe ce38 7a40 107c f6be
00000150: a703 833c c552 4cc0 d8b7 4440 4244 9dbe
00000160: 0d9b 9ebc d60b 7ebe dcda be3e c4a7 58bd
00000170: 4f9c 87c0 9cea 513e 0a76 e9bc 7485 963d
00000180: ed59 94c0 6bba 76bc 48db 793e 29e1 09bc
00000190: ab63 05c0 fdf4 acbd 6a40 45bc 1b88 9e3e
000001a0: 5667 5e3e 88a2 7bbe a209 9a3e 0288 27be
000001b0: 3720 f340 6a9e 29c0 68da dfbc d613 3c3d
000001c0: 1cdf fbbb b46c 4a3e ca80 a1c0 7864 1dbd
000001d0: ea58 a0be e7a9 213c 6fbf b8bc b04c debd
000001e0: 9956 99be 0d8b 96be 9ae0 6f3e 6f29 3b3d
000001f0: cda9 b640 606f 3740 f1f6 0d3d cbe3 7e3f
00000200: 2e44 dfbc 73c0 49bd 43a4 29bd a7b6 6940
00000210: 78fa 12bb 4561 e33d 3dc2 84be 1323 e2bc
00000220: b777 be3d c044 5d3d fa20 2f40 da36 873e
00000230: d11d 3a3c 3567 59bc 93c9 03be 00a5 1b3a
00000240: 20ea fb3e 4ddd 913d 1636 b0bc 32ff 233d
00000250: 2aea 08bb 52e8 61be fe5c 7e3e 0b56 7a3c
00000260: 098e 38bc 7e88 94bc 1125 8cbf 6d89 0cbe
00000270: b65b fc3d 0c23 2ebe 6049 73be 65d2 813b
00000280: 7c67 b73d 6815 883d 3f45 483e 1022 a73c
00000290: e007 76be b7af cfbd 3f1d 613b 05b9 e03c
000002a0: 262a 98be 6908 0fc0 a764 9d3e 0ec8 363b
000002b0: 9e2c e83d 6d3c 9ebe 64e1 b3bd ffa6 1bbf
000002c0: f183 293e 397e 6e40 8a1f 8b3d 082b 9e3e
000002d0: 5993 8f3e 338b a63c 9927 dbba bb07 98be
000002e0: 5c31 38ba 15b2 6e3d 14f9 a13e 7e1a 15c0
000002f0: a9b2 0ebd c5be aa3e 05d0 8f3e 4bdb 023c
00000300: e719 2bc0 9fea 403d 98b3 bfc0 e1d1 74bc
00000310: 8de3 a03e abcd 923e 85db e73c 3fee 953e
00000320: 620d 89be 3a26 6f3d 1e73 933e 9722 7fbe
00000330: 7684 983e 03a7 54be 20e6 2c3d f82d 4b3e
00000340: 21a8 85be c429 b2bb 4322 a3c0 d0ef ecbf
00000350: e75a 16be 0e8e 98c0 1187 6440 26de e03e
00000360: cbdf 693a 66c2 883e 0d93 0041 220d 513e
00000370: c343 6d40 6e61 003b d643 ffbd 1d5e 1c3d
00000380: 241b 51c0 f277 913e cba9 423c 4778 a9be
00000390: 7cb0 26c0 ce84 acbd 642f bf3d 5f60 dfbb
000003a0: 6a19 7fbc f71c a8bc 94a6 463e 796b 593d
000003b0: 96ca b63d c068 4740 04d9 42be edd1 6c3e
000003c0: 557f 793e d83a 9c3c 89ba bb3e 4bcd d63d
000003d0: d8a5 a63b 59ce 28bc a6b1 41bd f246 4a3e
000003e0: 7ec3 b83d e90b ce3c c596 27bd 3d98 8e3c
000003f0: 5a1c 61c0 3b21 6d40 47c8 933e 2335 603f

fc3.bias f4 [2]
9.7854 8.733419
00000000: 0091 1c41 16bc 0b41
