weights/prioritized_weights.pth (torch, 72320 bytes, 6 tensors)

fc1.weight f4 [128, 4]
000000 16 e4 14 be 00 3b dd bd ce 45 07 3d 6e 6a 87 3e
       -0.14540133 -0.10802269 0.033025555 0.26448387
000010 72 fc 49 3e 79 2b a2 be 0f f1 f5 bf 37 7f 6a be
       0.19725206 -0.31673792 -1.921419 -0.22900091
000020 68 db 12 3e 9d 86 98 be 5d cb 59 be 80 5b 85 bc
       0.1434151 -0.29790202 -0.21268983 -0.016278982
000030 58 8d 88 be 6f 02 ad bd 55 7b 26 bd 40 20 81 3e
       -0.26670337 -0.0844773 -0.040644962 0.25219917
000040 fc 73 aa bd 0e ad a4 3d a7 c9 60 3d 85 16 74 be
       -0.083229035 0.0804082 0.05487981 -0.23836716
000050 1a d8 58 3d 3c d1 cd be b6 a5 48 3e 5d 74 91 be
       0.052940466 -0.40198696 0.19594464 -0.2840909
000060 2e 52 91 3d ab eb b0 be 57 f1 fa 3e 47 a9 7b be
       0.07095753 -0.345548 0.49012253 -0.24576293
000070 95 df 9b 3e 67 72 b8 be c7 29 a8 3f 19 76 d3 be
       0.30444017 -0.36024782 1.313775 -0.4130104
000080 86 d3 dd be f5 0c 28 3e f0 48 02 bf 8a 40 b4 3e
       -0.43325442 0.16411193 -0.50892544 0.3520549
000090 ea 2a d0 3d 14 88 90 bc 2b c4 b2 3e 49 53 db bd
       0.10164435 -0.017643012 0.3491529 -0.10709245
0000a0 0e 03 0c be d3 6e 19 3d f6 a8 82 be ae 07 10 bd
       -0.1367304 0.037459206 -0.25519532 -0.035163574
0000b0 ed f6 d5 3d c9 af 88 bc 9b 0d 25 bd 16 e5 43 be
       0.10447488 -0.016685383 -0.04029618 -0.19130358
0000c0 ba 2a 33 3e e6 76 97 be 44 ac 80 3f 88 da 09 bf
       0.17496768 -0.295829 1.0052571 -0.5384908
0000d0 2e e3 84 3e 32 8b 99 be f3 6e c1 3f 79 81 3d bf
       0.25954574 -0.2998901 1.5111984 -0.74025685
0000e0 6b 75 30 be 1f ee 3f 3d 61 1b 0e 3d b9 91 90 3d
       -0.17232291 0.04685795 0.03469408 0.070590444
0000f0 d7 e5 88 bc bb c9 a5 3d fe 7f 4e 3d a7 3e 94 bc
       -0.016711159 0.08095118 0.05041503 -0.018096281
000100 b1 d8 b5 bd a9 c1 1a 3d 47 f7 6d bf 9d e5 27 3e
       -0.08879221 0.037782345 -0.9295544 0.16396184
000110 09 04 c6 bd 4e 2e da bb e7 4c ef 40 ad 16 04 3f
       -0.096687384 -0.006658352 7.4781375 0.515971
000120 b2 36 f1 bf cf d6 da be 51 f8 29 c0 f8 0a 04 3e
       -1.8844817 -0.4274201 -2.655781 0.12894809
000130 4c 5a 4f bc 79 30 11 3d 75 63 79 bd 73 12 a8 3d
       -0.012655806 0.035446618 -0.060885865 0.08206644
000140 16 36 7a 3e a1 49 39 be e6 0d cd bf 21 f7 b0 bd
       0.24434695 -0.18094493 -1.6019866 -0.08640886
000150 ce 6e 5c bc 1f f6 cb bb 14 c5 00 bf a8 b2 39 bb
       -0.013454152 -0.0062244083 -0.5030072 -0.0028335247
000160 8d 6b b9 3d f1 85 bb be 17 88 31 3f 89 75 27 bf
       0.09053717 -0.36625627 0.6934828 -0.6541372
000170 37 a5 11 be 0d 86 13 be fc 93 d2 be 04 01 ba bd
       -0.1422318 -0.14406605 -0.41128528 -0.09082225
000180 03 d0 e5 b8 67 74 24 bd ce 63 67 bf 0c 9e 94 bb
       -0.00010958316 -0.040150072 -0.90386665 -0.004535442
000190 c2 49 ea bd 08 6b 9f 3d 41 d1 d7 bf 09 66 75 bc
       -0.114398494 0.077840865 -1.6860734 -0.01497794
0001a0 94 6f 4e bd 0b 3a 52 3b 64 bb f7 bd d0 30 da bd
       -0.050399378 0.0032078053 -0.12096289 -0.106538415
0001b0 76 a6 eb 3f 96 5b 19 3f 67 1d 00 40 00 4c 0e 3f
       1.8410175 0.59905374 2.0017946 0.55584717
0001c0 ea 30 d1 3a 07 78 c1 bd bb 55 81 bb 09 9e 15 be
       0.0015960012 -0.094467215 -0.0039469874 -0.14611067
0001d0 f1 42 af bc 9e 70 4f be 35 ba 10 3f 94 69 98 3d
       -0.021394225 -0.20257804 0.5653413 0.074420124
0001e0 89 17 37 be df 6b 56 bf ac 6b a1 c0 90 b8 d4 bf
       -0.17880072 -0.8375835 -5.0443935 -1.6618824
0001f0 16 88 08 bc 2e 13 7f bd 8f d4 51 3e 11 18 42 3d
       -0.008333227 -0.06227415 0.20491241 0.047386233
000200 61 e1 4c be f8 28 07 3a a2 98 20 bf 2a 72 0c 3e
       -0.2000785 0.0005155946 -0.627329 0.13715425
000210 10 22 20 3e 7f 61 8a be ea db bf 3e f7 38 1e be
       0.15637994 -0.2702751 0.3747247 -0.15451418
000220 a0 8c 1a be b5 ec 57 3e 31 d3 01 41 6f d6 a0 3f
       -0.15092707 0.2108639 8.11406 1.256544
000230 7f 0d fc bd 9b 0d 13 be 72 c7 3b 3e 94 4f c5 bd
       -0.12307262 -0.14360659 0.18337801 -0.09634319
000240 f5 b0 1c be a2 93 37 3e f6 6f aa be 47 09 de 3e
       -0.15301879 0.17927411 -0.33288544 0.43366453
000250 13 2f 29 bf f5 3f 69 3e 87 f1 e9 c0 68 a6 09 bf
       -0.66087455 0.22778304 -7.3107333 -0.5376954
000260 68 7c 49 bc a6 09 97 3d 88 48 bc be 59 24 24 3e
       -0.012297727 0.07374887 -0.36774087 0.1602949
000270 c9 54 9b bd de 22 36 be 2a b1 97 bf 2c 77 9b be
       -0.07584531 -0.17786738 -1.1850941 -0.30364358
000280 39 ce 3a be dd 12 95 3d 08 08 5d be fa 24 a1 3d
       -0.1824273 0.072789885 -0.21585095 0.07868381
000290 79 6f 10 3e ba a4 c3 3d 94 c6 24 bf ea d6 13 3e
       0.14105023 0.095529035 -0.64365506 0.14437452
0002a0 d2 e2 89 3e 3f d6 b9 be a5 54 a8 be dd 7a ea be
       0.26930863 -0.3629627 -0.3287708 -0.45796862
0002b0 86 40 7c be 85 b2 a9 3d 28 47 7d 3d 53 fb 04 bc
       -0.24633989 0.08286003 0.061835438 -0.008116561
0002c0 25 0a 28 be 0e 1e 62 3d dd a0 9f bc 14 62 ba bc
       -0.1641012 0.055204444 -0.019485885 -0.022751845
0002d0 ab e5 c8 bb 26 75 83 3c 0c d5 12 bf 0d f6 0f 3d
       -0.006130894 0.016047072 -0.57356334 0.03514676
0002e0 56 ba 08 bc f2 df 64 3e 47 db 2b bd d0 9d 49 3e
       -0.008345207 0.22351053 -0.041957166 0.19689107
0002f0 18 37 88 be fe 59 09 3e bb 9d 93 be 77 f1 64 be
       -0.26604533 0.13413236 -0.28831276 -0.22357737
000300 f1 71 a9 bd 8c 5e 81 3d 46 fc c1 40 0c 3f 1e bd
       -0.08273686 0.063168615 6.062045 -0.038634345
000310 2d c1 86 be 9e e1 35 3e 8b 53 63 3f b2 1a a8 3e
       -0.26319256 0.17761847 0.8879935 0.32832867
000320 cf 67 4a 3b 67 40 24 3e a2 56 fe 3e c1 96 67 3e
       0.0030884629 0.16040193 0.4967547 0.22616102
000330 aa 1c 7d be 4e 63 af bd 20 6a 81 3e 5e d9 84 be
       -0.24717966 -0.08563863 0.2527628 -0.25947088
000340 1c 9a 90 bc e3 25 2c 3d d8 3d 17 bf 60 a5 27 3e
       -0.01765161 0.04202832 -0.5907874 0.1637168
000350 da 61 16 3d 55 90 e1 3c 1f d8 cf 3d bd 31 84 bc
       0.036714412 0.027534643 0.10148644 -0.016136998
000360 fa 4e 04 be 31 c4 cc bb d5 35 e8 3d a5 37 8f bb
       -0.12920752 -0.006248974 0.11338393 -0.004370647
000370 0b d4 4e be aa a5 5c 3e 57 a4 17 bf b7 b9 84 3e
       -0.20198075 0.21547571 -0.5923514 0.2592294
000380 fc 23 4e 3e 65 0b be be 63 05 62 3f 0e 1b 6d be
       0.20130914 -0.37118068 0.8828947 -0.23154852
000390 45 c8 62 3c 17 3a 67 bd 05 21 01 41 83 bd a5 3e
       0.013841693 -0.056451883 8.070561 0.32371148
0003a0 99 38 ff 3d 93 40 c0 3c fe af 78 bf 59 61 68 3d
       0.12461967 0.023468291 -0.9714354 0.056733463
0003b0 38 91 0c 3e 75 df 6f bd 67 ec 80 be 72 04 76 bd
       0.13727272 -0.058562715 -0.2518036 -0.060062833
0003c0 04 8e 91 be 7b b0 f5 3e ff a6 9b 3e e5 d4 6f 3f
       -0.28428662 0.47986206 0.30400845 0.93684226
0003d0 40 ca 8a be 60 b5 22 bf f8 56 df 40 8f 36 2e 3f
       -0.2710743 -0.63558006 6.9793663 0.68052
0003e0 98 a4 a1 3d f7 7f 8a be 74 87 cf 3e 8e 6e 7d bc
       0.07892722 -0.27050754 0.4053303 -0.015468253
0003f0 f2 93 12 be 93 a3 61 3d d1 64 85 3f 6d e7 94 be
       -0.14314249 0.055087637 1.0421392 -0.29082814

fc1.bias f4 [128]
000000 09 31 c9 bf ed 1c a3 bf f7 c0 85 bf f5 3f b4 bf
       -1.5718089 -1.2743202 -1.0449513 -1.4082018
000010 8a 69 a8 bf e4 54 b6 bf d9 40 85 bf 66 4d 74 bf
       -1.3157208 -1.4244657 -1.0410415 -0.954306
000020 7c 91 b6 bf b1 54 f7 be 30 6d ce be e5 05 70 bf
       -1.4263148 -0.48306802 -0.40317678 -0.93758994
000030 b8 5e 98 bf 0f 66 c4 bf 48 c2 1e bf 5f 15 85 bf
       -1.1903906 -1.5343646 -0.620152 -1.0397147
000040 78 4e 72 bf 1a 72 c9 bf b1 2f 49 c0 86 c0 bd be
       -0.94650984 -1.5737946 -3.1435359 -0.37060946
000050 a8 de 5b bf c8 1e 80 be 2c cb ae bf 12 b2 66 bf
       -0.8588662 -0.25023484 -1.3655753 -0.90115464
000060 5f e4 26 bf 89 84 2b bf dd 34 fe be 44 26 77 c0
       -0.65192217 -0.6699911 -0.49649706 -3.8617105
000070 2c 54 be be 5d 83 96 bf 4e 33 28 c0 4d b8 0a bf
       -0.37173593 -1.1758839 -2.6281314 -0.5418747
000080 ac b2 87 bf b9 bb a6 bf 6f 09 d4 bf a6 eb 5d bf
       -1.0601401 -1.3026038 -1.6565379 -0.86687696
000090 a7 ba 48 bf fc c3 d7 bf 55 86 07 bf c1 80 79 bf
       -0.7840981 -1.6856685 -0.5293935 -0.9746209
0000a0 f4 67 42 bf 92 82 7f bf f3 11 a2 bf 73 17 29 bf
       -0.7593987 -0.9980861 -1.2661728 -0.66051406
0000b0 f7 16 11 bf dc 7d 06 be d5 32 6b bf 49 42 8e bf
       -0.56675667 -0.13133949 -0.9187444 -1.1113979
0000c0 bb 24 b6 bf 66 d4 bf bf f8 00 81 bf 40 05 b5 bf
       -1.4229959 -1.4986694 -1.0078421 -1.4142227
0000d0 c1 27 ed be c7 28 60 be 1b 35 28 bf bf 8e d5 bf
       -0.46319392 -0.21890555 -0.6570603 -1.6684188
0000e0 d1 69 81 bf 58 37 a8 bf dd 81 02 bf c1 19 c0 be
       -1.0110418 -1.314189 -0.50979406 -0.3751965
0000f0 6a 2d cd bf b5 09 15 c0 fe 88 90 bf 50 51 49 bf
       -1.6029484 -2.3287175 -1.1291807 -0.786397
000100 21 f6 88 bf 30 07 96 bf a7 37 8a bf bd 4e 43 bf
       -1.0700113 -1.1720943 -1.0798234 -0.7629202
000110 52 fd 85 bf 80 2a c2 be 09 47 1e bf 3f fa a0 bf
       -1.0467932 -0.3792305 -0.6182714 -1.2576369
000120 88 86 de bf dc d0 0a bf 74 97 30 be b4 bc 22 c0
       -1.7384806 -0.54224944 -0.17245275 -2.5427675
000130 0f ba 41 bf c6 f9 90 bf 58 19 4d bf ab 01 12 bf
       -0.7567453 -1.1326225 -0.80116796 -0.57033795
000140 45 c4 65 bf 29 47 35 bf fb 9e 8b bf 53 35 23 bf
       -0.8975261 -0.70811707 -1.0907892 -0.6375324
000150 4c 02 19 bf c7 03 25 bf 79 c2 1c bf 8b fc d9 bf
       -0.5976913 -0.6445889 -0.6123424 -1.7030195
000160 b1 4c 7a bf bd 42 3a bf e7 8d 9d bf 8d c8 1e bf
       -0.9777327 -0.72758085 -1.230893 -0.62024766
000170 05 b3 c5 bf 92 90 eb be 40 9f 1f bf a3 7b ad bf
       -1.5445257 -0.46008736 -0.6235237 -1.3553356
000180 58 65 27 bf 59 ba 9c be f7 9f a5 bf 3e 38 97 be
       -0.65389013 -0.30610922 -1.2939442 -0.29535097
000190 df c5 3e bf f2 3b 8e bf 3e 47 bc bf fa 45 01 bf
       -0.7452068 -1.1112044 -1.4709241 -0.504974
0001a0 97 b1 5e bf 53 0d a8 3e 4e fe 6e be fd 6b 96 bf
       -0.8698973 0.32822666 -0.23339197 -1.1751705
0001b0 e2 b8 9d be 3a 64 11 bf 19 98 0e c0 5b de 32 bf
       -0.30805117 -0.5679356 -2.2280333 -0.6987054
0001c0 74 02 66 bf 9c 0c 0c bf e2 f3 3b bf c3 95 42 bf
       -0.89847493 -0.5470674 -0.7341901 -0.7600977
0001d0 67 57 1d bf 72 60 e1 bf 79 13 84 bf 68 fd 70 bf
       -0.6146149 -1.7607558 -1.0318443 -0.9413667
0001e0 7b 2e 68 bf ad d7 d3 be af ac ce bf a0 10 3a c0
       -0.90695924 -0.41375485 -1.6146449 -2.9072647
0001f0 dd a9 51 bf 47 65 a8 bf 21 11 44 bf e0 3f 4c bf
       -0.81899816 -1.3155907 -0.76588637 -0.79784966

fc2.weight f4 [128, 128]
000000 26 50 9e be 48 c7 72 bd f4 06 70 be 7b 6f f3 3d
       -0.30920523 -0.05927208 -0.23440152 0.118864976
000010 e6 4b 4c be 1b 5b 2d 3d 42 49 d0 bd dd 64 27 3d
       -0.19950828 0.042323213 -0.10170223 0.040867675
000020 98 1a 23 3d b2 5e a6 bd 5b 86 2b bc e7 23 ab be
       0.039820284 -0.081235304 -0.010469045 -0.3342583
000030 b0 1f 5a 3d 05 d9 a5 3b 5f 91 9b bd 5f d5 af bd
       0.053252876 0.005061271 -0.07596087 -0.08585619
000040 30 9f aa bd f0 cd 62 bf a1 fb 06 bf 05 34 0f 3d
       -0.08331144 -0.88595486 -0.52727705 0.03496172
000050 4d 37 7e be 45 7c f4 bc d8 c2 12 bd 99 49 54 bd
       -0.24825783 -0.029844413 -0.03583035 -0.051828
000060 92 9f 2d 3d b5 2f 9e bd 8a 7f be 3c a3 01 9c be
       0.042388506 -0.07723943 0.023254175 -0.3047
000070 25 0e 1c 3b 7e f1 ec bd 2c c6 fc be 25 27 09 be
       0.0023812142 -0.115694985 -0.49369943 -0.13393839
000080 be fa 09 be 54 92 7a 3d 58 b3 95 be 3e 1c 8e 3d
       -0.13474557 0.061174706 -0.2923839 0.069389805
000090 34 e2 20 be 1c 9e 93 be b7 e6 0e 3d c0 b0 da bd
       -0.1571129 -0.28831565 0.034887996 -0.10678244
0000a0 8e de d6 bc 91 14 35 be 0a ba d1 bd af a4 96 3d
       -0.02622917 -0.17683627 -0.10240562 0.0735563
0000b0 18 04 c8 3c b6 54 9a 3c 84 b8 8c bd f2 35 4e 3d
       0.024416015 0.018839221 -0.06871131 0.050344415
0000c0 39 a1 af be d2 04 99 bd d2 ba 7c be 24 d7 dd 3d
       -0.3430269 -0.074716225 -0.24680641 0.108320504
0000d0 7e 1c b8 bc e7 55 64 bc 95 6a f6 bd f5 73 80 bd
       -0.022474524 -0.013936496 -0.12032048 -0.06272117
0000e0 90 56 4b bd c7 d9 52 bf f0 55 d6 bc 8e 3a 35 ba
       -0.0496431 -0.8236355 -0.026164025 -0.00069133274
0000f0 3a 40 05 bd 8a 4d 48 bf fc 76 fc bd d8 8c 56 bd
       -0.032531954 -0.78243315 -0.12327382 -0.052380413
000100 52 72 05 be 8a 26 d2 3d 63 87 1a 3d 25 08 56 3c
       -0.13031891 0.10261257 0.03772677 0.013063465
000110 75 6a 93 bd 71 83 d5 3c 01 83 74 bd 0c da 39 be
       -0.071980394 0.026063653 -0.059695248 -0.18149585
000120 07 19 58 3c 51 b5 00 bd cd b8 3b bd 6c ee 15 3c
       0.013189561 -0.031422917 -0.045830537 0.0091510825
000130 ea c3 2d be 23 60 28 3c de b5 cc be 64 9b b9 bd
       -0.16969267 0.010276827 -0.39982504 -0.090628415
000140 1f d7 0d bc 6e c5 38 ba 29 03 b9 bd f4 0c 00 3d
       -0.008657246 -0.0007048462 -0.09033806 0.031262353
000150 12 ac 61 bc 26 b2 22 3d c6 3c 82 bd 58 aa 6f bd
       -0.013773935 0.039720677 -0.06359248 -0.05851206
000160 87 84 d0 bd ed ea f6 3b 48 4c bd 3d eb 1f 9d 3b
       -0.101815276 0.0075353296 0.09243065 0.0047950647
000170 a4 47 3d 3d 90 4b 1e be 05 c8 54 bd b6 bf 04 3d
       0.0462109 -0.15458512 -0.051948566 0.032409392
000180 ed 3f b6 bd f9 64 03 3d 24 90 b7 bd 4c 65 5c bd
       -0.088989116 0.032078717 -0.089630395 -0.05380754
000190 5f db 01 3d 5f 08 35 bd 05 ea fc 3b 97 d7 2f 3c
       0.03170335 -0.044197436 0.007718327 0.010732553
0001a0 ef 6c a0 3d cb 28 ee be 70 3e 41 bf 0f 70 bd bd
       0.078332774 -0.46515498 -0.754859 -0.09249889
0001b0 e4 64 e4 3a d5 60 22 be 52 45 96 bd 7d 72 a4 bc
       0.0017425087 -0.15857251 -0.073374406 -0.020074124
0001c0 18 e6 57 3d 6e 2e 46 ba 79 bf 40 be 4f 1d ea ba
       0.05270967 -0.0007560019 -0.18823041 -0.0017861518
0001d0 ac ab 12 bf 82 ad 84 3d d0 a2 a5 bd cb f4 ab bc
       -0.572932 0.064784065 -0.08087695 -0.02099075
0001e0 53 2b 02 bd 40 3a 94 bd bd cf 87 bc b1 6f 75 be
       -0.0317796 -0.07237673 -0.01657855 -0.23968388
0001f0 23 e2 03 bd 96 63 ef be d8 2e 83 3d 4a 76 06 bb
       -0.032198083 -0.46755666 0.06405419 -0.0020517283
000200 a3 eb 69 bd 9f 50 50 be 54 dc 9e 3a 3c 97 1f be
       -0.057109486 -0.20343255 0.0012120106 -0.15585035
000210 ae 43 95 bd 47 bd b0 bd c3 53 1f bd 4a b5 28 be
       -0.072882995 -0.08629852 -0.03889824 -0.16475406
000220 20 a1 20 3d b4 9e 92 bc 4c b8 32 bd df 37 2d bd
       0.03921616 -0.017897941 -0.04363279 -0.04228961
000230 22 03 76 bc 80 72 c4 bc 0d 3d 97 3d df b7 d7 bc
       -0.015015395 -0.02398038 0.073846914 -0.026332794
000240 50 b3 55 3c d6 c1 4d be e0 20 a4 bd b3 26 02 3e
       0.01304324 -0.20093474 -0.08014083 0.12710075
000250 91 67 8c 3d dc 3a a2 3d 42 a3 0c be 3e 8e 0c 3d
       0.06855691 0.07921383 -0.13734153 0.03431534
000260 e3 8f b2 bd 30 8b 0e bd ae 3f 3b be 66 84 03 be
       -0.087188505 -0.03480071 -0.1828601 -0.12843475
000270 a5 c0 65 3d e3 0e a0 bd 52 05 05 be 90 8a ee 3d
       0.056091923 -0.078153394 -0.12990311 0.116475224
000280 01 16 27 3c 1f 74 11 3d bc 92 4c 3c 83 1d 28 3d
       0.010198117 0.035511132 0.012486156 0.04104377
000290 ea 24 61 bd 58 c8 a7 bc 99 81 e8 bd ec 46 96 3c
       -0.054966845 -0.020481274 -0.11352844 0.018344365
0002a0 05 71 bc bc 7e 22 e2 bd bc 35 3b 3d 7e a5 2f be
       -0.02300311 -0.11041735 0.045705542 -0.17152974
0002b0 57 fb fe 3d 59 d8 09 be 9b fb 64 bd 3b 95 4f bc
       0.12450283 -0.13461436 -0.055904012 -0.012669857
0002c0 43 9c 65 3c 62 11 e9 bc 78 07 d1 3c 79 82 5d bc
       0.0140143065 -0.028450672 0.025516257 -0.013519877
0002d0 f4 6b 09 3e 7b c6 cc bc 47 c9 df bc 50 d3 4a 3d
       0.13420087 -0.024996987 -0.027317656 0.04951793
0002e0 2a 39 46 bc d2 a6 2d be 53 e4 a5 3d 14 e4 a8 bc
       -0.01209859 -0.16958168 0.0810019 -0.020616569
0002f0 4f 5a 08 bd 36 b9 ea bd 5e d5 c5 bd eb 9f 02 be
       -0.03328925 -0.114611074 -0.09659837 -0.12756316
000300 a1 3e 2e bc 13 c0 57 bc 24 ab bc bd 8a 39 d2 bd
       -0.010635049 -0.013168353 -0.0921233 -0.10264881
000310 2f b1 b0 3b 8b a0 d0 3d d6 b2 90 bd 44 5f 77 3d
       0.0053922157 0.10186871 -0.0706536 0.060393587
000320 84 f2 31 3d 8d dc a5 bc ab a1 ac bd 4b ea d7 be
       0.04344417 -0.020246768 -0.08429273 -0.4217094
000330 6f ee e2 bc 87 38 e3 bc f3 0a 46 be 4d c6 37 bd
       -0.027701585 -0.027736915 -0.19340114 -0.04486685
000340 51 f3 92 3d 7d 06 9b bd c0 b7 e4 bd 16 b0 94 bc
       0.07175315 -0.07569597 -0.1116786 -0.01815037
000350 3d 77 55 3d fb b2 71 bd 19 bd 1b 3d 97 ec e5 bd
       0.052115668 -0.05900858 0.038022134 -0.112267666
000360 b0 b0 1e bc 97 e2 e3 bd 77 02 17 bd f2 d4 7c bd
       -0.00968568 -0.11127203 -0.036867585 -0.061726518
000370 fa 7f 87 bd 00 4f b2 3d a4 9d ea 3b 40 3b c3 3d
       -0.066162065 0.08706474 0.0071599055 0.095327854
000380 eb fd 44 bd b9 29 b1 3b 82 1e 65 ba 97 26 83 3d
       -0.048093718 0.005406585 -0.0008740203 0.06403845
000390 48 cb c9 3d fc 44 08 bd 54 69 25 be 36 bf c7 bd
       0.09853226 -0.033268914 -0.1615346 -0.097532675
0003a0 35 24 8c bd 69 50 fe be 04 c4 de bd 41 d6 ec bb
       -0.068428434 -0.49670723 -0.10877231 -0.0072276895
0003b0 a4 03 3e bb 27 cf 97 bd d3 a0 d3 bb 82 c3 a1 3c
       -0.002899387 -0.07412558 -0.0064583807 0.019746546
0003c0 eb ad 74 bd 57 4a 01 bc 27 51 1a be c9 5a dd bc
       -0.059736174 -0.007891259 -0.1507002 -0.027020829
0003d0 33 99 39 bd 4c 35 06 bd a1 00 04 be b4 b3 9e 3d
       -0.045312118 -0.03276567 -0.12890865 0.077491194
0003e0 2f 45 d7 3b c2 cf 74 bd d7 f8 56 3d 3f f3 54 bd
       0.0065695266 -0.059768446 0.052483406 -0.05198979
0003f0 e3 50 ab 3d 8d 20 c1 be fd b6 6f 3d 0c a9 6f bd
       0.08365037 -0.37720147 0.05852412 -0.058510825

fc2.bias f4 [128]
000000 b1 e1 f4 be 86 d6 14 bf 69 8c 4b 40 2f 7a 04 40
       -0.4782844 -0.58139837 3.180445 2.0699575
000010 9d 64 02 bd 88 72 4d 40 50 7b 33 bc 30 09 22 c0
       -0.031834234 3.2101154 -0.010954693 -2.5318108
000020 c2 61 76 40 ae 5e f4 be be 2d c1 be cd bf ed be
       3.8497167 -0.47728485 -0.3773021 -0.46435395
000030 c9 ec 68 be 2d 15 af bf d1 a0 ad be f3 43 87 be
       -0.22746576 -1.3678337 -0.33911756 -0.2641903
000040 67 34 b3 be fe 66 b3 bd 69 9b 22 40 05 bf 9e be
       -0.35000917 -0.087598786 2.5407355 -0.3100511
000050 a7 48 a1 be aa 27 0b bf 77 f4 c5 be df 72 55 c0
       -0.31500742 -0.543574 -0.38663074 -3.3351362
000060 14 43 3e 40 0c 2d 99 be 27 ef 1e 40 f0 a0 a8 be
       2.9728441 -0.2991718 2.4833467 -0.32935286
000070 28 50 49 40 70 36 5b bf 54 26 48 bd 5b c9 e9 be
       3.1455173 -0.8562994 -0.048864678 -0.45661435
000080 46 eb d0 bf 2d 3b 8d be 8a 43 6c 40 5c 12 0a be
       -1.63218 -0.2758421 3.6916223 -0.13483566
000090 3d 97 dd be f6 57 e2 be 05 90 00 be 26 60 b9 be
       -0.43279448 -0.44207734 -0.12554939 -0.36206168
0000a0 07 da 57 bd db 98 34 be 9c ef 0c bd eb 7f e7 be
       -0.05269816 -0.17636435 -0.034408197 -0.4521478
0000b0 25 cb 40 40 0c bb ba be ef 20 3c be 43 02 e1 be
       3.012399 -0.3647083 -0.18371938 -0.43947038
0000c0 ef b1 c5 bf 15 7d 2b bf 4a c0 1f be f0 d0 cb be
       -1.5444926 -0.66987735 -0.15600696 -0.39807844
0000d0 fa 00 c5 be 29 9a 43 3f d4 c4 3c 40 f0 8d ab bd
       -0.38477308 0.76407105 2.9495134 -0.08376682
0000e0 32 51 a7 be 34 1f e4 be cf 8b b3 be ff 99 09 bf
       -0.32679135 -0.44555056 -0.35067603 -0.53750604
0000f0 76 2f 72 bf 1e 27 ce be 37 99 9d be 52 72 f6 bc
       -0.9460367 -0.4026422 -0.30780956 -0.030083809
000100 6c 31 d2 be 71 c6 16 be 57 73 b6 bd 57 0a ea bd
       -0.4105333 -0.14724137 -0.08908718 -0.114277534
000110 b0 08 0a bf 7a 6a a1 bd 63 d7 9a be 7c 7a 86 bf
       -0.53919506 -0.07881637 -0.30242452 -1.0506129
000120 32 94 01 c0 3d a8 0c bf a1 4e a7 bf b2 83 9b be
       -2.0246701 -0.5494421 -1.3070871 -0.30373913
000130 2e cb b0 bd 3b 6c 6c be d4 db 3c bf 3d 69 7d be
       -0.086325034 -0.23088162 -0.7377293 -0.24747176
000140 1a 36 99 be 45 49 ba be ed a0 5e 3f 4e b8 9b be
       -0.2992409 -0.36384025 0.86964303 -0.3041405
000150 bb 97 03 bf 31 17 aa be 09 f6 7b be 6f 2b 15 bf
       -0.514034 -0.3322082 -0.24605574 -0.582694
000160 d8 b1 cb be a8 7d 37 bf 30 04 9b be 25 65 91 bf
       -0.39784122 -0.7167611 -0.30276632 -1.1358992
000170 18 f8 3e 40 53 d7 65 40 a1 54 80 be 4c fb b1 be
       2.9838924 3.5912673 -0.25064567 -0.34762037
000180 4b d3 75 be e7 57 32 40 51 14 6f bf c1 5f c2 be
       -0.24006383 2.7866151 -0.93390375 -0.3796368
000190 b2 a6 cd bf 94 f2 d7 bd 27 35 44 bf 0a 66 03 be
       -1.6066496 -0.10544315 -0.76643604 -0.12831894
0001a0 75 dd 60 bf 89 72 26 c0 e4 8e f9 be 08 11 9a bd
       -0.87837917 -2.6007407 -0.4874183 -0.0752278
0001b0 77 67 b3 be 37 16 b9 be 2f 0a 39 c0 15 05 10 3f
       -0.35039875 -0.3614976 -2.8912466 0.56257755
0001c0 65 ef df be 60 28 83 bf 2c dd d4 bf 09 8e 03 be
       -0.4373733 -1.0246696 -1.6629996 -0.12847151
0001d0 01 6f db be d3 3c 09 bf 5e 5a 4b 40 77 f1 99 be
       -0.42858127 -0.53608435 3.1773906 -0.30067036
0001e0 59 97 2c bf 45 0d 9e be b5 ff 95 bf cb 51 ac bd
       -0.6741844 -0.308695 -1.171866 -0.08414038
0001f0 3d dc c5 be ea 7c 49 bf 4a 78 5a 40 6c 1c da be
       -0.3864459 -0.7870623 3.4135919 -0.4259981

fc3.weight f4 [2, 128]
000000 6c 6c b4 3e 37 46 52 be a9 84 47 3f 46 eb db 3f
       0.3523897 -0.20534597 0.779368 1.7181175
000010 9e 57 b8 3c a0 98 bc 3f 15 7a a1 3d 67 30 38 bf
       0.022502717 1.4734077 0.078846134 -0.71948856
000020 b9 b0 0d 40 cb 61 68 3e b4 cb b3 39 3f ff 83 3e
       2.2139113 0.22693555 0.0003429331 0.25780675
000030 67 42 1d 3d d3 b3 a9 c0 70 78 9e bc d0 05 09 bd
       0.038393404 -5.303201 -0.019344538 -0.03345281
000040 ce ca 0f 3d 67 0f f4 3b 6f 73 9f 3d 9e df e2 bb
       0.03510552 0.007448125 0.07785689 -0.00692363
000050 a3 87 11 be 27 7e 51 3e c1 ae b7 3c 1b bb 33 c0
       -0.14211898 0.2045828 0.022422196 -2.808295
000060 cc 50 b0 bf f7 20 23 bd a9 f4 da bf 99 74 03 3e
       -1.3774657 -0.03982636 -1.7105914 0.12837447
000070 33 2c 3e 3f 31 0f b8 be 1c 23 99 bd 9a 22 4d 3e
       0.7428619 -0.3594909 -0.074774 0.2003273
000080 fb d8 a5 3e 63 1e 0b bd d0 36 32 40 a0 bf 0b bb
       0.32392105 -0.033964526 2.7845955 -0.0021323934
000090 6f 0a a3 3d 11 04 2a 3e 36 1b 88 3d 02 f1 81 3d
       0.079609744 0.16603114 0.06645815 0.06344797
0000a0 aa f8 9c 3c cf 7f bb bc d8 b0 08 3e 17 fb 91 3c
       0.019161541 -0.022888092 0.1334871 0.017819924
0000b0 fa 91 3b bf 69 2c b3 bd d5 d2 5d 3d a8 70 eb 3e
       -0.7326962 -0.08748705 0.054156143 0.45984387
0000c0 fd d1 8c c0 15 af a9 be a1 cc a5 bd ed d8 97 bd
       -4.4006333 -0.3314139 -0.080956705 -0.07414422
0000d0 dd db 5d 3b bf 56 d8 bf d6 47 1e 40 3d 43 b3 3c
       0.0033852973 -1.6901473 2.4731345 0.021882648
0000e0 33 0b 7a 3e 79 5c 2c 3d fe 75 71 be a1 c6 8d 3d
       0.24418335 0.042080376 -0.23580167 0.06922651
0000f0 ba d8 16 bd bb 02 01 bc 7f c7 d0 3d 5f 63 78 bc
       -0.03682778 -0.007874186 0.10194301 -0.015160411
000100 9d 7a 89 be 75 1b 1d 3c b8 f7 f3 3a 2f 10 fb 3b
       -0.2685136 0.009589066 0.0018613255 0.0076618413
000110 1d 92 c1 bd 98 e5 86 bb 11 79 94 bc 6d f5 e0 bf
       -0.09451697 -0.004116725 -0.018124135 -1.7574898
000120 88 3a ed bf bf 83 93 be 59 8d a9 3c 63 38 96 3d
       -1.8533487 -0.28811452 0.020697283 0.07334974
000130 a1 fa 9f 3c 51 f5 64 3e 21 d2 c7 3d 7e 30 03 3d
       0.019528689 0.22359206 0.09756876 0.032028668
000140 a5 5b 3d be 85 6e 8d be 73 1b d9 bf b5 9d 3e bd
       -0.18491991 -0.27623382 -1.6961502 -0.04653712
000150 29 da 35 3e 94 d0 aa 3d 06 e3 1c be 5d b4 d7 bd
       0.17759003 0.08340564 -0.15320978 -0.105324484
000160 bc 3f 61 be 68 34 2d 3e 74 ad e3 3d 3d ec 74 3e
       -0.21996969 0.16914523 0.11117068 0.23918243
000170 8a fe 7f 3f 14 24 93 3f 50 22 ca 3d 75 4a 0a bc
       0.9999777 1.1495385 0.09869826 -0.0084406035
000180 64 d4 4a be 8b 28 ad bf 88 49 25 3c 52 22 7a 3d
       -0.19807583 -1.3527998 0.010088332 0.061067887
000190 5d d1 6b c0 29 93 b5 3d 41 cc b1 bd 69 01 04 3e
       -3.6846535 0.08865959 -0.086815365 0.12891163
0001a0 ba a5 e1 3b 8b 78 9b bf fb b8 34 bd 08 93 1b bb
       0.006886211 -1.2146162 -0.044121724 -0.002373876
0001b0 77 f1 b2 3d a1 f1 37 bc b3 d8 92 3f 41 f4 b5 3f
       0.08737462 -0.011227042 1.1472381 1.4215165
0001c0 06 93 52 bd 22 0e 1a 3e 30 a0 8a c0 0d 4c 43 be
       -0.051409744 0.15044454 -4.332054 -0.1907198
0001d0 bc 20 8c 3e 97 14 b5 bd fa c1 b5 3f b8 a1 38 be
       0.27368724 -0.08841818 1.4199822 -0.18030441
0001e0 82 79 39 3e 63 9f 8f be 57 64 12 bf c6 b2 cf bb
       0.18112758 -0.2805129 -0.57184356 -0.00633845
0001f0 11 f1 96 3e 69 92 a3 3c 68 ea bd 3f 18 92 3e be
       0.29480794 0.019967275 1.483716 -0.18610418
000200 52 1a f0 bd 74 b2 86 3d fb b2 ba 3f 43 1f cb bf
       -0.1172377 0.06577006 1.458587 -1.5868915
000210 d9 66 ab bc de f5 c5 3f 4e 75 8f 3b 78 c2 65 bf
       -0.020923065 1.5465658 0.0043779975 -0.8974986
000220 81 6a 1a c0 a1 9e 93 3d 9a 79 a0 be 7c 94 8c be
       -2.4127505 0.072079904 -0.31342775 -0.27457035
000230 83 75 dc bc 92 c1 28 bf ec 6e 68 be 93 05 49 3d
       -0.026911503 -0.65920365 -0.22698563 0.04907758
000240 90 31 f1 3b 9f 4a 9a 3b da 4d af 3f 1f 01 83 be
       0.0073606446 0.0047086026 1.3695633 -0.25586793
000250 b8 ed 82 3b a9 02 f5 3d 3e 78 86 3e a6 f1 c9 bf
       0.0039956234 0.11963398 0.26263613 -1.577687
000260 89 71 0d 40 21 c3 c6 3e 3a 1d ad 3f f1 30 17 3c
       2.2100546 0.38820747 1.3524544 0.009227977
000270 51 5a ff 3f 5a 84 0a be a2 ae 9b 3e e6 1c 31 be
       1.9949437 -0.1352705 0.30406672 -0.1729618
000280 30 e5 47 40 4e bf a5 3d b2 a2 04 bf 9d 6b a7 3c
       3.1233635 0.08093129 -0.51810753 0.020437056
000290 2b fe 91 3d 19 56 ed bd ed 34 c9 3d 55 65 53 be
       0.07128557 -0.115886874 0.09824548 -0.20644124
0002a0 c5 07 eb 3c f0 88 44 3d 4a 9b 82 bc 91 cb 95 3e
       0.028690228 0.047982156 -0.015943188 0.2925687
0002b0 eb 63 f6 3f 1f fb 03 bd c8 b5 de 3a 55 37 10 3e
       1.9249243 -0.03222191 0.0016991431 0.14083607
0002c0 44 38 5b 3d 29 f3 ac 3f 8a 3b a3 bd 66 b1 86 be
       0.053520456 1.3511707 -0.079703405 -0.2630722
0002d0 c2 5f 33 be bc 55 06 bf 4a 64 86 3f df ba 7e 3d
       -0.17516997 -0.5247457 1.0499356 0.062189933
0002e0 90 2d 57 3c 04 43 a5 3e 67 53 3a 3d 6a 54 03 3e
       0.013133422 0.3227769 0.045489695 0.1282517
0002f0 c9 e5 b8 3d 4d 3d 48 be 6c 4a 7a 3e 28 97 99 b7
       0.09028203 -0.19554634 0.24442452 -1.8309409e-05
000300 ad 29 81 3d 39 b1 cb bd 06 e6 b0 3d b1 0c 36 bd
       0.06306777 -0.09945912 0.086376235 -0.044445697
000310 a0 0e 09 be 40 2f 3a bb 59 0d 67 3e 1d b5 c7 bf
       -0.13384485 -0.002840951 0.22563685 -1.5602146
000320 48 8a 90 bd d2 08 82 be 6b 92 98 be d2 e8 2f 3d
       -0.07057625 -0.25397354 -0.29799208 0.042946644
000330 d2 ca df bc 55 b0 7b 3d a8 70 a9 be aa 7e 9a bc
       -0.027318392 0.06144746 -0.33093762 -0.018859226
000340 3a 4b d6 bc 55 8f 66 3d 93 85 50 bf bf 3a 6c bc
       -0.026158918 0.056289036 -0.8145382 -0.014418303
000350 34 bc fd 3d c5 7e b1 3e ea 77 46 c0 40 2b 22 be
       0.123894125 0.3466703 -3.101069 -0.15836811
000360 13 f6 0f 3d 2a f4 8e bd 1d dc a6 3e db 34 80 be
       0.035146784 -0.06980164 0.32589808 -0.25040326
000370 eb 2b 1c 40 be dd 1a 40 f1 26 86 bc c8 03 07 be
       2.4401805 2.419784 -0.01637599 -0.13185036
000380 1b ac 83 bb 0a 66 c8 3f e1 20 54 3e 68 c0 7e be
       -0.0040183193 1.565614 0.20715667 -0.24878085
000390 17 72 8e c0 9a 87 c9 bc 88 cc 77 3e e1 6b 7b bc
       -4.451427 -0.024600793 0.24199116 -0.015345545
0003a0 af 44 3c bd 2e 75 ae c0 f7 1b 8b be 30 88 dc bb
       -0.04596394 -5.451804 -0.27169773 -0.006730102
0003b0 f5 2c 82 3e cd 1f 5f 3d 07 58 ae 40 0a a7 c0 3e
       0.25424924 0.054473687 5.4482455 0.3762744
0003c0 7c e5 99 3d e3 0c e0 3e 4e 32 90 3f 6d 2e b3 bd
       0.07514474 0.43759832 1.1265352 -0.087490894
0003d0 37 ab 2e be 1e 20 14 3e 91 d9 47 c0 af aa 23 bd
       -0.17057501 0.14465377 -3.1226542 -0.0399577
0003e0 26 39 2d 3d 47 c8 c0 be 0e 6e 3c 3f 7d c9 90 3c
       0.04229083 -0.376528 0.7360543 0.017674202
0003f0 4e fc ca bd 4c c1 9c be df d6 fe 3f 2d bd 02 3d
       -0.099114046 -0.30616224 1.9909323 0.031918693

fc3.bias f4 [2]
000000 d7 8d 88 40 bf 66 8d 40
       4.2673144 4.4187922
