weights/reward_scaling_weights.pth (torch, 72568 bytes, 6 tensors)

fc1.weight f4 [128, 4]
0	0xbd1bc8e9	-0.0380334
1	0x3bd55392	0.0065102065
2	0x3dca6589	0.098826475
3	0x3ca7afcf	0.020469574
4	0xbfab4886	-1.3381507
5	0xbe488c2e	-0.19584724
6	0xc0adf850	-5.4365616
7	0xbfb6d3a7	-1.4283341
8	0xbdd385ea	-0.103282765
9	0x3cc78906	0.02435733
10	0x3dc27b8a	0.094962195
11	0x3e38b29c	0.18036884
12	0x3d089ebb	0.033354502
13	0x3e06801b	0.13134806
14	0x3f67d411	0.9055796
15	0x3f0f325e	0.5593623
16	0xbdecfbcd	-0.11571465
17	0x3e8600db	0.26172528
18	0x3ef4ac32	0.47787625
19	0x3db34590	0.08753502
20	0xbeac3dba	-0.33640844
21	0xbd86db7a	-0.065848306
22	0x3f23bec0	0.63962936
23	0xbe94426e	-0.28956932
24	0xbd0094f3	-0.03139205
25	0xbe6cd484	-0.23127943
26	0x3e308d18	0.17241323
27	0xbed87e0a	-0.4228366
28	0x3e850f6a	0.25988322
29	0xbde8290e	-0.113359556
30	0x3f43e598	0.7652221
31	0xbe9d08f0	-0.3067088
32	0x3dba8992	0.09108271
33	0xbcc46dba	-0.023978103
34	0x3bea8667	0.0071571353
35	0xbcc5b3e1	-0.024133625
36	0xbe2e9ce6	-0.1705204
37	0xbcf67085	-0.03008295
38	0xbed202c7	-0.41017744
39	0x3de0ce7d	0.109768845
40	0xbe260634	-0.16213304
41	0x3c49df55	0.012321313
42	0xc0b70c51	-5.7202535
43	0x3da7a7dd	0.08186314
44	0x3d051931	0.032494728
45	0x3d4c15e4	0.049825564
46	0xbef6dff7	-0.48217747
47	0x3ea20f2c	0.316522
48	0x3cf66ab8	0.030080184
49	0xbce0cc6c	-0.027441226
50	0xbe8f730a	-0.28017455
51	0x3e6af460	0.22944784
52	0x3e91414b	0.28370127
53	0xbebd8a22	-0.3701945
54	0x3f322a60	0.6959591
55	0xbef1bfba	-0.47216588
56	0x3e4adfab	0.19811885
57	0xbd89aa1a	-0.067218974
58	0xc09da1ee	-4.926017
59	0xbe5a7653	-0.213342
60	0xbe31c37c	-0.17359728
61	0x3ed077ae	0.40716308
62	0xbf545b6e	-0.8295201
63	0x3f070656	0.5274404
64	0x3eb6d34c	0.35708082
65	0xbecaab14	-0.39583647
66	0xbf071146	-0.5276073
67	0xbf31ea69	-0.69498307
68	0x3dd15370	0.102209926
69	0xbb8fd3a8	-0.004389245
70	0x3e7579de	0.2397227
71	0x3e25956b	0.1617028
72	0x3ccb7c26	0.024839472
73	0x3e042e4e	0.12908289
74	0x3f81bc73	1.0135635
75	0xbe23d98e	-0.1600096
76	0x3f419f7c	0.7563398
77	0xbf218109	-0.6308752
78	0x3f49a696	0.78769815
79	0xbf27ab4e	-0.65495765
80	0xbd7f62cb	-0.062350076
81	0x3c3778bd	0.01119822
82	0x3f7b5d54	0.9818928
83	0xbdd88246	-0.10571723
84	0x3d694997	0.056954946
85	0xbe2ce95f	-0.16885899
86	0x3f9e3122	1.2358744
87	0x3ea46308	0.32106805
88	0x3ee8d016	0.45471257
89	0xbe53ac9d	-0.20671315
90	0x3f809f0b	1.0048536
91	0x3e268fb6	0.16265759
92	0xbdf83b41	-0.12120677
93	0xbd9fe319	-0.07806987
94	0xbf830d04	-1.0238347
95	0x3e064828	0.13113463
96	0xbe788758	-0.2427038
97	0x3ee043c3	0.43801698
98	0x3f72b56b	0.9480807
99	0x3f5f363b	0.87192124
100	0xbcff47ac	-0.031162106
101	0x3de7f8be	0.11326741
102	0x3e49d0e2	0.19708589
103	0x3d9ce1d6	0.07660262
104	0xbe164fc5	-0.14678867
105	0xbb87833c	-0.0041355174
106	0x3e818cc5	0.2530271
107	0xbd7024a9	-0.05862871
108	0xbe72e6a3	-0.23720793
109	0x3e5ce275	0.21570762
110	0xc00e259b	-2.2210453
111	0x3ecd85b2	0.40141064
112	0x3dd2ff10	0.103025556
113	0x3dfdbb5e	0.12389253
114	0x3eae49a3	0.34040555
115	0x3cae4e0a	0.021277446
116	0x3e97cf24	0.29650223
117	0xbe9822f0	-0.29714155
118	0xbdd81542	-0.105509296
119	0xbf2e49bd	-0.68081266
120	0xbc938de5	-0.018011997
121	0xbd44c91b	-0.04804335
122	0xbf97390b	-1.1814283
123	0x3d53dca5	0.051724095
124	0x3c97b382	0.018518213
125	0xbdbaacd8	-0.091149986
126	0x3f826b93	1.0189079
127	0xbd803ac7	-0.06261211
128	0xbe3a622a	-0.18201509
129	0x3e764720	0.2405057
130	0xc10d47c2	-8.830019
131	0xbe8dc674	-0.2769047
132	0x3d423c65	0.047420878
133	0x3dbd8c77	0.09255307
134	0x3d9d854d	0.07691441
135	0xbdb86c6d	-0.090050556
136	0xbd893107	-0.06698804
137	0x3d534d7d	0.05158757
138	0xbd9ab3de	-0.07553838
139	0xbd9d58f4	-0.07682982
140	0xbfb81c98	-1.4383726
141	0x3f9d416e	1.2285593
142	0x3e22c245	0.1589442
143	0x3ff45f34	1.9091554
144	0xbdcc4d9f	-0.099757425
145	0xbe4d5acc	-0.20054168
146	0xbe8c346d	-0.27383748
147	0xbefe392f	-0.49653003
148	0x3dd9882e	0.10621677
149	0xbe141cf9	-0.14464177
150	0x3d8f5401	0.06998444
151	0x3c91bb71	0.017789574
152	0x3fd91d2e	1.696203
153	0xbf3b7ab9	-0.73234135
154	0xbfa0c70c	-1.2560744
155	0xbf754365	-0.9580596
156	0xbe6e0408	-0.23243725
157	0x3d23b994	0.039971903
158	0xbfd18fad	-1.6371971
159	0xbe5c04d2	-0.21486214
160	0x3e3a39cf	0.18186115
161	0xbe66fc8c	-0.22557276
162	0x3f2f1c08	0.6840215
163	0xbeccaa2a	-0.39973575
164	0x3eedb34a	0.4642585
165	0xbcd2342a	-0.02565964
166	0x3fefacd3	1.8724617
167	0x3d53f969	0.051751528
168	0xbf512d9a	-0.8171021
169	0x3f64c828	0.89367914
170	0x4075676e	3.8344378
171	0x3faa76b3	1.3317474
172	0xbe570651	-0.20998503
173	0x3b222b88	0.0024745185
174	0x3e884837	0.26617596
175	0x3ddc02ce	0.107427225
176	0x3e910e7f	0.28331372
177	0xbf0ab001	-0.5417481
178	0x3f8a7852	1.0817969
179	0xbed244b9	-0.41068056
180	0x3e2ceaa9	0.16886391
181	0x3cf26992	0.029591355
182	0x3e8d2a4f	0.2757134
183	0x3e91487a	0.28375608
184	0xbeb58e9e	-0.3546037
185	0x3e76a58b	0.24086587
186	0x3e448822	0.19192556
187	0x3ecf1869	0.4044831
188	0x3d739396	0.05946692
189	0xbdbaf969	-0.091296025
190	0x3e5b19c6	0.2139655
191	0x3df1287d	0.11775301
192	0xbf08650a	-0.53279173
193	0x3e45332e	0.19257805
194	0xc0975fd6	-4.7304487
195	0xbf5879eb	-0.8456103
196	0x3e431997	0.1905273
197	0xbf0e08f7	-0.5548243
198	0xbf00994a	-0.502339
199	0xbfac404b	-1.3457121
200	0xbe943b28	-0.28951383
201	0x3d8ab19c	0.067721575
202	0xbec0414a	-0.37549812
203	0xbeef3cf3	-0.46726188
204	0x3d1b4be4	0.03791417
205	0xbe3480ed	-0.17627306
206	0x3ff4edf1	1.9135114
207	0xbf251257	-0.6448111
208	0x3dcd7308	0.10031706
209	0xbcf7f6d2	-0.03026906
210	0x3f2d09eb	0.6759326
211	0x3e2c6845	0.1683665
212	0xbdfa7fc7	-0.12231403
213	0x3cf440ec	0.029816113
214	0xbf31171d	-0.69175893
215	0x3dd53875	0.10411159
216	0x3e8ea2bc	0.2785853
217	0xbdab48b3	-0.08363476
218	0xbf5bce34	-0.85861516
219	0xbdc7fbef	-0.097648494
220	0x3e1d0fef	0.1533811
221	0x3d9e94e3	0.07743242
222	0x3f223f92	0.6337825
223	0x3d01d50a	0.03169731
224	0xbe2f7538	-0.17134559
225	0x3d20e48a	0.03928045
226	0xbecb3bda	-0.396941
227	0x3e2e893e	0.17044541
228	0x3d2a4a35	0.041574676
229	0xbdf300cb	-0.118653856
230	0x3f809ac0	1.0047226
231	0xbe469ea2	-0.19396451
232	0xc006316e	-2.096767
233	0xbed844ff	-0.4224014
234	0xc01884bd	-2.3831017
235	0xbe7ed2eb	-0.24885146
236	0x3df20036	0.118164465
237	0xbe0bc42d	-0.13649054
238	0x3fadd4ab	1.3580526
239	0xbe7f81d9	-0.24951877
240	0x3e27f763	0.16402964
241	0x3c93d4f0	0.018045872
242	0x3eaf0f99	0.34191588
243	0xbe1bf41e	-0.15229842
244	0x3d354fec	0.044265673
245	0xbe1a64d3	-0.15077524
246	0x411f0bea	9.940409
247	0x3f488e68	0.78342295
248	0xbe3ef35c	-0.18647522
249	0x3d89de46	0.067318484
250	0xbe542ccb	-0.20720212
251	0xbdef5201	-0.11685563
252	0x3ccfe5fb	0.025378218
253	0xbd7b9de6	-0.06142988
254	0x3f4a821b	0.79104775
255	0xbde17ef5	-0.11010543

fc1.bias f4 [128]
0	0xbe104c64	-0.1409164
1	0xc0258618	-2.5863094
2	0xbf9d7e0b	-1.230409
3	0xbfb52b32	-1.4153807
4	0xbf7d1d2a	-0.98872626
5	0xbfc58378	-1.5430746
6	0xbf96dc4c	-1.1785979
7	0xbf743c6d	-0.954047
8	0xbeecf889	-0.46283367
9	0xbf37f98c	-0.71865153
10	0xbfe281be	-1.7695844
11	0xbf814167	-1.0098084
12	0xbf3faae8	-0.7487016
13	0xbfb4ae49	-1.4115688
14	0xbfbe6ee1	-1.4877588
15	0xbfab7bb2	-1.3397124
16	0xbfa0b689	-1.2555705
17	0xbf64b4a7	-0.89338154
18	0xbf7a9c90	-0.97895145
19	0xc0105589	-2.2552207
20	0xbea8f71c	-0.3300103
21	0xbfe03204	-1.7515264
22	0xbefa028e	-0.48830074
23	0xbfa36e3e	-1.2768018
24	0xbff4d6e5	-1.9128081
25	0xbf5a85ef	-0.85360616
26	0xbf71fcfa	-0.94526637
27	0xbf7d1db9	-0.9887348
28	0xbf7c5af6	-0.98576295
29	0xbfa99874	-1.324965
30	0xbf02f299	-0.51151425
31	0xbf1cb2ad	-0.6121014
32	0xc0097737	-2.1479013
33	0xbf4d6c0e	-0.80243003
34	0xbec48a49	-0.38386753
35	0xbefe95eb	-0.49723753
36	0xbf86fc01	-1.0545655
37	0xbf6cb18b	-0.9245841
38	0xbf6d48ca	-0.9268919
39	0xbf84b2a0	-1.0367012
40	0xbf90cb5f	-1.1312064
41	0xbfc1fb4a	-1.5154812
42	0xc028fe07	-2.6405046
43	0xbf618e72	-0.8810798
44	0xbfd7b7f9	-1.6853019
45	0xbf5b2b5d	-0.8561304
46	0xbf4edc31	-0.80804735
47	0xbf74f730	-0.9568968
48	0xbd84e517	-0.06489008
49	0xc0138be7	-2.305414
50	0xbfa8aeae	-1.3178308
51	0xbfa7d7b4	-1.3112702
52	0xbf82c5f4	-1.021666
53	0xbf980281	-1.1875764
54	0xbf8c046f	-1.0938853
55	0xbf885bf2	-1.065306
56	0xbf375782	-0.716179
57	0xbeb0e140	-0.34546852
58	0xc06b8997	-3.6802728
59	0xbf016cad	-0.5055645
60	0xbf3a645e	-0.728094
61	0xbfe71854	-1.8054299
62	0xbf1cba13	-0.61221427
63	0xbeba441c	-0.36380088
64	0xbf9f7691	-1.2458059
65	0xbf853ca9	-1.0409137
66	0xbf1bdc64	-0.60883164
67	0xbf74f0af	-0.95679754
68	0xbf4fdcf8	-0.81196547
69	0xbf9c6d9c	-1.222095
70	0xbf7d61c8	-0.9897733
71	0xbfa0fb8a	-1.2576764
72	0xbfe134e6	-1.7594268
73	0xbf8f29e8	-1.1184664
74	0xbecf2cb0	-0.4046378
75	0xbf5adacc	-0.8549011
76	0xbf8097c2	-1.0046313
77	0xbf5cf63e	-0.86313236
78	0xc0204fd3	-2.504872
79	0xbfbb8555	-1.4650065
80	0xbfd4328b	-1.6577924
81	0xbf7914ef	-0.9729757
82	0xbfcdfae2	-1.6092188
83	0xbf2129c5	-0.6295436
84	0xbf996c5f	-1.1986197
85	0xbf3d26c1	-0.7388726
86	0xbf9bf60a	-1.218446
87	0xbfee3c4f	-1.8612155
88	0xbf628a61	-0.884924
89	0xbf775d97	-0.9662718
90	0xbf5fa799	-0.8736511
91	0x3cbb283d	0.022846336
92	0xbf6a3906	-0.9149326
93	0xbfa53614	-1.2907128
94	0xbf9b3a7a	-1.2127221
95	0xbf089fbf	-0.53368753
96	0xbf83c1c4	-1.0293508
97	0xbf8d6651	-1.104685
98	0xbf7e8436	-0.9942049
99	0xbf89f7c2	-1.0778735
100	0xbf7e587f	-0.99353784
101	0xbf44ed74	-0.76924825
102	0xbf2d442b	-0.6768214
103	0xbf2fc700	-0.68663025
104	0xc00aa062	-2.166039
105	0xbfa27f57	-1.2695111
106	0xbf3d5717	-0.73961014
107	0xbf8ab8fa	-1.08377
108	0xbfc8d6dc	-1.569057
109	0xc03c2d9b	-2.9402835
110	0xbf884ff9	-1.0649406
111	0xbfa41d21	-1.282139
112	0xc00f3db3	-2.2381408
113	0xbf9adcac	-1.2098594
114	0xc001855a	-2.0237641
115	0xbf85750d	-1.0426346
116	0xbfcad5c1	-1.5846483
117	0xbf4aef51	-0.7927142
118	0xbf01c16b	-0.5068576
119	0xbebfd43e	-0.37466615
120	0xbf5d1d66	-0.86372983
121	0xc0547c54	-3.3200884
122	0xbfdda025	-1.7314497
123	0xbfb2a634	-1.3956971
124	0xbfa46cd8	-1.2845716
125	0xbfc441d3	-1.5332588
126	0xbf901f38	-1.1259527
127	0xbf6afcb1	-0.91791826

fc2.weight f4 [128, 128]
0	0xbd942980	-0.07234478
1	0xbcb870e9	-0.022514777
2	0xbdf7da35	-0.121021666
3	0xbd91f69c	-0.07127115
4	0xbe30abe2	-0.17253068
5	0x3ca8696e	0.020558085
6	0xbd912ac4	-0.07088235
7	0x3de3a7d6	0.111159965
8	0x3c94a2f1	0.018144103
9	0xbbb777b0	-0.0055989847
10	0xbe07d405	-0.13264473
11	0x3cce5122	0.025185172
12	0xbd22fede	-0.03979384
13	0x3e543e40	0.20726871
14	0xbddacd21	-0.106836565
15	0x3dbc5ed6	0.09197776
16	0x3d230e3d	0.0398085
17	0xbdea1c1e	-0.11431144
18	0xbda72b46	-0.08162551
19	0xbdd09e34	-0.10186425
20	0x3ca992cc	0.020699881
21	0xbd0aa056	-0.033844315
22	0xbed28809	-0.41119412
23	0xbd9cae95	-0.076504864
24	0x3d98cd48	0.07461029
25	0xbde51c80	-0.111870766
26	0xbd0cc995	-0.03437193
27	0xbda52d50	-0.08065283
28	0xbd86d499	-0.065835185
29	0x3e3922c4	0.18079668
30	0x3be0b94b	0.006858026
31	0xbd3d97e4	-0.046287432
32	0xbe761a3e	-0.24033448
33	0x3d29d5e1	0.041463736
34	0xbdc4fe2d	-0.09618793
35	0xbea718a8	-0.32636
36	0xbc9d0a6f	-0.019170014
37	0xbe240c70	-0.1602037
38	0xbdbaaeeb	-0.09115394
39	0xbd7a4bf4	-0.06110759
40	0xbde160a4	-0.11004761
41	0xbcf3237f	-0.029680012
42	0xbd3e6e35	-0.04649182
43	0xbcf6e8f0	-0.03014037
44	0xbc66fd4a	-0.014098475
45	0xbd7e116b	-0.06202833
46	0x3b3ee32c	0.0029127104
47	0xbc19c51a	-0.009385372
48	0xbd6b65be	-0.057470076
49	0xbd9371f9	-0.07199473
50	0xbde0e7d1	-0.109817155
51	0xbde26afd	-0.11055563
52	0xbd2dcf6a	-0.042434134
53	0x3c64a58c	0.013955485
54	0xbdb1e6bc	-0.08686587
55	0xbdd69983	-0.10478499
56	0xbb92d35e	-0.0044807633
57	0xbdd300fa	-0.10302921
58	0xbd4ba487	-0.049717452
59	0xbd2a82ec	-0.041628763
60	0x3c61feb4	0.013793636
61	0xbdfac3d4	-0.122443825
62	0xbd0a539d	-0.033771146
63	0xbe7d1585	-0.2471524
64	0xbc34338c	-0.010998618
65	0x3d5aa066	0.053375624
66	0x3d69df46	0.057097696
67	0xbe037e86	-0.12841234
68	0xbd8b0784	-0.06788543
69	0xbdf68e81	-0.12038899
70	0x3d3ba330	0.045809925
71	0xbdbc0ea6	-0.091824815
72	0x3db5488a	0.08851726
73	0xbdff3d35	-0.12462846
74	0xbd956d63	-0.072962545
75	0x3d388235	0.04504605
76	0xbd99fcc4	-0.07518914
77	0xbce5d977	-0.028057797
78	0x3c9ff26c	0.019524775
79	0x3d00eaf0	0.031474054
80	0x3c861a94	0.016370095
81	0xbde09a2b	-0.10966905
82	0xbb9972a5	-0.004682856
83	0x3cc32863	0.023822969
84	0xbc4e7537	-0.012601188
85	0xbc6fdc49	-0.014639922
86	0x3cf4f7c5	0.029903302
87	0xbd95dd5a	-0.0731761
88	0xbcb0000e	-0.021484401
89	0xbc0df718	-0.008664869
90	0xbdbb016c	-0.091311306
91	0xbe8f597a	-0.27997953
92	0xbcb3a057	-0.021927042
93	0xbd9aaea8	-0.07552844
94	0xbe1142b7	-0.14185606
95	0xbd264cba	-0.040600516
96	0xbda3b6fc	-0.07993886
97	0xbd8c2d84	-0.06844619
98	0xbb448807	-0.0029988305
99	0x3b756e2a	0.0037449696
100	0x3d81298b	0.06306752
101	0xbdc7f179	-0.09762854
102	0x3cc0ca1c	0.023533873
103	0xbdc797c9	-0.097457476
104	0xbdd0b173	-0.10190096
105	0xbd4053f5	-0.046955068
106	0xbd4d915e	-0.05018746
107	0xbdcaa37b	-0.09894463
108	0xbd0e0559	-0.03467307
109	0xbd0a780d	-0.033805896
110	0x3bb4e82c	0.005520841
111	0xbd9b76df	-0.07591032
112	0xbd9839f5	-0.074329294
113	0xbcccbed8	-0.024993345
114	0xbe428a02	-0.18997958
115	0xbdca780a	-0.09886177
116	0xbd36b333	-0.04460449
117	0xbdc7a614	-0.09748474
118	0xbd1aff5e	-0.037841193
119	0x3c970c7c	0.01843857
120	0xbc014de6	-0.007892108
121	0xbd1db4a0	-0.038502336
122	0xbe4d983c	-0.20077604
123	0xbdfb980c	-0.1228486
124	0x3c94ce58	0.018164799
125	0xbdb8cf38	-0.09023899
126	0xbd7a3924	-0.06108965
127	0xbd97ac9c	-0.074059695
128	0xbd37d6d0	-0.044882596
129	0xbf62e829	-0.886355
130	0xbdc572da	-0.09641047
131	0xbeee11e6	-0.4649803
132	0x3bb2686c	0.005444577
133	0xbd668b23	-0.056285035
134	0xbd4920ac	-0.049103424
135	0x3da9e9ab	0.08296522
136	0xbe24f33e	-0.16108415
137	0xbe05fc6b	-0.13084571
138	0xbe483aa4	-0.1955362
139	0xbe3ebedc	-0.18627495
140	0x3c11bdd2	0.008895354
141	0x3e1d4914	0.15359908
142	0xbe0c5196	-0.13702998
143	0xbd32e019	-0.043670747
144	0xbda2f70b	-0.07957276
145	0x37bb26ad	2.2310147e-05
146	0xbd9c064c	-0.076183885
147	0xbeda1a9d	-0.4259843
148	0xbd4281b4	-0.047486976
149	0xbd7d9645	-0.061910886
150	0xbf3d4639	-0.73935276
151	0x3d9d43ca	0.07678945
152	0x3b9e4bbc	0.0048308056
153	0xbdc596f4	-0.09647933
154	0x3d121d85	0.035672683
155	0x3cedbc01	0.029020311
156	0xbd8b45c7	-0.06800418
157	0xbc45950e	-0.012059463
158	0xbcea8ebe	-0.028632518
159	0xbd80c770	-0.0628804
160	0xbf7acdd6	-0.9797033
161	0xbd6297ff	-0.055320736
162	0x3d87d636	0.06632654
163	0xbd75792d	-0.059930015
164	0x3c8ec9a9	0.017430143
165	0xbdcb41c1	-0.09924651
166	0xbee4d077	-0.44690296
167	0xbee36a22	-0.4441691
168	0xbbaccdb4	-0.005273545
169	0xbe315a81	-0.17319681
170	0xbf36962c	-0.71322894
171	0xbd5dc766	-0.05414524
172	0xbdc849b7	-0.09779685
173	0x3d8369eb	0.064166866
174	0xbebbf06e	-0.3670687
175	0xbe03374d	-0.12814064
176	0xbf5f25f8	-0.8716731
177	0xbf3d3d46	-0.7392162
178	0xbda84125	-0.0821555
179	0xbd28ddf7	-0.041227307
180	0x3dc3d01c	0.09561178
181	0xbda49c0f	-0.08037578
182	0xbdbbf822	-0.09178187
183	0xbb88a5cd	-0.0041701556
184	0xbe536038	-0.20642173
185	0xbe101f63	-0.14074473
186	0xbec02390	-0.37527132
187	0xbd98eb8d	-0.07466803
188	0xbe338a14	-0.17533141
189	0xbecc7ae6	-0.39937514
190	0xbd5a2813	-0.053260874
191	0xbe521bb7	-0.20518385
192	0xbcf40f60	-0.029792488
193	0xbda68253	-0.08130326
194	0x3a9c7880	0.0011937767
195	0xbca7aac6	-0.020467173
196	0xbe17a6b9	-0.14809693
197	0x3dc783a6	0.09741907
198	0x3ea2b1f6	0.31776398
199	0xbdd3b2f2	-0.103368655
200	0xbe998ff6	-0.29992646
201	0xbe43c2e4	-0.19117314
202	0xbee951b2	-0.4557014
203	0x3de0cae4	0.10976198
204	0xbd9c621f	-0.076359026
205	0xbe56c530	-0.20973659
206	0xbe43c79d	-0.19119115
207	0xbc05b3e4	-0.008160565
208	0xbd2025e3	-0.03909863
209	0xbd5d2e56	-0.053999268
210	0xbd916c85	-0.071007766
211	0x3c928163	0.017883962
212	0xbe0cfb32	-0.13767698
213	0xbd97cab2	-0.07411708
214	0xbca4b423	-0.020105427
215	0xbeb48ceb	-0.35263762
216	0x3a6ee9a9	0.00091137976
217	0xbeb07fde	-0.34472555
218	0xbe147f7d	-0.14501758
219	0xbeb5d486	-0.35513705
220	0xbe0a8cb9	-0.13530244
221	0xbe4084e7	-0.18800698
222	0xba9a968f	-0.0011794138
223	0x3ca11a65	0.019665906
224	0x3a8a0121	0.0010528901
225	0xbc0ab16e	-0.008465154
226	0xbe053754	-0.13009387
227	0xbde07fec	-0.10961899
228	0xbd03ec32	-0.032207675
229	0xbda181a7	-0.07886057
230	0xbba6f83e	-0.0050955107
231	0xbdc25c31	-0.0949024
232	0xbf1a0b15	-0.6017316
233	0x3d980e2c	0.07424578
234	0xbe3a944a	-0.1822063
235	0xbd6f3ec4	-0.058409467
236	0xbe4cffd2	-0.20019463
237	0xbee16d37	-0.44028637
238	0xbc008da4	-0.00784627
239	0xbe45531f	-0.1926999
240	0xbed46220	-0.41481113
241	0x3c184179	0.009292954
242	0x3f054902	0.52064526
243	0x3e709a2b	0.2349631
244	0xbdcb2176	-0.099184915
245	0xbe42f538	-0.19038856
246	0xbe4a9e2c	-0.197869
247	0xbd8e09e2	-0.06935479
248	0xbe069356	-0.13142142
249	0xbe1033e0	-0.14082289
250	0xbd6d250e	-0.057896666
251	0xbdfe3d92	-0.12414087
252	0x3d3c743a	0.04600928
253	0xbdb3b311	-0.087743886
254	0xbda1a013	-0.0789186
255	0xbf10cf01	-0.5656586

fc2.bias f4 [128]
0	0xbe98b65f	-0.29826638
1	0xbece229c	-0.4026078
2	0xbd5f5742	-0.054526575
3	0xbea0f8d3	-0.31439838
4	0xbe103352	-0.14082077
5	0xbeb76847	-0.35821745
6	0xbc158f89	-0.00912846
7	0xbebf3535	-0.3734528
8	0xbec32e4d	-0.38121262
9	0xbdc60631	-0.0966915
10	0xbed2caf6	-0.41170472
11	0xbf85563e	-1.0416944
12	0xbdbbc7e4	-0.091689855
13	0xbeaf5bb1	-0.34249642
14	0x40119fe2	2.2753835
15	0xbeec6e0f	-0.46177718
16	0x407b4ede	3.9266887
17	0xbf68d2da	-0.90946734
18	0xbe0dec16	-0.13859591
19	0xbeb50a4e	-0.35359424
20	0xbdefd3c2	-0.117103115
21	0xbf066f41	-0.5251351
22	0xbe418ab7	-0.18900572
23	0xbefe55e2	-0.49674898
24	0xbd33a071	-0.04385418
25	0xbdf9772f	-0.121809356
26	0xbeb844c2	-0.35989958
27	0xbeec6105	-0.4616777
28	0xbeaf9328	-0.3429196
29	0xbea7af35	-0.3275086
30	0xbecf4f5b	-0.4049023
31	0x407c4c2b	3.942149
32	0xbe882c9c	-0.26596534
33	0xbfe3c9e2	-1.7795985
34	0xbdff9614	-0.12479797
35	0x40251547	2.5794237
36	0xbefc15d3	-0.492354
37	0xbee0a1b0	-0.43873358
38	0xbee4d715	-0.44695345
39	0x401f9ecc	2.4940672
40	0xbe97064b	-0.2949699
41	0xbda5ebb3	-0.08101597
42	0xbf5ca254	-0.86185193
43	0xbf8fd670	-1.1237316
44	0xbeaa0af5	-0.33211485
45	0xbe9f1b63	-0.31075582
46	0x3ff55cff	1.9169005
47	0xbeb31535	-0.34977117
48	0xbf06b03b	-0.52612656
49	0xbe046739	-0.12930001
50	0xbead3b0e	-0.33834118
51	0xbe545011	-0.20733668
52	0xbf1211bd	-0.57058316
53	0xbf04ccd3	-0.51875037
54	0xbf9d3918	-1.2283049
55	0xbe6c109a	-0.23053208
56	0xbea10557	-0.31449386
57	0x40133545	2.3001263
58	0xbe974d5a	-0.29551202
59	0xbffe7f4e	-1.98826
60	0xbe78519d	-0.24249883
61	0x40812e5f	4.0369105
62	0xbdaf210d	-0.08551226
63	0xbd64cffc	-0.05586241
64	0xbe098dca	-0.13432994
65	0xbeea1892	-0.4572187
66	0xbdf182c7	-0.11792522
67	0xbef39a4e	-0.47578663
68	0xbec645a7	-0.38725016
69	0xbfc24d66	-1.517987
70	0xbd0c6e44	-0.034284845
71	0xbfdb24ce	-1.7120607
72	0xbf2813aa	-0.65655005
73	0xbe8d7834	-0.2763077
74	0xbeff05c9	-0.498091
75	0xbed58b12	-0.41707665
76	0xbf66d7c7	-0.90173
77	0x3fd00ab4	1.6253266
78	0xbd22a256	-0.039705597
79	0xbf36d89f	-0.7142429
80	0xbdb685d7	-0.08912247
81	0xbf53d344	-0.8274424
82	0xbe93cfdc	-0.28869522
83	0x3f57af44	0.8425181
84	0xbe96dfd5	-0.29467645
85	0x4073333d	3.8000023
86	0xbd244dd1	-0.040113274
87	0xbedfc7ca	-0.43707114
88	0xbef3de88	-0.47630715
89	0xbfb4c960	-1.4123955
90	0xbec6ea9f	-0.38850877
91	0xbf07b4bb	-0.5301015
92	0x3f8dc51d	1.1075779
93	0x403f3896	2.9878287
94	0xbec79673	-0.3898197
95	0xbe49f30e	-0.19721624
96	0xbd8db09e	-0.06918453
97	0xbebcde54	-0.36888373
98	0xbeb924e3	-0.36160955
99	0xbeab8cd3	-0.33505878
100	0xbeb59ba6	-0.35470313
101	0x4087ceb6	4.2439833
102	0xbee7cc57	-0.45273086
103	0xbf0a7c57	-0.5409598
104	0xbe8e1668	-0.2775147
105	0xbed2ead4	-0.41194785
106	0xbd270b21	-0.040782098
107	0xbf850eae	-1.0395105
108	0xbf611a2b	-0.87930554
109	0xbe02d31b	-0.12775843
110	0x3fcb02ea	1.5860264
111	0x3fccffec	1.6015601
112	0xbeb0fc87	-0.34567663
113	0x400a1f36	2.158155
114	0xc00880ba	-2.1328568
115	0xbf8a9fe6	-1.0830047
116	0xbe5bc9ae	-0.21463653
117	0xbeae95c2	-0.3409863
118	0xbda3eba1	-0.08003927
119	0xbecb08a1	-0.3965502
120	0xbe93ec93	-0.2889143
121	0xbf224280	-0.6338272
122	0xbec196b1	-0.3781028
123	0x3f79cee5	0.9758132
124	0xbe9b0e3a	-0.30284292
125	0xbf0307b0	-0.51183605
126	0xbd183a3a	-0.037164904
127	0x3f8a7198	1.0815916

fc3.weight f4 [2, 128]
0	0xbd19447d	-0.03741883
1	0xbea66252	-0.32496887
2	0x3d826ea2	0.06368758
3	0x3bac14df	0.0052515115
4	0xbaa985f1	-0.0012933594
5	0x3cffe931	0.031239124
6	0x3cde8f41	0.027167918
7	0x3ceea045	0.029129157
8	0xbd657c05	-0.056026477
9	0x3da06b2a	0.0783294
10	0x3ca4f3d4	0.020135798
11	0x3fed4bd1	1.8538762
12	0x3cea785f	0.02862185
13	0xbe970583	-0.29496393
14	0xbe55f7d5	-0.20895322
15	0xbe724b7e	-0.2366161
16	0x3fea2210	1.8291645
17	0xbf09cfa5	-0.53832465
18	0x3b97d3c3	0.0046333983
19	0x3ee58543	0.44828233
20	0x3cca3d7f	0.024687527
21	0xbe718d09	-0.23588957
22	0xbdd0ed4c	-0.10201511
23	0x3df35908	0.11882216
24	0xbd11037f	-0.035403725
25	0x3c8ecb09	0.0174308
26	0xbe9206bb	-0.2852076
27	0x3e92730e	0.28603405
28	0xbe68e91b	-0.22745173
29	0xbe8462bd	-0.2585658
30	0xbe92a884	-0.28644192
31	0x400f06dd	2.234794
32	0x3d23baef	0.039973196
33	0xbf0944ef	-0.5362081
34	0xbd7d7bb5	-0.061885554
35	0x3fa7cd3e	1.310951
36	0x3bf7ae3b	0.0075586117
37	0x3e21f75c	0.15817016
38	0x3e95ae08	0.29234338
39	0x40054168	2.082117
40	0x3d935390	0.07193673
41	0x3d890b0b	0.066915594
42	0x3e1ac222	0.15113118
43	0xbe9c9945	-0.30585685
44	0x3df781bf	0.12085294
45	0x3cacd3c0	0.021097064
46	0xbf77fbca	-0.96868575
47	0x3b38b195	0.002818202
48	0x3e98a6e9	0.29814842
49	0x3d043ec4	0.03228642
50	0x3f8a0852	1.0783789
51	0xba8ff280	-0.0010982305
52	0xbe9d19ba	-0.3068369
53	0xbe6a2213	-0.22864561
54	0x3de83609	0.113384314
55	0x3e3bf098	0.18353498
56	0xbe02ff75	-0.12792762
57	0x3f8b53dc	1.0884967
58	0xbe68ea32	-0.22745588
59	0xbfe611cd	-1.7974182
60	0x3fc5ffda	1.5468705
61	0x402649cc	2.5982542
62	0xbd245151	-0.040116612
63	0x3b05021f	0.0020295454
64	0x3d35d831	0.04439563
65	0x3e6e9f00	0.23302841
66	0x3c2d07a8	0.010560907
67	0x3cad8ea4	0.02118618
68	0x3c8aa331	0.016923519
69	0x3f857c80	1.0428619
70	0xbc012aa8	-0.007883705
71	0x3e991ebd	0.29906264
72	0xbe1eeae6	-0.15519294
73	0x3cbd1d55	0.023085276
74	0xbe212df6	-0.15740189
75	0xbdaea247	-0.08527046
76	0xbe744e8d	-0.2385809
77	0xc0080a73	-2.1256378
78	0x3daf9eb5	0.08575193
79	0xbeaafc40	-0.33395576
80	0xbcc9ab34	-0.024617769
81	0xbe236eef	-0.15960287
82	0x3e961002	0.29309088
83	0x3f260aa2	0.64859974
84	0xbe4c6fc1	-0.19964506
85	0x3ee07cd3	0.43845233
86	0xba543e7d	-0.00080964697
87	0xbe76f770	-0.24117827
88	0x3e9ecb9b	0.31014714
89	0xbff177ac	-1.8864646
90	0xbe615004	-0.2200318
91	0xbe12814a	-0.14307132
92	0x3f21ab88	0.6315236
93	0x3fb83d54	1.4393716
94	0x3c5f3fd0	0.013626054
95	0xbda21523	-0.07914188
96	0x3c90ab28	0.017659739
97	0xbd1060de	-0.03524863
98	0x3e9fddf6	0.3122403
99	0xbdf1de7e	-0.11810015
100	0xbe8b3e16	-0.27195805
101	0x401960b5	2.3965275
102	0x3d936bb3	0.07198276
103	0xbe1d8b96	-0.15385279
104	0xbe659c20	-0.22422838
105	0x3cf0f27b	0.029412499
106	0x3d67338a	0.056445636
107	0x3e8a30e8	0.26990438
108	0x3f2c7567	0.6736664
109	0x3b7d6cff	0.0038669703
110	0x3fc44530	1.5333614
111	0x3eceddd2	0.4040361
112	0xbe908862	-0.28229052
113	0x3f96e196	1.1787593
114	0xbf18e28f	-0.597207
115	0xbf73825e	-0.951208
116	0xbe6eedb6	-0.23332867
117	0x3e8a976f	0.2706866
118	0xbb98e78a	-0.0046662735
119	0x3e3d1ca5	0.18467958
120	0x3e81c2a9	0.25343826
121	0xbe097916	-0.13425097
122	0xbe97d877	-0.29657337
123	0x3f77a275	0.96732265
124	0xbe975396	-0.29555959
125	0x3c3bb7e0	0.011457413
126	0xbc95fd71	-0.018309327
127	0xbfa88157	-1.3164471
128	0xbe45eb48	-0.19328034
129	0xbe464264	-0.19361264
130	0xbbb90b6b	-0.005647113
131	0xbe528ea0	-0.2056222
132	0x3f49ca7b	0.78824586
133	0xbe9d7774	-0.30755198
134	0xb9b66ca9	-0.00034794703
135	0x3da5371f	0.08067154
136	0xbe6b08db	-0.22952597
137	0xbc0490db	-0.008091177
138	0xbcb790cf	-0.022407917
139	0xc095b2dd	-4.678084
140	0xbc4548e8	-0.012041308
141	0xbc3d2b1d	-0.011545924
142	0x40020e54	2.0321245
143	0x3c0c44ae	0.008561296
144	0x400bd660	2.1849594
145	0x3e7c0181	0.24609949
146	0x3c737a50	0.014860705
147	0x3f6d176a	0.9261385
148	0xb8c75ac9	-9.5059695e-05
149	0x3cd43b61	0.02590722
150	0xbe69138f	-0.22761367
151	0xbe83af07	-0.25719473
152	0xbda6d40a	-0.08145912
153	0xbcf11b53	-0.029431975
154	0x3ccebbb1	0.025235983
155	0x3e646281	0.22303201
156	0x3df607ad	0.12013183
157	0x3d055058	0.032547325
158	0x3b716111	0.0036831538
159	0x3fd42dab	1.6576437
160	0xbb6a5771	-0.0035757686
161	0xba76c379	-0.0009413283
162	0xbbb77f59	-0.005599898
163	0x3f7fec2b	0.9996974
164	0xbd27c211	-0.04095656
165	0xbd282b96	-0.04105719
166	0xbe46a065	-0.19397123
167	0x3e5cb468	0.21553195
168	0xbd45ce13	-0.04829223
169	0x3cb1564e	0.021647599
170	0x3e0dfded	0.13866396
171	0x3f517824	0.81823945
172	0xbea195a3	-0.31559476
173	0xbe9227ba	-0.28545934
174	0x3faa50f0	1.330595
175	0xbe8180e5	-0.2529365
176	0x3d760e0e	0.060071997
177	0xbb9e45b6	-0.0048300875
178	0x3f966e0e	1.1752336
179	0xbe3329da	-0.17496434
180	0xbe68e750	-0.22744489
181	0x3dd3de90	0.10345185
182	0xbdd3c392	-0.103400365
183	0x3e71a145	0.23596676
184	0xbeb11293	-0.34584484
185	0x3f8f26a1	1.1183664
186	0xbc65c685	-0.0140243815
187	0x401e00e1	2.4688036
188	0x3f9d3b34	1.2283692
189	0x3fafd006	1.3735359
190	0x3cbf3efa	0.02334546
191	0x3b90bb7d	0.0044168816
192	0x3c8f8bfe	0.017522808
193	0x3e8cb8b5	0.2748467
194	0x3dabd010	0.08389294
195	0xbd29ae06	-0.041425727
196	0x3e99c3c6	0.30032176
197	0xbfb5cdad	-1.4203392
198	0x39619834	0.00021514372
199	0xbded686e	-0.11592184
200	0xbdd170a6	-0.10226564
201	0xbe49e3ff	-0.1971588
202	0x3dc4b1b6	0.09604208
203	0x3e556a91	0.20841433
204	0x3dd29851	0.10282958
205	0x3fb168a5	1.386006
206	0xbce73e6b	-0.028228005
207	0xbef6ea06	-0.4822542
208	0xbce30406	-0.02771188
209	0xbd8aac41	-0.06771136
210	0xbc269fe5	-0.010169958
211	0x3dedea2b	0.116169296
212	0x3c978086	0.018493902
213	0x40272a0f	2.611942
214	0x3afa988a	0.0019118947
215	0x3e2fef23	0.17181067
216	0x3c89e325	0.016831944
217	0x3c847466	0.016168784
218	0xbc6e5db3	-0.014548707
219	0x3e1874f0	0.14888358
220	0xbfb44db2	-1.4086211
221	0x3fc51121	1.5395852
222	0x3e868981	0.26276782
223	0x3abac580	0.0014249533
224	0x3d37b4b3	0.044850063
225	0x3ea224e4	0.3166877
226	0xbd09cfec	-0.033645555
227	0xbc02365d	-0.0079475315
228	0x3d11b8da	0.03557668
229	0x3ff5ddda	1.9208329
230	0x3de29e68	0.1106537
231	0x3e90a0df	0.28247735
232	0xbdf04b2c	-0.11733088
233	0x3ab8906e	0.0014081129
234	0x3d3ada67	0.04561844
235	0x3e5a844d	0.21339531
236	0xbf4d31fd	-0.801544
237	0x3da3113e	0.07962273
238	0xbf0ff840	-0.56238174
239	0x3eb44e15	0.35215822
240	0x3d540a83	0.051767837
241	0xbf8daee4	-1.1068997
242	0x3cbcd460	0.023050487
243	0x3eabb986	0.3353998
244	0xbd3e607b	-0.04647873
245	0x3cf79af5	0.030225256
246	0x3d865516	0.065591976
247	0x3ec245a3	0.37943754
248	0xbc7a3f28	-0.015273847
249	0x3d902107	0.070375495
250	0x3d39a963	0.045327555
251	0xbfad5767	-1.3542298
252	0xbe99b18a	-0.30018264
253	0xbcc90879	-0.024540173
254	0x3d839ff2	0.064269915
255	0x3f440bb8	0.7658038

fc3.bias f4 [2]
0	0x40718894	3.773961
1	0x405388cd	3.3052247
