weights/strategy_adaptive_rewards.pth (torch, 72508 bytes, 6 tensors)

fc1.weight f4 [128, 4]
00000000: ea0d 173f d894 2cbf b7ea 033e a6a3 c8bf
00000010: c968 44bc 5caf a23d 1db0 58be 9a9c 8d3e
00000020: 73b6 a33c 1828 db3d 34dd 953c cfcc 873d
00000030: a910 6fbd 1436 41bd 1158 6cbf 2676 0e3d
00000040: b2d7 7dbf 9c45 933f d21f 503f c739 dd3f
00000050: 11a5 b13e 15a2 b8bd e5d5 afbd 30c0 84bd
00000060: 367b 92bc 8dd5 3c3d fb92 01bf da4d 0e3e
00000070: c2de 2ebe bebe a33d 639c b140 7ee3 5b3d
00000080: bfdc 11bc 2319 933d 4d79 3c3c d8eb 84be
00000090: 0057 353d 5143 a23b 9ea0 00c1 cb96 81bf
000000a0: af16 adbd 60e3 8b3e ff44 2dbf dc77 303e
000000b0: 403b 1abd 752b 1f3d 0f3f 0f3f b558 4dbd
000000c0: 2c0b cb3c bbfe f5be e79d 153e e293 96be
000000d0: 403b 13bf c5dd 123f 7185 01c1 afec 9dbf
000000e0: e94b f93e 3614 4ebe 718b fcbd 1617 5ebe
000000f0: 2f4d 5d3e 1883 1cbe 89be 4ebf 67e8 bbbe
00000100: 637b 2fbd 5d34 1ebe dc4c ea3d 3efc c13c
00000110: 184e 1f3e 40fd 9dbc 906a 1abf 285b 9cbd
00000120: e446 60bd 2a95 4b3e 938d 09bf 72d8 f83d
00000130: dcb8 fc3b 9db6 fb3c 2cf2 543e 595e d13e
00000140: bb0f 88be 72e1 4f3e 8124 963f 0e1e fdbd
00000150: b7fd dc3c 6cc9 4cbe a0cd fa3e 45c3 1ebd
00000160: 34ab cc3b 1731 dd3d e73f d63d 0903 f83e
00000170: 2867 3abe 3540 9b3d e70f 453e 2912 053d
00000180: aea5 503e 4b97 54be 7413 3e3f c8dd c1be
00000190: ebcd e0bd d5dc b9bd 695f e4be cdeb 90bd
000001a0: a089 75be 0090 8b3e 0930 bebe 2a3e 6a3e
000001b0: c0c1 943d 6f3c 31bd 6309 983e d257 9a3e
000001c0: c1e1 aabb 1f6d 88be fb12 273f a67c adbe
000001d0: 1bab 673e dad4 17be cb4b 863f ba2e 523d
000001e0: a8cb 75be 4dd9 863d e4bc dd3e cb00 33be
000001f0: ab58 ec3b 4d2d a53d b47c a73d 7e30 12be
00000200: aa15 cebd 55a4 a13d fa7d c83d a987 9a3e
00000210: cded 92bb d090 333e 2190 27bf 7422 b53c
00000220: 8e5e 14be 345a 8d3d c09f 133f aa66 7abd
00000230: c137 edbf d36c d9be 5d8b 11c0 ec62 b8be
00000240: ea21 80be c3df c8bc d5e6 21bf d87f e1bd
00000250: 6e3e 4cbe cd21 8b3d d658 f03d e0ab ad3d
00000260: 244e 3b3e cb04 063d 4afe ec40 23d2 dc3d
00000270: c74f 663d a757 4dbe 8aec 87bd 9cd9 aebe
00000280: 1bbe 21be 98ed 7ebe 44a4 083f 83b5 9abd
00000290: 7e49 f7ba 5df1 dfbd e50d ae3e 50fc 06be
000002a0: 19d2 72bd e8d9 dcbd 29c0 cabd a683 b93c
000002b0: 396b 06be b8c3 c63d c1a3 0d3e 6f07 0ebe
000002c0: 804e a93c 60e3 64be e724 1141 6c4c 403f
000002d0: b3d9 263e 3965 61be d698 7f3d c269 15bf
000002e0: 0148 2c3e b6b6 a2be be37 65be 6411 aabe
000002f0: 9c69 703d 9d62 4bbe 63d4 adbd 59cb 5bbe
00000300: 23bd 6dbd c738 663e b952 603f e6c9 ed3e
00000310: 9fd7 44be 7702 4a3e f614 b03e 8f66 25bc
00000320: 9d77 b43f a4d6 683c 0fd0 90c0 bee2 37bf
00000330: b3bb 0ebe c75f 1ebe c53b b23e ad03 0cbd
00000340: cf61 583e 3890 c1be 6de7 50c0 e170 763e
00000350: 70de 6c3d 9de1 19be 634e de3d bbef 9e3c
00000360: f1c2 0bbf 6ff4 6e3e f109 2c3f b236 f33e
00000370: 4147 983d 8554 dbbd 33cb 1e3f a701 c5bd
00000380: 86b0 00be 4ef2 ae3e 854b 8cbe 8c06 b13e
00000390: aa18 793d 4bd9 9e3c 2db8 02c1 1d00 03bf
000003a0: e66e a63c f01a 2fbe 192a 15bf 11ee 353e
000003b0: 6f8f 65be 11ff 1e3e cd75 cd40 eba8 8d3c
000003c0: 5e1c 60be ee99 93bd 4a5f bc3e 8822 6cbd
000003d0: b353 17be ece4 9b3d 7bff ebbe b1bd 853e
000003e0: be77 ca3d 8cc9 2bbe 5e00 59bd d27b 87bc
000003f0: 6ec6 cb3c fbe8 f0ba d09d abbe 4618 db3d
0.59005606 -0.6741462 0.12882505 -1.5674942 -0.011987873 0.079436034 -0.21160932 0.2765854
0.01998446 0.10701007 0.018293954 0.06630861 -0.058365498 -0.047170714 -0.9232188 0.034780644
-0.9915725 1.1505618 0.81298554 1.7283257 0.34696248 -0.0901529 -0.08585719 -0.06481969
-0.017881017 0.046102095 -0.506149 0.13896886 -0.17077163 0.079953656 5.55034 0.05368375
-0.008902728 0.07182529 0.01150353 -0.25961185 0.044272423 0.0049518724 -8.039213 -1.0124143
-0.08451592 0.2732191 -0.67683405 0.17233223 -0.03765416 0.038859803 0.55955595 -0.050133426
0.0247856 -0.48045906 0.14611016 -0.294097 -0.57512283 0.57369643 -8.095078 -1.2337855
0.48690727 -0.20124897 -0.12331284 -0.21688494 0.21611474 -0.15284383 -0.80759484 -0.36700746
-0.04284228 -0.15449663 0.11440441 0.023679849 0.15557134 -0.019285798 -0.6031885 -0.07634574
-0.054755107 0.1988112 -0.5373165 0.12150659 0.0077124666 0.030726725 0.20795506 0.40892294
-0.265745 0.20300844 1.172989 -0.12359248 0.02697645 -0.19998711 0.48985004 -0.038760442
0.006245995 0.10800379 0.10461407 0.48439816 -0.18203413 0.07580606 0.19244348 0.032488022
0.20375702 -0.20760839 0.74248433 -0.37864518 -0.10976776 -0.090753235 -0.44604042 -0.070762254
-0.23978281 0.272583 -0.37146023 0.22875276 0.072635174 -0.043270525 0.29694661 0.30145127
-0.0052149002 -0.26645753 0.65263337 -0.33884162 0.22623865 -0.1482729 1.049188 0.051314093
-0.2400347 0.065844156 0.43308175 -0.17480771 0.0072127185 0.08065281 0.08178082 -0.14276311
-0.10062726 0.07892672 0.09789653 0.30181625 -0.0044839145 0.1753571 -0.654543 0.022111155
-0.14489195 0.069019705 0.57665634 -0.061133064 -1.853264 -0.4246584 -2.274131 -0.3601297
-0.25025874 -0.02452076 -0.63242847 -0.110107124 -0.1994569 0.06793556 0.11735694 0.08480048
0.18291527 0.032719415 7.406041 0.10782268 0.056228425 -0.20052968 -0.06636913 -0.34150398
-0.15795176 -0.24895322 0.5337565 -0.07554152 -0.0018866507 -0.10934708 0.33994976 -0.13182187
-0.059282396 -0.1078375 -0.09899933 0.022645783 -0.1312684 0.09705299 0.13831998 -0.13870023
0.020667315 -0.22352362 9.071509 0.7511661 0.16293983 -0.2201127 0.062401615 -0.583645
0.16824342 -0.31780022 -0.22384545 -0.33216393 0.058694467 -0.19861837 -0.08487775 -0.2146429
-0.058041703 0.22482596 0.87626225 0.464431 -0.19222878 0.19727503 0.34390992 -0.010095253
1.4099003 0.014211331 -4.525398 -0.71830356 -0.13938789 -0.15466224 0.34811226 -0.034183193
0.21131061 -0.37805343 -3.264125 0.24066497 0.05782932 -0.15027471 0.10854795 0.019401422
-0.5459433 0.23335432 0.6720267 0.47502667 0.074354656 -0.1070948 0.6202881 -0.09619456
-0.12567338 0.3416924 -0.27401367 0.34575307 0.060814537 0.019390723 -8.169965 -0.5117205
0.020316552 -0.1710012 -0.5826736 0.17766596 -0.22417997 0.15526988 6.42063 0.01729246
-0.21885821 -0.07207094 0.3679145 -0.05765012 -0.14778022 0.07612023 -0.46093354 0.26121286
0.0988612 -0.16776103 -0.052978866 -0.016538534 0.024874892 -0.001837998 -0.3351884 0.10697989

fc1.bias f4 [128]
00000000: 6aa2 acbe a81a 73bf 7a51 31bf 8ede 27bf
00000010: ecb4 12c0 7c72 95bf 1c34 83bf fbbb e8bf
00000020: bc36 afbf 8a7e d4bf d6c5 81bf 2d92 d8be
00000030: d58e e3bf 6bae 0bc0 ad18 aebf ab3e b6bf
00000040: 6b4a 83bf 028e 0ebf 0185 37bf cc2e 73bf
00000050: c098 91bf eb89 a3bf 079a 7ebf 1f4e 1dbf
00000060: 9261 9cbf 28e7 82bf d8f2 40bf 17ba 9dbf
00000070: 3b57 69bf 62fa 8dbf 181e 82bf 65e2 84bf
00000080: a954 8dbf 075c e3bf 16da 84bf 3404 4ac0
00000090: 5f8a 89bf e110 08bf f700 fcbf c7c7 84bf
000000a0: f6ce acbf cfee 1abf 5880 72bf 4805 abbf
000000b0: 1335 dabf 6d65 c7bf da2f 6dbf 92d8 81bf
000000c0: 547b e6bf 6a23 8abf cb36 00c0 5af2 89bf
000000d0: 419b e2be 7608 acbf 10aa c4bf 21eb 18bf
000000e0: 2f42 8dbf 162c cfbf c90b 8abf 9c71 d0bf
000000f0: fcec 99bf 665a 9fbf 62e7 39bf 7222 fcbe
00000100: 6547 52bf b1d7 a8bf a474 80bf b6eb 97bf
00000110: 4fb5 a1bf 6713 4ebf 17c0 2bbf 3366 d8bf
00000120: 9f99 72bf 3020 58bf 8265 9bbf 4164 3abf
00000130: 024f c4bf 850a 13bf aa74 c9bf 6181 a4bf
00000140: 8d72 3dbf 044e d5bf e8b8 11be 235f 1abf
00000150: d5be e5bf dcd6 93bf 4eb8 9cbf 56bc a7bf
00000160: aaf3 93bf e893 70bf 9ce9 8abf a3c6 bebf
00000170: b571 50bf 4313 90bf 32b3 9fbf 6a96 b4bf
00000180: 52a2 afbf dc7d 86bf d457 93bf a32c 83bf
00000190: 1737 91bf 87f1 86bf 1be9 84bf 3cef 83bf
000001a0: ed8a 04c0 f3f8 c0bf f34f b0bf f157 c9bf
000001b0: 7725 babd f1cc fabe 6698 dcbe 187b 54bf
000001c0: 0229 e0bf 8a5d a1bf a918 8fbe cc48 80be
000001d0: b939 dfbf 4922 d7bf 6fd6 4ebf 1f64 30bf
000001e0: a95c 88be b7c6 52bf 5afa a3bf 9d8c d0bf
000001f0: d665 a8bf ffe1 dcbf 5fbe cbbf 2d8f e7bf
-0.33717662 -0.9496255 -0.6926495 -0.65573967 -2.2922926 -1.1675563 -1.0250278 -1.8182367
-1.3688579 -1.6601117 -1.01385 -0.42299023 -1.7777964 -2.1825206 -1.360128 -1.4237875
-1.0257086 -0.55685437 -0.7168732 -0.9499328 -1.1374741 -1.2776464 -0.9945378 -0.6144733
-1.2217276 -1.0226793 -0.7537055 -1.2322415 -0.9114873 -1.1092036 -1.0165434 -1.038159
-1.1041461 -1.776246 -1.0379055 -3.1565065 -1.0745353 -0.53150755 -1.9687794 -1.0373467
-1.350066 -0.60520643 -0.9472709 -1.3360987 -1.7047447 -1.5577828 -0.9265114 -1.0144217
-1.8006387 -1.0792058 -2.0033443 -1.0777085 -0.44259074 -1.3440082 -1.5364399 -0.5973378
-1.1035823 -1.6185329 -1.0784847 -1.6284671 -1.2025447 -1.2449462 -0.7261869 -0.4924503
-0.8214019 -1.3190824 -1.0035596 -1.1868808 -1.2633456 -0.80498356 -0.6708998 -1.6906189
-0.9476566 -0.84424114 -1.2140353 -0.72809225 -1.5336611 -0.57437927 -1.5738728 -1.2851983
-0.74002916 -1.6664433 -0.14230692 -0.6030142 -1.7948862 -1.1549945 -1.2243745 -1.310435
-1.1558735 -0.9397569 -1.0852542 -1.4904369 -0.81423503 -1.1255878 -1.2476561 -1.4108403
-1.3721411 -1.0507159 -1.1511178 -1.0247997 -1.1344937 -1.0542458 -1.0383638 -1.0307384
-2.0709794 -1.5075973 -1.3774399 -1.5729963 -0.09089177 -0.48984483 -0.4308502 -0.83000326
-1.7512515 -1.2606671 -0.27948502 -0.2505554 -1.743949 -1.6807338 -0.8079595 -0.6890277
-0.26633194 -0.82334465 -1.2810776 -1.6292912 -1.3156078 -1.7256469 -1.5917472 -1.8090569

fc2.weight f4 [128, 128]
00000000: 9609 86bd 3281 0cbe 3914 733c 9936 b6bd
00000010: 5bec bebd eec4 17bd a045 7d3c a3a7 aebd
00000020: 3a9e 4f3d 26ba 6bbc 6200 5f3d 3668 0cbe
00000030: 3d36 e93b fe91 08be 93fc 0dbe 5545 70bd
00000040: 20ca 61bc 3683 48bd 05b1 02be d97a a4bd
00000050: 19cf de3c 8b7c 01be 33c5 babd 70dc 9f3b
00000060: 7a19 3a3d f457 fbbc dead e33b 2742 b33c
00000070: ab2c 0ebe 2367 823b 0518 c3bc f8cc 93bd
00000080: cde1 15bd 9af9 16be 2f6c 543d b3b2 1fbd
00000090: 3e0b d1bd 4594 81bc 062d c7be 706c c8bd
000000a0: a224 5a3d 71ff 963d 4016 0ebb eff1 8c3d
000000b0: 21b4 fabd ba42 94bb 1aa7 59bd bd0d afbd
000000c0: a35d 8dbd daa9 95bd e05c 88bd d08d fdbb
000000d0: fc58 c9bd 90ce e2bb 8f50 e43d 0070 eab9
000000e0: 408e a33b d341 3abd b8b1 febd ce08 053c
000000f0: f888 67bc b4d1 91bd 604f b1bd 5ab6 e7bc
00000100: 40f1 97ba 5481 023d a2b2 46bd fde4 08be
00000110: b69a a7be 0d49 8dbd 659a abbd f008 2ebd
00000120: 0848 febc 72a7 79bd 3874 8bbd 574a 04be
00000130: 324a 123a 715b 033e f019 5fbc f7a1 c6bd
00000140: df00 643c 0298 8bba 3ed8 01be ead0 01bd
00000150: 50a0 d1bd 1edd 00bd 9e1a 5fbd bb2c b3bc
00000160: 27cc 0bbd c1d6 e13d ce34 5f3d 2ee0 753d
00000170: da45 13be 206d 08bb e129 8c3c 2ff3 85bb
00000180: 964e 9abc d8f7 8abd 45f7 aabd 48c9 dbbc
00000190: e8a0 c939 1ebd cfbd 037e b4bd 6015 96bd
000001a0: c896 4f3c 62b3 0fbd c64d fcbd 88de aebd
000001b0: 2fc6 e8bc 8856 01be 301d 1fbd 9a7a 9abd
000001c0: a91a b7be 4f5b 9b3b 6307 abbd 8c24 9c3c
000001d0: a636 abbd 8593 94be b5fe 9a3d 96af d9bd
000001e0: 8a7b 58bd f2b9 35bd 648d c73c 1230 c1b9
000001f0: c3d6 59bc f861 79bd 8019 22bb a13d e8bd
00000200: 79d1 91be 058b 993d b911 a73d 976c 8dbe
00000210: d051 a9bd dc86 fcbc 0220 343d 9879 e8bc
00000220: a809 5dbc 70f0 7fbd 8064 98bd aa0b 7a3d
00000230: 9bea 63bd d4b2 e73c 210e b43d a658 193d
00000240: 078d a53d 10c3 bcbc 405f 75bc c0a1 983b
00000250: 0fc4 b7be 2452 8ebd 40a2 c7ba 20d3 3bbb
00000260: 12ae 0b3d 8e0c e2bc 6e76 213d 033c aebd
00000270: ce16 89bd 3d98 893d 1826 91bd 5ab7 41bd
00000280: 51c7 c0be 1598 75be 26b4 30bd e26a 553d
00000290: 28fb 0bbd 598f 873d 2319 bebe fef3 4dbd
000002a0: 58ef 353c 579b ae3d 3f51 8f3d a16e 22bd
000002b0: 6036 153d 40d5 4a3c fb86 953d a3d4 57bd
000002c0: 0328 aebd 7ee3 13bd b9e4 813d 00df 94bc
000002d0: 6972 b7be b7ac 88bd cb35 963d 321a 1ebd
000002e0: 39d0 893d 84d6 babc 3435 08bd a50f 77be
000002f0: 24b1 bf3c c090 3ebb b5c1 8abd 0086 b0be
00000300: e7f6 983d 33bf 5ebd 60af 663b 4945 b13d
00000310: a32e 52bd 329f 0b3d 1aa3 6d3d e086 3d3c
00000320: 35a1 9d3d 61fb 80bd 00e5 a3be b0a3 afbd
00000330: 648d bcbe 086c e93c f83e 34bd 5eb0 a7bd
00000340: 315c 8b3d 48d0 8ebe 7aaa 373d 00ee 5bbb
00000350: 9e78 8dbd 35a0 803d b8ea af3c c08d ecbb
00000360: f7c3 a43d 2cb9 863c bcd5 e93c 302d 863b
00000370: 3c6b 86bc b435 aa3c 1038 343c 1abe c6be
00000380: 18f3 e7bc e262 2c3d 5eb9 93bd 6a4c e3bc
00000390: 78c8 fc3c 5086 b7bc 2847 113c 50d3 8b3b
000003a0: 612d 3dbd b679 95bd 6684 4f3d 102c a33c
000003b0: a1af b33d 472f a0bd e297 35bd ea17 6a3d
000003c0: ce3b b7be 20ab 823b 23b5 a8bd 78fa 0e3c
000003d0: bda3 9fbe cbf5 8fbd 1d31 9c3d 4ca6 99be
000003e0: 62b8 81be f2aa 393d b007 493c b99c 913d
000003f0: 58d7 87bd cb10 1abd 7f8a cabe 3029 b53b
-0.06544797 -0.13721159 0.014836364 -0.088971324 -0.09322425 -0.03705304 0.015458494 -0.08528068
0.050688006 -0.014387643 0.054443724 -0.13711628 0.0071170614 -0.13336942 -0.1386588 -0.05865987
-0.0137811005 -0.048953258 -0.1276284 -0.08031244 0.027198361 -0.12645166 -0.09119644 0.004878573
0.045434453 -0.030681588 0.006948217 0.02188213 -0.13884227 0.00397958 -0.023815164 -0.07216829
-0.036592294 -0.14743653 0.051860984 -0.03898878 -0.102072224 -0.01581777 -0.38901538 -0.09786308
0.053257592 0.0737294 -0.0021680743 0.06882083 -0.12241388 -0.004524556 -0.053137876 -0.08547542
-0.069026254 -0.07307787 -0.066583395 -0.0077378526 -0.098314255 -0.006921597 0.11148178 -0.00044715405
0.0049913228 -0.04547293 -0.12436241 0.008119775 -0.014131777 -0.07120076 -0.08657718 -0.028285194
-0.0011592284 0.03186162 -0.0485102 -0.13368602 -0.32735223 -0.06898699 -0.08379058 -0.042488992
-0.031040207 -0.060950704 -0.06809276 -0.12918983 0.0005580514 0.12827851 -0.013617024 -0.09698861
0.013916223 -0.001065016 -0.12680146 -0.031693377 -0.10235655 -0.031460874 -0.054468744 -0.021871915
-0.03413024 0.11027289 0.054493718 0.060028248 -0.14382115 -0.0020816997 0.017109813 -0.0040878276
-0.0188363 -0.06785554 -0.08347944 -0.026829377 0.00038457592 -0.10143493 -0.08813097 -0.07328296
0.012670226 -0.035083182 -0.123195216 -0.08538538 -0.028414814 -0.12630665 -0.038846195 -0.07542916
-0.35762528 0.0047411094 -0.08351018 0.019060396 -0.08360033 -0.29018798 0.07568113 -0.106291935
-0.05285219 -0.044366784 0.024359412 -0.00036847644 -0.013295832 -0.060884446 -0.0024734437 -0.1133988
-0.28480127 0.07497219 0.08157677 -0.2762191 -0.082675576 -0.030826025 0.043975838 -0.028378293
-0.013491072 -0.06248516 -0.07441044 0.06104628 -0.05564366 0.028283514 0.087917574 0.037438057
0.080835395 -0.023042232 -0.014976323 0.004657954 -0.35891768 -0.06949261 -0.0015230849 -0.0028659776
0.034101553 -0.027593877 0.039419584 -0.0850754 -0.06693803 0.0671849 -0.07087344 -0.047294
-0.37652066 -0.23983796 -0.043140553 0.052103885 -0.03417507 0.06619138 -0.37128553 -0.050281517
0.011104427 0.085257225 0.06997918 -0.039656285 0.03642881 0.012379944 0.07301136 -0.05269302
-0.085037254 -0.036105625 0.063424535 -0.018172741 -0.35829476 -0.06673568 0.07334479 -0.0385992
0.067291684 -0.022807367 -0.033253863 -0.24127062 0.023399897 -0.0029077977 -0.06775228 -0.34477234
0.07468968 -0.05438156 0.0035199746 0.08655793 -0.051314007 0.034087367 0.058016874 0.011567801
0.076967634 -0.06297947 -0.3201065 -0.08576143 -0.36826622 0.028493896 -0.044005364 -0.08187936
0.068046935 -0.2789328 0.044840313 -0.0033558607 -0.069077715 0.06280557 0.021474227 -0.0072190464
0.0804519 0.016445719 0.0285443 0.0040947422 -0.016408555 0.02077756 0.0109996945 -0.3881691
-0.028314158 0.04208649 -0.0721309 -0.027746398 0.03085731 -0.022402912 0.008867063 0.004267134
-0.046185855 -0.07298605 0.050663374 0.019918472 0.08773733 -0.078215174 -0.0443343 0.057151712
-0.35787815 0.003987685 -0.08237674 0.008726709 -0.3117961 -0.07029303 0.07626555 -0.30009687
-0.25335985 0.04532904 0.012269899 0.071099706 -0.066328704 -0.03761367 -0.3955879 0.0055285916

fc2.bias f4 [128]
00000000: 5735 b6be 057a c7be e024 c0be aa3a 2abe
00000010: ec50 6740 684d c43f 0779 17bf 759b 64bf
00000020: 208b f2be a1bc 88be 083f b3be b881 29bd
00000030: e6f0 5cbf 48aa 3dbf e324 cabe 9d49 d5be
00000040: c417 0abe eff7 91be 4031 02be 9f00 3e40
00000050: 9bca 2740 0efb 2b40 6fb7 c5be 07c1 ecbf
00000060: 4c46 1fbe b815 adbd 4cd6 49be d4e0 c2be
00000070: 8a7d 34bf c3c4 14bf 100c b2be 2435 27bd
00000080: d02d 12bc 732e 51bf 946a c4be 8fea 5340
00000090: 43fa 5540 3837 96be 68a2 b9be ac59 aabe
000000a0: fbc5 fe3f 8c55 a8be b4b1 68bf 950f c5be
000000b0: 83b0 b7bd 6b51 acbd cab7 2cbe f845 34bf
000000c0: 4a57 4740 8feb eebe 201a c23f ffde 21c0
000000d0: 6396 a8bd aa47 0cbf 258e 1340 cb1e 25bf
000000e0: 0c0c c7bd 2ba8 6cbd 084f 94bd 2a4d 44be
000000f0: 9226 46bf ee8a 4640 6add a7be 0e65 0cbe
00000100: 0b9d a3be 038c a2bf 19d4 05bf 4841 3840
00000110: 3b0a 06bf 947e 4ebe 9e58 c5be 78a8 a6be
00000120: a829 89be 586c 3e40 7276 c6bf d127 1ebe
00000130: 42ba ebbd 57fb d13f 41e5 a93f 0f7e c3be
00000140: b205 07be d8b9 adbf 675a fbbd c4c3 93be
00000150: 7201 2abf 1b60 dbbd 2c12 2ebe be86 fabd
00000160: 3c99 1c40 b9d5 e3bd d77e 6dbd 9acd 1a40
00000170: 3811 3440 d569 53bf 75fd 7fbe 8c30 3ebf
00000180: 51e4 c6be efbd d0be 1dec 97be c5c8 e7bd
00000190: 4810 83bd 64d6 0cc0 4feb 1cc0 81d0 f8bd
000001a0: ba6b bdbe 1f9c fabe 536d 15bf 0986 8dbf
000001b0: 5851 d0be 8ac7 7fbf ee41 a5be b7e8 f8be
000001c0: 9673 bdbe 7375 10bf b102 42bd 779a 05bf
000001d0: 441b bbbe e641 00be a225 06bf d4bc 6240
000001e0: 8bd8 a2be 321c b1bd 566d 0bbe d9fa b0be
000001f0: 207e c4be cdc1 8fbf 6a28 61c0 af72 53bd
-0.3558757 -0.3896028 -0.37528133 -0.16623941 3.614314 1.5336123 -0.5916905 -0.8929971
-0.4737177 -0.26706412 -0.35009027 -0.041383475 -0.8630508 -0.74087954 -0.39481267 -0.41657725
-0.13485628 -0.2850947 -0.127141 2.968788 2.621741 2.6871982 -0.3861651 -1.8496407
-0.1555416 -0.08451408 -0.19710654 -0.38062155 -0.7050406 -0.58112735 -0.34774828 -0.040822163
-0.008922055 -0.817115 -0.38362563 3.3111913 3.3433998 -0.29339004 -0.3625672 -0.3327154
1.9904169 -0.32877767 -0.90896153 -0.3848845 -0.08969214 -0.08413967 -0.16866985 -0.70419264
3.1147027 -0.46664092 1.5164223 -2.5292356 -0.08231809 -0.5479685 2.3055508 -0.6450011
-0.09719095 -0.057777565 -0.072416365 -0.19170061 -0.77402604 3.1022296 -0.32786113 -0.13710424
-0.31955752 -1.2698978 -0.5227676 2.8789845 -0.5235936 -0.20165473 -0.38544172 -0.32550406
-0.26789594 2.9753628 -1.5504897 -0.15444876 -0.11510135 1.6404828 1.3273088 -0.38182113
-0.13185766 -1.357234 -0.12273102 -0.28860295 -0.66408455 -0.1071169 -0.1699912 -0.12232731
2.4468527 -0.11124749 -0.057982292 2.418799 2.813551 -0.8258336 -0.2499903 -0.74292827
-0.38846067 -0.40769908 -0.29672328 -0.113175906 -0.0639959 -2.2005854 -2.451862 -0.12149144
-0.3699625 -0.48947236 -0.5836994 -1.1056529 -0.4068706 -0.9991385 -0.32276863 -0.48615047
-0.37002248 -0.56429213 -0.047365848 -0.5218882 -0.3654424 -0.12525138 -0.52401173 3.5427752
-0.31805834 -0.08647956 -0.13615927 -0.34566382 -0.38377476 -1.1231018 -3.5180917 -0.051623043

fc3.weight f4 [2, 128]
00000000: 0e83 ac3d 506e 17bd 3674 cb3f 97bb 67bd
00000010: 3d43 d63f 7c84 d03f 5283 243d 4ae8 faba
00000020: fea4 2a3d 738a 943e f906 f93c 8ad5 73bd
00000030: ef02 a43f 49ac aebe 674a c13d 22d9 65bf
00000040: 493e 24bc 2cb6 493d 964e 8bbd a848 0140
00000050: 8414 193f e6b5 0340 a0b3 20bc e228 d6c0
00000060: 0334 d83d d764 a2ba 24c6 1f3e 212e 813e
00000070: 4007 47bd 093b e43c fe06 70be ce03 ce3c
00000080: 29cf 7dbf 9f72 83bf c0f4 51bd 730f e83f
00000090: f599 0840 c2e3 51be 0b93 9b3e 888c 5a3c
000000a0: 3030 6abe d81e 943d bdf1 9fbe 1fe3 a6bb
000000b0: b934 683d 6e82 87bc ea19 313e 5063 aa3d
000000c0: 4ac3 2140 00b0 473e 5b7b 20be 5661 1e40
000000d0: 2513 cf3c 8d79 92be 3f1a b7bf 5387 32be
000000e0: 801c 9a3d 88d0 05ba ce0b 92bd 72c8 c03c
000000f0: 18aa a2be 8917 983f 57e7 9fbc 58ea ad3c
00000100: 0cfc 97be 8b31 17c0 e68f 0abe 5b7e e3bf
00000110: e1ca 9fbe 5a74 28bf adf4 3ebe 34f6 f03c
00000120: 8642 13be a954 be3f 06a7 1bc0 8400 923d
00000130: dbf3 903d 08c0 f5bf b83c 26bf d2d4 a03e
00000140: 5b88 85bd a9e2 10c0 c988 b23c 0ee9 a6bc
00000150: 1cf8 9ebd 89cb 60bd f5db 0ebe 9aca 7e3d
00000160: b458 bebf 52c2 263d cbf8 93bd 51dd 5b3f
00000170: f27b 643f 93cb a1bd 41d3 d53d 9588 363e
00000180: 6a27 53bb 8be8 f3bc b855 ce3d fd3f 133d
00000190: 7f69 a6bd 8bbe d0bf 6608 3c40 a687 babc
000001a0: 42bf 4a3c f986 bb3c e3ce 943e 7147 c43d
000001b0: 1610 17bd ece6 643e c60a 293d 4ec5 1a3d
000001c0: b9ce c23b 4cd8 833d 2ee5 8e3d 6b7f 91be
000001d0: 7a7a da3d 5065 a3bc fb7c 363c f3d3 0e40
000001e0: 7351 993e 5245 96bc b591 00be fd3e 083d
000001f0: 3e88 743d 9150 003e d9b3 38c0 b27e e13c
00000200: 7b81 3e3d ccf3 94be 5bbd ae3f ef5c d4bd
00000210: 876e c43f d9ef cdbe 33c9 27bd f3b8 1e3e
00000220: e37b 3cbe 9148 943c 8ba2 c23b babf aabc
00000230: 0adf 493f 6cba cfbd 5a1d ff3d ab45 51bd
00000240: bfb3 0d3e 6a92 9bbc 2755 53bd f441 883f
00000250: c0e7 c43f 594b e7bf 3f2c 59bb 5587 0cc0
00000260: 93ba bf3d dae5 8bbc 13b6 e4bd 5fa4 923e
00000270: 3bad e4be 8949 5fbd 0c61 86bd f762 d73c
00000280: bbf8 c23e daca 0dbf d679 7bbe c8bc 913f
00000290: f8d4 523e 7aad 183d 881b ac3c acd3 6dbe
000002a0: 02c3 a53f 0bf7 94be aeed 87be f016 dc3d
000002b0: 13d6 faba 1c7f 213d b735 a03d 94d8 893d
000002c0: 6451 6a3e 59c3 febf e280 303f ef56 b8bf
000002d0: 6dbb 45bd 9e32 f63d e340 c53f 9219 a1bd
000002e0: c3f3 e33b 1d16 2f3d 0a73 71bd 8d83 a13d
000002f0: 7a39 05be d15c 923f 4758 eb3d da9b d43c
00000300: a6d7 37bd e08f 683f 046f c53d af45 b43f
00000310: be8d d3bd a58a 8bbd 28ca aa3d 51af 75be
00000320: 35a7 9abe 51c0 453f 980a 3bc0 10c1 a73c
00000330: 6748 9b3b 76b3 e63d 31b5 383f 6b10 ea3d
00000340: b2b3 1bbd 0822 cfbf f94b d93d dfa2 c33a
00000350: e574 0abe b21d f4bc 6618 6fbd b5e5 7d3c
00000360: d1cb 0340 bd47 763c 9462 77bd 9b4f 5c3f
00000370: 7c26 c33f 6cd4 20bf e290 95be d3c9 013d
00000380: 285a e53a f96d 9abe 1b98 63be 398c 5d3d
00000390: 4ba6 843c 66a9 e5bf 8d44 cabe aa90 87bc
000003a0: 642a 76be a90f 6b3e d23b 823e f28e 883e
000003b0: 27f9 843e 2361 cebe eff4 93be ed3c 203e
000003c0: c182 5fbe 8b4e 08be 47b5 bbbb 4471 e13d
000003d0: 54a7 0c3c 3470 a6bb 7e57 a0bd 11c3 b23f
000003e0: fe43 8d3d 4337 66bc f7f5 013e 831e 473e
000003f0: 12fc 9f3e 558c f03f 71c6 82c0 2e21 48bc
0.08423434 -0.036970437 1.589484 -0.056575384 1.673927 1.6290431 0.0401643 -0.0019142714
0.041661255 0.29011878 0.030398833 -0.05952982 1.2813395 -0.34115818 0.09438019 -0.89784443
-0.010024616 0.049246 -0.068020985 2.0200596 0.5979693 2.0579772 -0.009808451 -6.6924906
0.105567954 -0.0012389672 0.15602928 0.25230506 -0.0485909 0.027860181 -0.23440167 0.025148299
-0.99144226 -1.0269355 -0.051258802 1.8129715 2.1343968 -0.20497039 0.30385622 0.013339169
-0.22869945 0.072324455 -0.3123912 -0.005092993 0.056690905 -0.016541686 0.17295042 0.083197236
2.5275445 0.19500732 -0.15672056 2.474691 0.025277684 -0.2860836 -1.4304885 -0.17434435
0.07524967 -0.0005104621 -0.07131158 0.02353308 -0.31770396 1.1882182 -0.019519491 0.021229908
-0.29684484 -2.3623989 -0.13531455 -1.7772936 -0.31209472 -0.6580254 -0.18648024 0.029414274
-0.14380845 1.4869586 -2.4320693 0.071290046 0.07077762 -1.9199228 -0.649364 0.3141237
-0.06520148 -2.2638342 0.02179374 -0.020374801 -0.07762167 -0.054881606 -0.13951094 0.062204935
-1.487082 0.040712662 -0.07225188 0.8588458 0.89251626 -0.07900157 0.10440684 0.1782554
-0.0032219538 -0.029773971 0.10074943 0.035949696 -0.081255905 -1.6308149 2.9380126 -0.02276976
0.012374701 0.022891508 0.29064092 0.09583939 -0.036880575 0.22353715 0.04127004 0.03778582
0.0059450534 0.0643774 0.06977306 -0.28417525 0.10667892 -0.01994577 0.011138196 2.2316864
0.29944953 -0.018343601 -0.12555583 0.033263195 0.059700243 0.12530734 -2.885977 0.027526233
0.0465102 -0.29092252 1.3651537 -0.10369288 1.534623 -0.40222052 -0.040963363 0.1550024
-0.18406634 0.018101009 0.005939787 -0.020843375 0.78855956 -0.10142979 0.1245677 -0.05109183
0.13838099 -0.018990714 -0.05159488 1.0645127 1.5383224 -1.8069869 -0.0033137945 -2.19576
0.09361758 -0.017077375 -0.111675404 0.2864103 -0.44663414 -0.054513488 -0.06561479 0.026292307
0.3808039 -0.5538765 -0.24558195 1.1385736 0.20589054 0.037274815 0.021009222 -0.23225278
1.2950137 -0.2909473 -0.26548523 0.107465625 -0.0019137285 0.03942786 0.07822745 0.06730762
0.2288261 -1.9903365 0.6894666 -1.440153 -0.048274446 0.12021373 1.5410427 -0.07866205
0.006956549 0.0427457 -0.0589476 0.078864194 -0.13010207 1.1434575 0.11491447 0.025953222
-0.044883393 0.90844536 0.09640315 1.4083766 -0.103297696 -0.06813554 0.083393395 -0.23992659
-0.30205694 0.77246577 -2.9225216 0.020477802 0.0047388556 0.11264698 0.72151476 0.11428913
-0.038013168 -1.618226 0.10610194 0.0014925859 -0.13521154 -0.029799316 -0.058372878 0.015496661
2.059315 0.015031752 -0.060396746 0.8605897 1.524612 -0.6282413 -0.292121 0.031686615
0.0017498182 -0.30162027 -0.22225992 0.054088805 0.016192576 -1.7942321 -0.39505425 -0.016548473
-0.24039608 0.22955193 0.25436264 0.2667156 0.25971338 -0.40308484 -0.28897807 0.15648241
-0.21827222 -0.13311212 -0.005728397 0.11007932 0.008584816 -0.0050792936 -0.07829188 1.396578
0.06897734 -0.014051261 0.12691484 0.19445233 0.31247002 1.8792826 -4.086724 -0.012214942

fc3.bias f4 [2]
00000000: e804 7240 0a0b 6d40
3.7815495 3.7037988
