weights/strategy_adaptive_rewards.pth (torch, 72508 bytes, 6 tensors)

fc1.weight f4 [128, 4]
0	0xbc0452ed	-0.008076412
1	0x3d7624b4	0.060093597
2	0x3ee4b2bc	0.44667614
3	0xbbbd1ba6	-0.005771118
4	0x3e94015c	0.28907287
5	0xbf1616b0	-0.5862837
6	0x3feeb9a7	1.8650407
7	0xbf806174	-1.002974
8	0x3e00a2cc	0.12562102
9	0xbd97f96e	-0.07420622
10	0x3e826958	0.25470996
11	0xbdcb5a8e	-0.09929381
12	0xbee3d7e9	-0.44500664
13	0x3edcb9f0	0.4311061
14	0x40021bd0	2.0329475
15	0x3f22206c	0.6333072
16	0x3dc92167	0.09820824
17	0xbdc904a4	-0.09815338
18	0x3f6b2b0a	0.9186255
19	0xbe8a50f5	-0.2701489
20	0xbe4e46a7	-0.20144139
21	0xbd8012ac	-0.062535614
22	0xbe8bc1aa	-0.2729619
23	0x3d77ab40	0.06046605
24	0xbe39b237	-0.1813439
25	0x3ddfc38c	0.109259695
26	0x3e8d2bec	0.27572572
27	0x3ebb2274	0.36549723
28	0xbef9215b	-0.4865826
29	0x3e8a8840	0.27057076
30	0xbec8ff83	-0.3925744
31	0x3f118602	0.56845105
32	0x3d8806cc	0.066419214
33	0x3d659e41	0.056059126
34	0x3eacf55e	0.3378095
35	0xbd6a99f4	-0.057275727
36	0x3decd797	0.11564558
37	0xbdfc7247	-0.12326484
38	0xbeac0d41	-0.33603862
39	0x3d5e5982	0.05428458
40	0xbae9dbea	-0.0017842029
41	0xbb26ed7e	-0.0025471146
42	0x3deb895d	0.11500809
43	0xbc21ed76	-0.009883275
44	0xbe089fa4	-0.13342148
45	0xbe42dffd	-0.19030757
46	0xbe427ddd	-0.18993326
47	0x3edfd470	0.43716764
48	0x3fc76534	1.557776
49	0x3ea593f7	0.3233945
50	0x3e0710f1	0.13190056
51	0x3db13359	0.08652372
52	0x3e831838	0.25604415
53	0xb9a4a8e1	-0.00031406342
54	0xba743934	-0.0009316385
55	0x3e39d62c	0.18148106
56	0xbc4c54f9	-0.012471431
57	0x3d5e5a11	0.054285113
58	0x4107abab	8.479411
59	0x3ea575c7	0.3231642
60	0xbddb0ea3	-0.10696151
61	0x3d93dda6	0.072200105
62	0x3f47491f	0.7784595
63	0x3ec1312f	0.37732837
64	0x3e24a87d	0.16079898
65	0xbdbf79b2	-0.093493834
66	0xbe78b126	-0.24286327
67	0xbea6590f	-0.3248982
68	0x3d8b07e2	0.06788613
69	0xbeaafcad	-0.333959
70	0x3fdd3ddd	1.7284504
71	0xbf90c939	-1.1311408
72	0x3d6e97da	0.058250286
73	0xbd8a715b	-0.06759902
74	0xbebb472f	-0.36577746
75	0x3e36a624	0.17836815
76	0xbe0d6c08	-0.13810742
77	0x3c395df6	0.011313906
78	0x3f8e6d75	1.1127154
79	0xbe5b73ea	-0.21430936
80	0x3eeaf2c2	0.45888335
81	0xbf674fb4	-0.9035599
82	0xc08dc32a	-4.4300737
83	0xbffb94e7	-1.9654816
84	0x3c38bcf8	0.011275522
85	0xbd6e97cf	-0.058250245
86	0xbf5ee48c	-0.87067485
87	0xbe003e58	-0.12523782
88	0xbd02acad	-0.031902958
89	0x3d8afe78	0.06786817
90	0x3f309b83	0.6898729
91	0x3d121e78	0.03567359
92	0x3c8459f2	0.01615617
93	0xbcbf9658	-0.02338712
94	0xbe4cc766	-0.1999794
95	0xbd7ccb3c	-0.061717257
96	0xbcaccb4f	-0.021093039
97	0x3e044c0d	0.12919636
98	0x3f4e612c	0.8061702
99	0x3ddc4c32	0.107567206
100	0xbd6cfb40	-0.0578568
101	0xbd8f9a0d	-0.07011805
102	0xbe63e6a9	-0.22255959
103	0x3e1e16d1	0.15438391
104	0x3da63f24	0.08117512
105	0x3e22f3fc	0.15913385
106	0x3e56dbee	0.20982334
107	0xbe7b1328	-0.24519026
108	0xbdd97fc1	-0.1062007
109	0x3d7d51e6	0.061845683
110	0x3fb8e036	1.4443424
111	0x3f5d8a82	0.8653947
112	0xbe8de944	-0.2771703
113	0x3eab6d83	0.33481988
114	0xbf1e2572	-0.61775887
115	0x3f061899	0.52381283
116	0x3e05b8a0	0.1305871
117	0xbd0aadca	-0.033857144
118	0x3ed25a44	0.41084492
119	0x3cd1d8cb	0.02561607
120	0xbe395da1	-0.18102123
121	0xbc8b90c1	-0.017036797
122	0x3eb5e719	0.35527876
123	0xbddb2691	-0.10700715
124	0x3e3bdb7a	0.18345442
125	0x3c50fde7	0.012755848
126	0xbeac516d	-0.33655873
127	0x3ea155d9	0.3151081
128	0xbea29598	-0.31754756
129	0x3d0511b5	0.03248759
130	0xbf418ef6	-0.75608766
131	0xbdb3f749	-0.087874
132	0xbc1ddeda	-0.0096356515
133	0x3b4066e5	0.0029358205
134	0x4069c81e	3.6528392
135	0xbddfde1a	-0.109310344
136	0xbe0480c0	-0.12939739
137	0x3dfd33ea	0.123634174
138	0x3ea127b5	0.31475607
139	0x3e0cfa9f	0.1376748
140	0x3f29d5ae	0.66341674
141	0xbeff45e9	-0.49858025
142	0xbf7a421d	-0.9775713
143	0xbf88ed9c	-1.0697513
144	0x3fbd22c5	1.4776236
145	0x3f0a3d8a	0.5400015
146	0x405b60ec	3.4277906
147	0x3f260022	0.6484395
148	0xbe88f32a	-0.2674802
149	0x3d662d34	0.056195453
150	0x3ee2ba4a	0.44282752
151	0x3ebcf282	0.3690377
152	0x3e085444	0.13313395
153	0xbe3bd350	-0.18342328
154	0x3f3c2749	0.73497444
155	0xbddfaab2	-0.109212294
156	0xbd15a878	-0.036537617
157	0x3d792578	0.06082675
158	0x3eaa67fb	0.33282456
159	0x3d00d65c	0.03145443
160	0xbc92b4a2	-0.017908398
161	0x3dee8adb	0.11647578
162	0x3f004188	0.5009999
163	0x3ea3a901	0.31964877
164	0xbe8f14cc	-0.27945554
165	0x3d908dbf	0.07058286
166	0xbe650262	-0.2236419
167	0xbd9b6170	-0.07586944
168	0xbd2a2496	-0.041538797
169	0x3ddff6ec	0.109357685
170	0x3e7eea17	0.24893986
171	0x3e0befd3	0.13665704
172	0x3df8705b	0.12130805
173	0xbe18f942	-0.14938834
174	0xbd7cc169	-0.061707888
175	0xbe7096bf	-0.23495005
176	0x3d6cb3b0	0.05778855
177	0xbd2ef409	-0.0427132
178	0x3f13d67a	0.5774914
179	0xbdbceb84	-0.092246085
180	0xbea4a53b	-0.3215731
181	0x3e67ffa8	0.22656119
182	0x3f4eb333	0.80742186
183	0x3f0e956b	0.55696744
184	0x3e103fbf	0.14086817
185	0xbe992a9b	-0.29915318
186	0x3d8ec90a	0.06971939
187	0xbeefd31b	-0.46840748
188	0xbf8f27ba	-1.1183999
189	0xbf176e9a	-0.5915314
190	0x40b6e7ba	5.715787
191	0x3ebec459	0.37259176
192	0x3e723cc5	0.23655994
193	0xbddf85e9	-0.10914213
194	0x3f53a223	0.82669276
195	0xbed60445	-0.41800132
196	0x3a573dfe	0.00082108367
197	0xbda4535a	-0.080237105
198	0xc10f8bdb	-8.971644
199	0xbf62e8d5	-0.88636523
200	0x3c459ead	0.012061757
201	0x3d75db63	0.060023677
202	0x3e283271	0.16425492
203	0xbd286f8e	-0.04112201
204	0xbda783e2	-0.081794515
205	0x3d785cfb	0.060635548
206	0x3f0956d5	0.5364812
207	0xbd584c6b	-0.052807253
208	0xbe9cf402	-0.30654913
209	0xbdf7790d	-0.120836355
210	0x3eb8cad4	0.36092246
211	0xbc62be52	-0.013839321
212	0x3fa9438f	1.3223742
213	0xbeeb4a3a	-0.45955068
214	0x3e8b4601	0.27201846
215	0xbf74215c	-0.953634
216	0xbdfd91ed	-0.12381349
217	0x3cf0a6ca	0.029376406
218	0x3e3d331f	0.18476532
219	0x3e058d58	0.130422
220	0xbdd8718b	-0.105685316
221	0xbd780f4e	-0.06056147
222	0xbf3ac79e	-0.7296084
223	0x3ece6dbe	0.40318102
224	0x3c068746	0.008210963
225	0x3d94ff46	0.07275252
226	0xbd27fa8e	-0.041010432
227	0xbd41897c	-0.047250256
228	0xbe2968dc	-0.16543907
229	0x3e00a6a8	0.12563574
230	0x3e0ca425	0.13734491
231	0xbe35d742	-0.17757896
232	0x3caec236	0.021332841
233	0x3c350dfd	0.011050698
234	0xbd960576	-0.0732526
235	0xbdfbb01c	-0.122894496
236	0xbda015cf	-0.0781666
237	0xbc8b16ba	-0.01697861
238	0xbdc65718	-0.096845806
239	0x3e3bf46b	0.18354957
240	0x3d468faf	0.04847687
241	0xbdef4df7	-0.116847925
242	0xbf09cc98	-0.5382781
243	0x3d06ec86	0.03294041
244	0xbf1cfb46	-0.6132091
245	0x3f185583	0.5950548
246	0x3ebbcdea	0.36680537
247	0x3fa23a35	1.2674013
248	0x3cfcc41e	0.030855235
249	0xbd01b614	-0.031667784
250	0x4111ce91	9.112931
251	0x3fac2631	1.3449155
252	0x3c9ac89d	0.018894488
253	0xbd1653aa	-0.036700882
254	0x3e45f230	0.19330668
255	0x3daf97b7	0.08573859

fc1.bias f4 [128]
0	0xbf8b7c28	-1.0897264
1	0xbfdb10f2	-1.7114546
2	0xbf0742e2	-0.5283643
3	0xbfffd372	-1.9986403
4	0xbf4249dd	-0.75893956
5	0xbf93fa30	-1.1560726
6	0xbf869df5	-1.0516955
7	0xbfdb32a5	-1.712483
8	0xbfa2a786	-1.2707374
9	0xbf680f05	-0.9064792
10	0xbdb3ac65	-0.08773116
11	0xbfe718bb	-1.8054422
12	0xc06be559	-3.6858733
13	0xbf92cc35	-1.1468569
14	0xbfe061bb	-1.7529825
15	0xbf9cc5dd	-1.2247883
16	0xbf696bf7	-0.91180366
17	0xc00238c7	-2.0347154
18	0xbf920bdb	-1.1409868
19	0xbf5b3bf0	-0.8563833
20	0xc004dbd9	-2.0759184
21	0xbf0a8859	-0.541143
22	0xbf30a846	-0.69006765
23	0xbf9e7f95	-1.2382685
24	0xbf74b2e9	-0.95585495
25	0xbf8d0a25	-1.1018721
26	0xbfc321f7	-1.524474
27	0xbff94d55	-1.9476725
28	0xbfcfaf83	-1.6225437
29	0xbf6a365b	-0.9148919
30	0xbf74e128	-0.9565606
31	0xbfdc2fd3	-1.7202095
32	0xbfa8a88b	-1.3176435
33	0xbf7c9f0b	-0.9868018
34	0xbf8b3ab3	-1.0877289
35	0xbff14add	-1.8850971
36	0xc04dd848	-3.2163258
37	0xbf8ea8ed	-1.1145302
38	0xbf29a9a5	-0.6627448
39	0xbef338e6	-0.47504348
40	0xbf72b034	-0.94800115
41	0xbf91bed4	-1.1386361
42	0xbf3525e2	-0.7076093
43	0xbee85870	-0.45379972
44	0xbe9609a3	-0.29304227
45	0xbfd526a9	-1.6652423
46	0xbf404a6c	-0.7511356
47	0xc0091a86	-2.1422439
48	0xbf91a406	-1.1378181
49	0xbfe7d493	-1.8111748
50	0xbf742cb0	-0.9538069
51	0xbf8af9a0	-1.085743
52	0xbfadbbe3	-1.3572963
53	0xbf474568	-0.7784028
54	0xbf30537a	-0.68877375
55	0xbfb5fa1a	-1.421695
56	0xbf83d79a	-1.0300171
57	0xbf75641c	-0.9585588
58	0xbf847c68	-1.0350466
59	0xbf19acb2	-0.6002914
60	0xbf940de5	-1.156674
61	0xc0108221	-2.2579424
62	0xbfe54aa8	-1.7913408
63	0xbf7fa493	-0.99860495
64	0xbf384f29	-0.7199579
65	0xbfe2d52a	-1.7721303
66	0xbf16259b	-0.5865113
67	0xbf039993	-0.5140621
68	0xbf82669c	-1.0187564
69	0xbff5c3bd	-1.920036
70	0xbf47e491	-0.7808314
71	0xbfacc81b	-1.3498567
72	0xbf7a1b56	-0.9769796
73	0xbfa99812	-1.3249533
74	0xbf847aec	-1.0350013
75	0xbf7a1a7a	-0.9769665
76	0xbfe308b1	-1.7737027
77	0xbf969a87	-1.1765908
78	0xbfa08793	-1.2541374
79	0xbf845972	-1.0339797
80	0xbfc56c34	-1.5423646
81	0xbf807e1e	-1.0038488
82	0xbf781fd0	-0.9692354
83	0xbff01c98	-1.8758726
84	0xbf7723db	-0.96539086
85	0xbfb75b08	-1.4324656
86	0xbffee815	-1.9914576
87	0xbf8fa28c	-1.122148
88	0xbf2cba01	-0.6747132
89	0xbfa510d3	-1.2895759
90	0xc00b3636	-2.1751838
91	0xbf32fa54	-0.6991322
92	0xbfe0f1dc	-1.757381
93	0xbfb9a04d	-1.4502045
94	0xbfb15310	-1.3853474
95	0xbf179a04	-0.59219384
96	0xbf3be5f1	-0.7339774
97	0xc04ca53a	-3.1975846
98	0xbfac47b2	-1.345938
99	0xbf608d2e	-0.87715423
100	0xbf9facc1	-1.2474595
101	0xbf29aeff	-0.6628265
102	0xbf802598	-1.0011473
103	0xbf8d3afc	-1.1033626
104	0xbfb5668b	-1.4171919
105	0xbf67295e	-0.90297496
106	0xbf7e2590	-0.99276066
107	0xbf916577	-1.135909
108	0xc0312f8c	-2.768527
109	0xc012f4bd	-2.2961876
110	0xbf5fe279	-0.87454945
111	0xbf9ce9e8	-1.2258883
112	0xbf785712	-0.9700786
113	0xbf28df58	-0.65965796
114	0xbf855a24	-1.0418134
115	0xbf369a80	-0.713295
116	0xbf872c93	-1.0560478
117	0xbfb478b8	-1.409934
118	0xbf90762b	-1.1286062
119	0xbfc9e440	-1.5772781
120	0xbf31949b	-0.6936738
121	0xc0454b8b	-3.0827358
122	0xc037bd32	-2.8709226
123	0xbed65051	-0.41858152
124	0xc0762412	-3.8459516
125	0xbf74d75b	-0.95641106
126	0xc00b88ee	-2.1802325
127	0xbfc23fa4	-1.5175672

fc2.weight f4 [128, 128]
0	0x3d82098f	0.063494794
1	0xbe13d782	-0.14437678
2	0xbe0ce1c7	-0.13758002
3	0x3b8b6b20	0.0042547137
4	0xbd291c5f	-0.041286822
5	0xbe001968	-0.12509692
6	0xbdaf4847	-0.08558708
7	0xbcd5e105	-0.026108274
8	0xbd695adc	-0.056971416
9	0xbd81f51c	-0.06345579
10	0xbdfdbfdc	-0.1239011
11	0xbdad01f4	-0.08447638
12	0xbd579ee2	-0.052641757
13	0xbd26b987	-0.040704276
14	0xbda91606	-0.08256154
15	0xbe0d4ecb	-0.13799588
16	0x3d8409f7	0.06447213
17	0xbda92263	-0.08258512
18	0xbd79f702	-0.06102658
19	0x3d5fe44e	0.054661088
20	0xbe9a76bd	-0.30168715
21	0x3caa2e58	0.020774052
22	0x3d5a4e4a	0.05329732
23	0x3b54ae80	0.0032452643
24	0x3d7caf02	0.061690338
25	0xb9a5c100	-0.0003161505
26	0xbd3d8e51	-0.0462783
27	0xbe1056bc	-0.14095587
28	0xbdadbb6b	-0.08483013
29	0xbd48bbcf	-0.049007233
30	0xbdbaadc1	-0.09115172
31	0x3d1cac86	0.03825047
32	0x3d0732e0	0.033007503
33	0xbda3de6f	-0.0800141
34	0x3d09cbde	0.03364169
35	0xbdbc366c	-0.09190068
36	0xbe03295f	-0.1280875
37	0xbab17b40	-0.001354076
38	0xbe006a2e	-0.12540504
39	0x3c949b0e	0.018140342
40	0x3d516dee	0.051130228
41	0xbe06fa7b	-0.13181488
42	0xbd93c55c	-0.07215378
43	0xbe066a7e	-0.13126561
44	0xbe17cbef	-0.14823888
45	0xbdd3b815	-0.10337845
46	0xbe039bc4	-0.12852389
47	0xbcc2ddbf	-0.023787377
48	0xbcfbb4cd	-0.030725861
49	0xbd147bac	-0.036250755
50	0x3c77ca30	0.015123889
51	0x3ca0ad70	0.019613951
52	0xbdf13550	-0.11777747
53	0x3c64e916	0.013971588
54	0xbdac0e36	-0.08401148
55	0xbb602180	-0.0034199655
56	0x3da05895	0.07829396
57	0xbdb03315	-0.08603493
58	0x3d7b2b26	0.061320446
59	0xbbb61e32	-0.005557799
60	0x3d5c06e2	0.0537175
61	0xbdf4569f	-0.11930584
62	0xbdb050e8	-0.08609182
63	0x3d891239	0.06692929
64	0x3d60154e	0.054707818
65	0x3bd12a70	0.006383233
66	0xbd90db27	-0.0707305
67	0xbe0a95c5	-0.13533695
68	0xbce1d80b	-0.027568838
69	0xbcbe373c	-0.023219697
70	0xbe0b986e	-0.13632366
71	0xbd3eb3b9	-0.046558116
72	0xbdf69149	-0.1203943
73	0xbe08a015	-0.13342316
74	0xbe061d21	-0.1309705
75	0x3d9dc057	0.077027015
76	0xbc639b16	-0.013891956
77	0xbcbde3f0	-0.023179978
78	0xbd1750b2	-0.03694219
79	0xbd11e00f	-0.03561407
80	0x3db3777b	0.087630235
81	0xbb2ad59d	-0.0026067265
82	0xbd852298	-0.06500739
83	0xbe051a1c	-0.12998241
84	0xbc2b151f	-0.010442047
85	0xbd6f0eb0	-0.058363616
86	0xbd554ab4	-0.052073196
87	0x3b9cb2ce	0.0047820574
88	0xbdafdd2f	-0.08587109
89	0xbdab91d4	-0.08377424
90	0xbe133337	-0.14375006
91	0xbd7263a6	-0.059177063
92	0xbc78106d	-0.015140635
93	0xbd7d7b5a	-0.061885215
94	0x3cdf1427	0.02723129
95	0xbde020bd	-0.10943744
96	0xbdbb2f9b	-0.091399394
97	0x3b13c0ed	0.0022545413
98	0xbdaeceaf	-0.085355155
99	0xbdb8ef9b	-0.09030076
100	0xbdd1af7a	-0.102385476
101	0xbc2e6260	-0.010643572
102	0xbd1a66b2	-0.037695594
103	0xbc0616ed	-0.008184177
104	0x3aa14ac0	0.0012305602
105	0x3c4da1f0	0.012550816
106	0xbdb98e07	-0.09060293
107	0xbd56f20e	-0.052476935
108	0x3b137b11	0.0022503773
109	0x3d9c8609	0.07642753
110	0x3c4e0e37	0.012576631
111	0xb9366400	-0.00017394125
112	0xbcea0128	-0.028565004
113	0xbd4e5505	-0.05037405
114	0x3c17479d	0.0092333825
115	0x3da96093	0.08270373
116	0xbdab165d	-0.08353875
117	0x3be4f980	0.0069877505
118	0xbc49aa4c	-0.012308668
119	0xbe04d73e	-0.12972733
120	0xbdf354aa	-0.11881383
121	0xbdc6ebb2	-0.09712924
122	0xbc4f6829	-0.012659111
123	0xbd4dc416	-0.05023583
124	0xbd520477	-0.05127379
125	0xbc9bcc1e	-0.01901823
126	0xbe010900	-0.1260109
127	0x3d050b4c	0.032481477
128	0x3d07465e	0.03302609
129	0xbe3f6078	-0.18689144
130	0x3e0365fa	0.1283187
131	0xbe84ba1a	-0.25923234
132	0xbe0dbbfa	-0.13841239
133	0xbe8ab785	-0.2709314
134	0xbead5daa	-0.33860523
135	0xbe930bca	-0.28719932
136	0xbe0229d7	-0.12711273
137	0xbe875e06	-0.26438922
138	0xbddba1f7	-0.10724252
139	0xbdbebe60	-0.09313655
140	0xbe0bbb1c	-0.13645595
141	0x3d3dbe85	0.04632427
142	0xbe1af765	-0.15133436
143	0x3d9c0412	0.07617964
144	0xbead4d2c	-0.3384794
145	0xbea30619	-0.3184059
146	0x3d8cde52	0.06878342
147	0x3dd9283b	0.106033765
148	0xbf49afdd	-0.7878397
149	0xbc696bd0	-0.014246896
150	0xbe4499bd	-0.19199272
151	0xbd624839	-0.05524466
152	0x3c6d2a8a	0.014475474
153	0x3e907c9f	0.28220078
154	0x3dbb8ed9	0.091581054
155	0x3e1defd7	0.15423523
156	0xbc822b10	-0.015889674
157	0xbdfa3019	-0.12216205
158	0x3c1daeb7	0.009624175
159	0xbd07bda8	-0.033139855
160	0x3e05b75f	0.13058232
161	0xbe40d64f	-0.18831752
162	0xbd86d832	-0.06584205
163	0xbe81d14c	-0.25354993
164	0xbd582b15	-0.05277546
165	0xbe0ad8e3	-0.13559298
166	0xbe2aee26	-0.16692409
167	0xbe0a3717	-0.13497578
168	0xbd58db09	-0.052943263
169	0xbe582b46	-0.21110258
170	0xbe0b0d3c	-0.13579267
171	0xbe987978	-0.29780173
172	0xbe17003f	-0.14746188
173	0xbc0a383d	-0.00843626
174	0xbd36aa6e	-0.04459613
175	0xbe393ccf	-0.18089603
176	0xbeed8fbe	-0.4639873
177	0xbeb47eb7	-0.35252926
178	0xbd13990f	-0.03603464
179	0xbd38ed13	-0.045147967
180	0xbf1d89b7	-0.6153826
181	0xbe1102e0	-0.14161253
182	0x3d372db0	0.044721305
183	0xbd803de1	-0.062618025
184	0x3e2ab42d	0.16670294
185	0x3bc0d556	0.0058848066
186	0xbcd10019	-0.025512742
187	0xbd599a8f	-0.053125914
188	0xbce7ce6e	-0.028296676
189	0x3c592452	0.013253288
190	0xbe25c94a	-0.16190067
191	0x3b2c3bc0	0.002628073
192	0xbe0cb430	-0.13740611
193	0xbf119f8d	-0.5688408
194	0xbd7e981d	-0.062156785
195	0xbdb628d2	-0.088945046
196	0xbda35eeb	-0.079770885
197	0xbdf16cef	-0.117883556
198	0xbdae54dc	-0.085122794
199	0xbe153edc	-0.1457476
200	0xbd9203d8	-0.071296394
201	0xbea6b1c4	-0.325575
202	0xbcbdba03	-0.023159986
203	0xbcdd60aa	-0.027023632
204	0xbdcd312a	-0.10019143
205	0xbe747745	-0.23873623
206	0xbd9ee8d7	-0.077592544
207	0xbc6ce814	-0.014459629
208	0xbe33af59	-0.17547359
209	0xbe2ce636	-0.16884694
210	0x3daf9143	0.08572628
211	0xbd4ea2cd	-0.050448228
212	0xbdbba6ae	-0.09162651
213	0xbddf456e	-0.109019145
214	0x3ec3d4b5	0.3824822
215	0xbdb82b66	-0.089926526
216	0xbde26643	-0.11054661
217	0x3ce3c7a8	0.027805164
218	0xbde0fb63	-0.10985448
219	0x3ef88720	0.48540592
220	0xbd0ec897	-0.034859266
221	0xbd51d5c0	-0.05122924
222	0x3e19e70c	0.15029544
223	0x3d554a53	0.052072834
224	0xbd3b8aaa	-0.045786537
225	0xbe2b558a	-0.1673185
226	0xbd8147c4	-0.06312516
227	0xbef9f056	-0.48816174
228	0xbb55de2f	-0.0032633652
229	0xbe6669b0	-0.22501254
230	0xbd160766	-0.03662815
231	0xbe12beea	-0.1433064
232	0x3f223f06	0.63377416
233	0xbcc8d459	-0.024515318
234	0xbe59ace7	-0.21257363
235	0x3d68679e	0.056739442
236	0xbd401b15	-0.046900827
237	0xbde3a38c	-0.111151785
238	0x39929c2d	0.0002796365
239	0x3e58bc1e	0.21165511
240	0xbede829c	-0.43459022
241	0x3b3b6fc0	0.0028600544
242	0xbd7a5c74	-0.061123326
243	0x3c1932ee	0.0093505215
244	0xbdfac555	-0.12244669
245	0xbda4196e	-0.08012663
246	0xbe062d52	-0.13103226
247	0x3e3938c6	0.18088064
248	0xbe23ec91	-0.16008212
249	0xbe69b07d	-0.22821231
250	0x3e29f414	0.16597015
251	0xbef2205b	-0.4729031
252	0xbf80941e	-1.0045202
253	0xbdc5d5b5	-0.09659902
254	0x3dc2b82f	0.095077865
255	0xbf086a92	-0.53287613

fc2.bias f4 [128]
0	0xbd78736f	-0.06065696
1	0xbed33767	-0.41253206
2	0xbf494386	-0.7861866
3	0xbf5c7721	-0.86119276
4	0xc02ac007	-2.6679704
5	0xbe0c9043	-0.13726906
6	0x4022dd04	2.5447397
7	0xbec25a40	-0.3795948
8	0xbedd22f2	-0.43190724
9	0xbe79fb69	-0.24412312
10	0xbe2a66a0	-0.16640711
11	0x40556ae9	3.3346503
12	0x405698d1	3.3530772
13	0xbd4070a6	-0.04698243
14	0x405e594d	3.4742005
15	0xbe991f22	-0.29906565
16	0xc02dbd18	-2.7146664
17	0xbe0b0538	-0.1357621
18	0xc096ec0a	-4.7163134
19	0xbe47b3fb	-0.19502251
20	0xbeb1711f	-0.34656617
21	0xbee170a9	-0.44031265
22	0xbeebba57	-0.46040604
23	0xbead612a	-0.33863193
24	0x4037d897	2.8725946
25	0x40458869	3.0864508
26	0xbf75ed5e	-0.9606532
27	0xbf002b8e	-0.5006646
28	0xbfa04637	-1.2521428
29	0x4044ec4b	3.0769222
30	0xbf8aaca1	-1.0833932
31	0xbd03e8cc	-0.032204434
32	0xbf0414b2	-0.5159408
33	0x40506d0c	3.2566557
34	0x40678039	3.617201
35	0xbf4f7640	-0.8103981
36	0xbf096940	-0.53676224
37	0xbe57e1e9	-0.21082272
38	0xbecf096c	-0.40436876
39	0xbeb25116	-0.3482749
40	0xbf01abf2	-0.5065299
41	0xbe9e8d19	-0.30967024
42	0xbd968339	-0.073492475
43	0xbfa79879	-1.3093406
44	0x405a0f37	3.4071786
45	0x406e2de0	3.72155
46	0xbeeed39d	-0.46645823
47	0xbede8bea	-0.4346612
48	0xbed5e71e	-0.4177789
49	0x405326ac	3.2992353
50	0xbf0996d1	-0.5374575
51	0xbee50c70	-0.44736052
52	0xbea6878b	-0.32525286
53	0xc020e514	-2.5139818
54	0x40288d73	2.6336334
55	0x4027394b	2.612872
56	0xbf114fe0	-0.56762505
57	0xbf4a1928	-0.78944635
58	0x4072c13a	3.7930436
59	0xbed33131	-0.41248468
60	0xc0003ef6	-2.0038428
61	0xbe43c631	-0.19118573
62	0xbf47e9b1	-0.7809096
63	0xbf4aba57	-0.7919058
64	0xbe5feb67	-0.21867143
65	0xbf854e94	-1.0414605
66	0xbe98797b	-0.29780182
67	0xbe57cc77	-0.21074091
68	0xc04baea3	-3.182534
69	0xbf2e15a7	-0.6800179
70	0xbe9756b8	-0.2955835
71	0xbe2e5728	-0.17025435
72	0xbee035cc	-0.43791044
73	0xbd60daf0	-0.054896295
74	0xbed1e09a	-0.4099167
75	0xbfbe21c3	-1.4854053
76	0xbebbea04	-0.36701977
77	0xbed0dbfc	-0.40792835
78	0xc016e5e7	-2.3577821
79	0xbed0a29f	-0.4074907
80	0xbec3752e	-0.38175339
81	0xbec9be91	-0.39403203
82	0xbf4e00b0	-0.804698
83	0xbe6c8853	-0.23098879
84	0xbf26752c	-0.6502254
85	0xbebc3969	-0.3676255
86	0xbefd1086	-0.4942667
87	0xbe967e88	-0.2939341
88	0xbda51724	-0.08061054
89	0xbe99cc87	-0.30038854
90	0xbf235283	-0.6379778
91	0xbf2f4794	-0.68468595
92	0xbf0fe36e	-0.56206405
93	0xbd1c6227	-0.038179543
94	0xbecf32b9	-0.40468386
95	0xbeacfbf8	-0.33785987
96	0xc0423aa6	-3.0348296
97	0xbea148e9	-0.3150094
98	0x40816193	4.043161
99	0xbef7b406	-0.48379534
100	0xbe745c44	-0.23863322
101	0xbec5d2ec	-0.38637483
102	0xbf28174d	-0.65660554
103	0x40820f31	4.0643544
104	0xbe0bea79	-0.13663663
105	0x406add12	3.669743
106	0xbe0d5003	-0.13800053
107	0xbe93f351	-0.28896573
108	0x4041ef4a	3.03023
109	0xbdfc3e0c	-0.12316522
110	0xbec7b336	-0.39003915
111	0xbecba5f1	-0.3977504
112	0xbef4f36f	-0.47841975
113	0xbecbe3a6	-0.3982212
114	0xbf38715c	-0.7204797
115	0xbf152d0c	-0.5827186
116	0xbf82ef69	-1.0229312
117	0xbf062d25	-0.52412635
118	0xbebf09cf	-0.3731217
119	0xbdd16f0c	-0.10226259
120	0xbfc0dc16	-1.5067165
121	0xbf3fe51f	-0.74958986
122	0xbeb987f5	-0.3623654
123	0x4051c653	3.2777297
124	0xbe1510d3	-0.14557199
125	0xbe98b74c	-0.29827344
126	0xbe45a93a	-0.19302836
127	0xbedcff76	-0.4316365

fc3.weight f4 [2, 128]
0	0x3d159990	0.0365234
1	0x3d945382	0.0724249
2	0x3e146f77	0.14495645
3	0xbd7dea6b	-0.061991137
4	0xbffd3b54	-1.978373
5	0x3c4678d0	0.012113765
6	0xbea01c17	-0.3127143
7	0x3c4ae99a	0.0123847965
8	0xbda6696e	-0.08125578
9	0xbd0075c7	-0.03136232
10	0xbd469870	-0.04848522
11	0x3f83db96	1.0301387
12	0x3f58d94a	0.84706557
13	0xbc1060d4	-0.008812148
14	0x3fb0b60b	1.3805555
15	0x3e3dbfc4	0.18530184
16	0xbfd4097a	-1.6565392
17	0xbecee56b	-0.40409407
18	0xc087645b	-4.2310004
19	0x3ca0456a	0.01956435
20	0xbd27573f	-0.04085469
21	0x3eb63f2c	0.3559507
22	0xbd687d0c	-0.05675988
23	0x3c2b36fe	0.010450123
24	0x3ed1c960	0.4097395
25	0x3fe38e19	1.777774
26	0xbe162aab	-0.14664714
27	0xbe79bc50	-0.24388242
28	0xc0254416	-2.5822806
29	0x3fad9c7e	1.3563383
30	0x3fa19087	1.2622231
31	0x3fd081dc	1.628963
32	0x3e923fca	0.28564292
33	0x3f019ca0	0.50629616
34	0x3f52f53f	0.82405466
35	0x3dbf39d9	0.093372054
36	0xbdfd6cc7	-0.12374263
37	0xbdb9310d	-0.09042559
38	0x3d9a0fef	0.0752257
39	0xbca0503f	-0.019569514
40	0x3e6d6ef3	0.23186855
41	0x3e8b18c9	0.27167347
42	0x3c49a1b7	0.012306622
43	0xbddd3457	-0.10800999
44	0xc03ffec2	-2.9999242
45	0x3f8bc91e	1.0920751
46	0xbe9f5043	-0.31115922
47	0x3e9881a3	0.29786405
48	0x3d01d342	0.03169561
49	0xbe2c6475	-0.16835196
50	0xbfcadd81	-1.5848848
51	0xbe24c106	-0.16089258
52	0x3ea08b7d	0.3135642
53	0xc006a96a	-2.1040902
54	0x3fbfb580	1.4977264
55	0x3e6b4788	0.22976506
56	0x3e8c88fe	0.27448267
57	0x3f8f08b9	1.1174537
58	0x3fc8ebb6	1.5696933
59	0x3e81608b	0.2526897
60	0xbf091ed2	-0.53562653
61	0xbec1e847	-0.37872526
62	0xbe4d9124	-0.20074898
63	0xbe878b1f	-0.26473328
64	0x3d649dee	0.055814676
65	0x3eb75cfa	0.35813123
66	0x3e8016e2	0.25017458
67	0x3e978499	0.2959335
68	0xbe6b86eb	-0.23000686
69	0x3da044ec	0.07825646
70	0xbccb7e58	-0.024840519
71	0x3dda6471	0.10663689
72	0xbe97cce7	-0.29648516
73	0x3da15abb	0.078786336
74	0xbcfd9229	-0.030953484
75	0x3fe4180d	1.781984
76	0x3c0e4a6d	0.008684737
77	0x3e993120	0.29920292
78	0xc00d88e1	-2.2114794
79	0x3df0189e	0.11723445
80	0xbe8baa30	-0.2727828
81	0x3e9c8254	0.30568182
82	0xbcf38ea0	-0.029731095
83	0xbc300ee8	-0.010745741
84	0x3e61b971	0.22043397
85	0xbcbf1d05	-0.023329267
86	0x3e90d30e	0.28286022
87	0x3d7200a6	0.05908265
88	0x3da75d24	0.08172062
89	0x3a332c52	0.00068349123
90	0xbe101ebf	-0.14074229
91	0xbe5584b8	-0.2085141
92	0xbe8dc898	-0.27692103
93	0x3ced5c95	0.02897481
94	0x3daa93da	0.08328982
95	0xbd431161	-0.047623996
96	0xbf81de30	-1.0145931
97	0xbe9da5a6	-0.30790442
98	0x3fa47f33	1.2851318
99	0x3d952b39	0.07283635
100	0xbe60d0b7	-0.21954618
101	0xbe876b96	-0.2644927
102	0x3e2268ae	0.15860245
103	0x3fa7d350	1.3111362
104	0x3da288db	0.07936259
105	0x3f9a12e2	1.2037013
106	0xbe366f58	-0.17815912
107	0xbc1ee538	-0.009698205
108	0x3f34233b	0.7036626
109	0x3c40000f	0.011718764
110	0x3d9cfac5	0.07665018
111	0x3d206de2	0.039167292
112	0x3e6b7909	0.2299539
113	0x3d45d32a	0.048297085
114	0x3d74da4b	0.059778493
115	0x3e5eab2d	0.21744986
116	0x3f766995	0.96254855
117	0xbe224622	-0.15847066
118	0xbe7a2af7	-0.24430452
119	0x3cb3f13a	0.021965612
120	0x3f5a4f03	0.8527681
121	0xbdc53fd3	-0.09631314
122	0x3e8a4e5f	0.27012917
123	0x400d006b	2.2031505
124	0x3d12ba8a	0.03582243
125	0x3fc198a7	1.5124711
126	0x3da5d70f	0.0809766
127	0x3d0dd84c	0.034630105
128	0x3c64d52e	0.013966842
129	0xbdc6186b	-0.09672626
130	0x3d228517	0.039677706
131	0x3e2cfb29	0.16892685
132	0xc0023373	-2.0343902
133	0x3bedb781	0.0072545414
134	0x3ff86865	1.9406859
135	0xbe8c46f0	-0.2739787
136	0xbd815205	-0.06314472
137	0x3df46a61	0.11934353
138	0x3d1f29a6	0.03885808
139	0x3fb08b31	1.3792478
140	0x3fbcf05f	1.4760855
141	0x3bfda49a	0.0077405693
142	0x3f9f98ca	1.2468503
143	0x3e8d4bfe	0.2759704
144	0xbf95a744	-1.169167
145	0x3fbec7ec	1.4904761
146	0xc0906ef0	-4.513542
147	0x3dc0546f	0.093911044
148	0x3e78948c	0.24275416
149	0x3eb64e6a	0.356067
150	0xbc5c22b5	-0.013436009
151	0x3d4e772d	0.050406624
152	0x3fde9682	1.7389681
153	0x3f08d37f	0.5344772
154	0xbd0dd611	-0.034627978
155	0xbe9fd512	-0.31217247
156	0xc0540cba	-3.3132768
157	0x3f81db4e	1.0145051
158	0x3f51a555	0.818929
159	0x3f8e3c88	1.1112223
160	0x3dd7289e	0.10505794
161	0x400b56f8	2.1771832
162	0x3fe0e498	1.7569761
163	0xbe22ccc9	-0.15898432
164	0xbd179b3a	-0.03701327
165	0xbcbc5e45	-0.02299417
166	0x3bf54712	0.007485279
167	0x3cacae1c	0.021079116
168	0xbe426503	-0.18983845
169	0x3d574dff	0.052564617
170	0x3d761266	0.06007614
171	0x3d924705	0.07142452
172	0x3ffaa744	1.9582295
173	0x3fc5e3e2	1.5460169
174	0x3e1b1f0f	0.15148567
175	0xba965ba9	-0.0011471409
176	0xbe9aef78	-0.30260825
177	0x3ffbdf3b	1.96775
178	0xc028c211	-2.6368449
179	0xbe1e46fb	-0.15456764
180	0xbe67d866	-0.22641143
181	0xc00a76af	-2.1634939
182	0xbee2db15	-0.4430777
183	0x3f9b6ba3	1.2142223
184	0x3eb7afc5	0.3587629
185	0xbf3268fb	-0.6969144
186	0xc0032f88	-2.049776
187	0x3ced14b9	0.028940545
188	0x3c47de8f	0.012199058
189	0xbdbaf336	-0.0912842
190	0x3d209818	0.039207548
191	0x3edf8ef6	0.43663758
192	0x3e0b0a2e	0.13578102
193	0xbdf96362	-0.12177159
194	0xbca5198b	-0.020153781
195	0x3ce04d3e	0.027380582
196	0xc024ca6c	-2.5748549
197	0xbe6dbb04	-0.23215872
198	0x3de6d15b	0.112704
199	0xbdcf3c16	-0.10118882
200	0xbd81a914	-0.06331077
201	0x3cc2ab34	0.023763277
202	0xbd0620d8	-0.032746166
203	0xbfad765e	-1.3551748
204	0xbe90306b	-0.2816194
205	0xbd444c74	-0.047924474
206	0xbfc788ff	-1.5588683
207	0x3e9845c0	0.29740715
208	0xbd6b553e	-0.05745434
209	0x3dbc4cfb	0.0919437
210	0x3d6b8a59	0.057504985
211	0x3e0e9a76	0.1392611
212	0xbb903602	-0.0044009695
213	0xbe8ff6c2	-0.2811795
214	0x3d8dec9c	0.06929895
215	0xbb510c03	-0.0031898029
216	0x3c3ce169	0.011528351
217	0x3e68947f	0.22712897
218	0xbdb411f7	-0.08792489
219	0xbd6ba210	-0.0575276
220	0xbe458f2a	-0.19292894
221	0xbbee014c	-0.007263338
222	0x3c4da9b4	0.012552667
223	0xbd2bcb20	-0.041941762
224	0xbfe1c9fe	-1.7639768
225	0x3d5727ee	0.052528314
226	0x3fcfb358	1.6226606
227	0x3e18c905	0.14920433
228	0xbb45a4d5	-0.0030158062
229	0x39b63b27	0.00034757817
230	0x3db5a2b1	0.088689215
231	0xbfd5f8f9	-1.6716605
232	0xbcd32f36	-0.025779348
233	0x3fb9fce3	1.45303
234	0xbf1e3537	-0.6179995
235	0x3e5c0f96	0.2149032
236	0xbffd8df5	-1.9808947
237	0xbc8eba95	-0.017422954
238	0x3ea01b06	0.31270617
239	0xbe93e2c4	-0.28883946
240	0x3da7cb96	0.08193128
241	0xbe878cea	-0.26474696
242	0x3d415f97	0.047210302
243	0xbd12bb80	-0.035823345
244	0xbf57c251	-0.8428088
245	0xbe1a0b31	-0.15043332
246	0xbc8a408a	-0.016876478
247	0x3d1c23bf	0.038120028
248	0x400f8e0f	2.2430456
249	0xbb25d0be	-0.0025301422
250	0xbd80a9b2	-0.06282367
251	0xbe46ad6c	-0.19402093
252	0x3c5b265a	0.013375843
253	0x4030c5c3	2.7620704
254	0x3e1002f6	0.1406363
255	0xbea1508d	-0.31506768

fc3.bias f4 [2]
0	0x409e34f9	4.9439664
1	0x40a89ee4	5.269396
