weights/strategy_reward_scaling_weights.pth (torch, 72568 bytes, 6 tensors)

fc1.weight f4 [128, 4]
000000 05 a9 f3 bc 90 29 e2 bc 47 80 8d 3e 01 f9 14 bd
       -0.02974368 -0.02760771 0.2763693 -0.03637028
000010 5f c2 14 3d 57 13 ad bd 04 a6 84 bd f7 e3 49 3c
       0.03631818 -0.084509544 -0.064769775 0.012322417
000020 21 d1 f2 bd 1b 5c de 3d e3 b9 36 3f 0e 43 20 be
       -0.118562944 0.108574115 0.7137739 -0.1565058
000030 c9 9c c0 3b a6 83 20 ba cc c0 81 be 69 1c 33 3e
       0.0058780652 -0.0006123133 -0.25342405 0.17491306
000040 2d be 6a 3d cb 22 4d be 59 b7 f1 3e 0d 00 4c be
       0.057310272 -0.20032804 0.47210196 -0.19921894
000050 7e b7 20 3e cf c7 72 bb 82 eb 09 3d 76 fa 4e be
       0.15694997 -0.0037045365 0.033671863 -0.20212731
000060 c0 1f 18 3e c1 b0 f8 bd 32 03 c6 be 59 5d 6b be
       0.14855862 -0.12143088 -0.38674313 -0.22984828
000070 52 3a 0f 3d 25 fa 90 bd bb 15 80 3e 35 d7 06 be
       0.034967728 -0.07078961 0.2501658 -0.13168032
000080 eb ce e4 3f ff 0b 24 3f 5a 81 80 40 97 98 41 3f
       1.7875646 0.64080805 4.01579 0.7562346
000090 33 fc e5 bd e5 66 b7 3d d3 3f a6 bf c9 f9 3e be
       -0.11229744 0.089551724 -1.2988228 -0.18649973
0000a0 92 3c 11 3d 60 23 98 bb bc c8 86 be 86 9f d5 bd
       0.035458155 -0.004642889 -0.26325023 -0.10430817
0000b0 fe 8b b5 3e 5c 5c b2 bd f7 1d 4c 3e 35 1c de be
       0.35458368 -0.087090224 0.19933306 -0.43380895
0000c0 af 93 e2 bd f2 54 df 3d 3d 64 a3 bd 5c ae 69 bc
       -0.11063325 0.10904874 -0.07978103 -0.014262762
0000d0 c0 59 a5 bd c3 dd b7 bc d0 84 06 3f eb 15 8a 3d
       -0.08073759 -0.022444611 0.52546406 0.06742462
0000e0 72 a4 83 be 64 22 c1 3d a1 87 9b c0 a3 78 7d be
       -0.257114 0.094303876 -4.8603063 -0.2475305
0000f0 30 cf 18 bd ed 9f 9a 3c ef b4 d7 3b 51 ca 96 be
       -0.037306964 0.018875087 0.0065828483 -0.2945123
000100 ad e0 58 3e ee 23 41 3d 89 0f 2c 3e 71 85 b8 bd
       0.21179457 0.047153406 0.16802801 -0.09009827
000110 83 de ec bd c7 37 8b 3e 7e b2 9f 3e 27 15 3b bc
       -0.11565878 0.27190992 0.31190866 -0.011418617
000120 9b fe 0b 3e 57 66 91 bd fd 8f 6e bd 82 70 f9 be
       0.13671343 -0.07099598 -0.058242787 -0.4871865
000130 bf 89 f1 bd 60 ea 37 3e c0 69 17 be 17 69 0c 3e
       -0.11793851 0.179605 -0.14786434 0.13711964
000140 1d a7 a6 3e e1 80 54 3d c9 cb f9 3c d3 ec f8 3a
       0.32549372 0.05188072 0.03049268 0.0018991478
000150 c2 15 7c 3e 5d f6 b8 bd 50 e4 6e be a0 f1 d9 3d
       0.24617675 -0.09031365 -0.23329282 0.106417894
000160 da cf 96 3d 88 38 ec bd a6 cb ba bd db fa 1b bd
       0.07363863 -0.1153422 -0.09120874 -0.03808103
000170 b5 78 dc bd 52 f0 ff 3d 7d 99 db bd 2a 47 60 3d
       -0.107652105 0.12497009 -0.10722635 0.054755367
000180 39 01 5c 3e 26 76 ce be 20 5d 5b be a2 8c 3d be
       0.21484841 -0.40324515 -0.21422243 -0.18510678
000190 56 e2 5e bd 08 5a e0 3d f2 d4 fd be 00 fd 14 3e
       -0.05441507 0.10954672 -0.49576527 0.14549637
0001a0 38 c8 68 be ff 51 28 be 8f 22 21 bd 71 67 c9 be
       -0.22732627 -0.16437529 -0.0393396 -0.39336732
0001b0 1c bf 68 3f b9 dc 37 bf 4a 4d 27 40 2c 32 08 c0
       0.9091661 -0.7182117 2.6140924 -2.1280622
0001c0 06 6d 0a 3e 93 77 a1 be 1a bf 1d bf ee c3 33 bf
       0.13518152 -0.3153654 -0.6161972 -0.7022084
0001d0 12 a0 50 3f 56 e4 0b bf 51 a0 84 40 31 92 ae 3f
       0.8149425 -0.5464529 4.14457 1.3638364
0001e0 52 94 02 3f 9b 8d 97 be c2 95 c3 be eb ff 94 be
       0.5100757 -0.29600224 -0.38200194 -0.291015
0001f0 40 87 53 3e 81 7e b2 be fd 7d 15 bf 5b 22 f4 bd
       0.20657063 -0.3486214 -0.5839537 -0.11920615
000200 5f 29 29 be f3 9b f0 bc e2 4a 74 bf ce 9f 91 3d
       -0.16519688 -0.029371237 -0.9542676 0.071105585
000210 1d 06 6a be a4 80 93 bd 86 2a 13 3f 7f 89 45 3e
       -0.22853895 -0.072022706 0.5748676 0.19290732
000220 2b a7 8a be ff b8 33 be b8 15 0f bf b6 14 9e be
       -0.27080664 -0.17551039 -0.55892515 -0.30875176
000230 42 4d fc be be 24 2c 3f e2 f8 77 40 47 18 8d 3f
       -0.49277693 0.67243564 3.8745656 1.1023034
000240 a3 74 44 be f5 55 d7 3c 26 ee f2 be 1d 7d 8d bd
       -0.19185118 0.026286105 -0.47447318 -0.06908629
000250 8f 6b a3 be f7 1b ae 3e c0 6c 74 3f 5e 3a d0 3e
       -0.31917998 0.3400571 0.9547844 0.4066953
000260 1a 9e 0b be 66 c7 90 3d fd 31 70 be 7b 68 5c be
       -0.1363453 0.07069282 -0.23456569 -0.21524231
000270 42 f0 a6 be b8 79 6c bd ea 16 f0 be 24 e9 51 3e
       -0.32605177 -0.057733268 -0.46892482 0.20499092
000280 ea e2 be be a1 47 b3 3d 4f 53 3c bf d1 32 8c 3b
       -0.37282497 0.087538965 -0.7356462 0.0042785187
000290 62 0b 4b bd 61 8a 72 3d 91 70 19 bf 55 e9 6c 3e
       -0.049571402 0.059214 -0.5993739 0.23135884
0002a0 79 84 3f 3e 11 a7 47 bd 49 2d 5a be de ad 2a be
       0.18702878 -0.04874331 -0.21306337 -0.16667888
0002b0 46 e2 90 3e 8f 0d ac bd f8 23 33 3e b2 e4 60 bc
       0.28297633 -0.084010236 0.1749419 -0.0137264
0002c0 e2 3b a4 3e ed 35 36 3d 0d d0 76 be 0a 82 82 be
       0.32076937 0.04448502 -0.24102803 -0.25489837
0002d0 33 cd a4 bc 02 4c be bd 73 9e 3c bf 9c 10 5b 3d
       -0.020117378 -0.09291841 -0.73679274 0.053482637
0002e0 56 60 71 3e 82 8f f6 bd 4a 21 f4 be 81 9d 7e be
       0.23571905 -0.12039091 -0.47681648 -0.2486477
0002f0 85 6f c3 3c cf 5b 1b 3d 6b b6 0b c1 f3 6f 0d bf
       0.023856888 0.037929352 -8.732036 -0.55248946
000300 ac 3e 6f bd bf c8 74 3a de 2d f7 be e9 0c d8 be
       -0.058409378 0.0009337775 -0.4827718 -0.4219735
000310 3c 30 f7 bd bb b1 ff bd ad c9 8a 3f 1c 17 31 bc
       -0.12069747 -0.12485071 1.0842797 -0.010808732
000320 77 a5 d7 bd 44 cb 95 3d 73 09 46 bf 10 8d d4 bd
       -0.10529607 0.073141605 -0.7735817 -0.10378468
000330 02 f6 a9 bf 41 cd 64 3f 80 bf df bf 09 74 0c 40
       -1.3278201 0.8937569 -1.7480316 2.1945822
000340 d7 4a 91 bb 04 b2 7d 3e 97 56 bc 3e 9b 34 e1 3e
       -0.0044339704 0.24774939 0.36784813 0.43985447
000350 a5 12 e0 be ff d2 89 3e 3d 54 da bc 54 c2 fe 3d
       -0.43764225 0.2691879 -0.026651496 0.12439409
000360 8b 6e 9f 3d a5 f4 70 3e ff 23 b0 be 81 29 de 3e
       0.07784756 0.23530824 -0.34402463 0.4339104
000370 a6 5b 31 be ec b7 20 3e 6e e0 be bd d4 50 fc 3e
       -0.17320117 0.1569516 -0.0932015 0.49280417
000380 66 7f 7e bf d6 03 63 3f 78 10 02 40 03 c6 85 3f
       -0.99413145 0.8867773 2.0322552 1.0451053
000390 5c ef 6b 3d 51 19 11 3e 74 db 07 c1 f9 a8 8a bf
       0.057601318 0.14169814 -8.491077 -1.0832816
0003a0 cb 5b 0d be 59 08 b6 bd fb 07 4a be ee d4 01 3e
       -0.13804547 -0.08888311 -0.19729607 0.12678882
0003b0 65 c5 f6 3a 11 f8 6b be 32 a3 22 40 8b 76 a7 bd
       0.0018827139 -0.23043849 2.5412107 -0.08176907
0003c0 3f 0e 25 bd f3 62 3b be 44 04 de 3e 09 fb 69 3e
       -0.04029679 -0.18299465 0.4336263 0.22849669
0003d0 9c 9e 5d be 7d a4 1a 3d 44 4f d8 3e 8f 7a 9b 3e
       -0.21642536 0.037754524 0.42247975 0.30366942
0003e0 e0 f5 db 3e 77 8d 17 3e af 0b a5 40 f2 45 67 3f
       0.42961025 0.14800058 5.157676 0.90341103
0003f0 cf c0 1c 3e f8 9f 85 be 44 9e 2d 3f 61 8b b8 be
       0.15307926 -0.2609861 0.6781962 -0.36043838

fc1.bias f4 [128]
000000 f9 0a 72 bf 86 ea bd be e9 d1 95 bf f8 10 35 bf
       -0.9454799 -0.3709299 -1.1704684 -0.7072902
000010 b6 b6 3e bf b9 c5 39 bf 5a 93 10 bf 06 4a 30 bf
       -0.74497545 -0.72567326 -0.5647484 -0.6886295
000020 be c5 3e c0 a7 3d 5b bf 76 df 0b bf 56 bc a4 bf
       -2.9808192 -0.8564095 -0.5463785 -1.2869976
000030 ba 98 3d bf 96 b9 59 bf 0a 72 0d c0 97 e1 a8 bf
       -0.7406117 -0.85048807 -2.2100854 -1.3193845
000040 2a 09 7e bf 16 92 3f bf 67 80 c0 bf e6 73 20 bf
       -0.99232733 -0.74832284 -1.5039185 -0.62676847
000050 f5 72 95 bf 26 fc 5d bf 42 86 13 bf e4 eb 41 bf
       -1.1675707 -0.86712873 -0.57626736 -0.75750566
000060 d1 17 bb bf e9 53 e4 be fb 69 a3 bf d4 00 98 bf
       -1.4616643 -0.44595268 -1.2766718 -1.1875253
000070 a0 9f 04 c0 4e 77 cc bf 49 05 ae bf 0f e1 ab bf
       -2.0722427 -1.5973909 -1.3595363 -1.3428057
000080 d4 e9 3b bf bb a9 a7 bf 7d c6 c2 bf 89 91 e7 bf
       -0.7340367 -1.3098673 -1.5216824 -1.8091289
000090 43 ef 43 bf 5e dd 98 bf 9e b3 43 bf 0e 4a a4 bf
       -0.7653696 -1.1942556 -0.7644595 -1.28351
0000a0 60 4a 8f bf 54 fa f5 be ca 40 a5 bf 64 44 d6 bf
       -1.1194572 -0.48042548 -1.2910397 -1.6739621
0000b0 ed 18 d2 bf d4 29 bd bf 62 40 33 bf 87 33 c2 bf
       -1.6413857 -1.477839 -0.70020115 -1.5171975
0000c0 6f 19 b1 bf 56 5f 52 bf 50 a7 52 bf 81 f7 49 bf
       -1.3835887 -0.8217672 -0.8228655 -0.78893286
0000d0 7e 1b b2 bf e8 72 ca bf d6 33 ba bf cd c3 aa bf
       -1.391464 -1.5816317 -1.4547069 -1.3341004
0000e0 ba a0 8e bf 70 52 e2 bf 02 3b 7a bf 87 54 9e bf
       -1.11428 -1.7681408 -0.9774629 -1.2369546
0000f0 15 03 ad bf bf 15 99 bf e9 a6 36 c0 18 0a 34 bf
       -1.3516566 -1.1959761 -2.8539374 -0.703279
000100 fc 41 1a bf d7 02 d5 bf 58 d1 38 bf d5 20 05 c0
       -0.60256934 -1.6641492 -0.72194433 -2.080129
000110 64 e8 8b bf f5 5a 12 c0 3a 14 b5 be 97 2f e5 bf
       -1.0930295 -2.2868016 -0.35366994 -1.7905148
000120 8c e4 79 bf c2 85 91 bf 18 6e 97 bf 54 02 ca be
       -0.9761436 -1.1368945 -1.1830473 -0.394549
000130 30 5e 88 bf b5 b3 51 bf fe 8e 26 bf 25 9c 4b bf
       -1.0653744 -0.81914836 -0.6506194 -0.7953513
000140 3e 0b 48 bf d9 b4 66 bf fd 15 6b bf 40 83 ac bf
       -0.78142154 -0.901197 -0.91830426 -1.3477554
000150 e2 4f 90 bf 84 7a ae bf 61 25 ba bf a5 c4 99 be
       -1.1274378 -1.3631139 -1.4542657 -0.3003284
000160 f7 03 46 bf fc ce c6 bf 7a 13 17 bf a9 2f 76 bf
       -0.773498 -1.5531917 -0.59014094 -0.96166474
000170 1f ff 93 bf 7b 03 54 bf 05 59 83 bf 14 d0 7d bf
       -1.1562232 -0.8281781 -1.0261542 -0.9914563
000180 92 45 2d c0 0d a2 37 bf ef 34 6e bf a8 e1 34 bf
       -2.7073712 -0.71731645 -0.9304952 -0.70656824
000190 8a 79 7c bf ec d9 ab bf d0 54 c8 be b0 25 11 bf
       -0.98622954 -1.342588 -0.39127207 -0.5669813
0001a0 f7 a1 c3 bf 79 df cb bf 82 08 37 bf 28 81 38 bf
       -1.5283803 -1.5927573 -0.71497357 -0.72072077
0001b0 89 7f c6 bf 3d 13 53 bf 05 86 57 be 27 1f 39 bf
       -1.5507671 -0.8245123 -0.21047218 -0.7231316
0001c0 f5 b4 60 bf 8e 08 cf bf d4 4f 43 bf 25 69 fa bf
       -0.8777612 -1.6174486 -0.76293683 -1.9563338
0001d0 61 b3 b4 bf 98 07 2c bf 6f 8b 58 bf d8 3d 71 bf
       -1.4117242 -0.6719909 -0.8458776 -0.9423499
0001e0 61 d1 b8 be 80 7d 8f bf ed 7b 4a bf 61 96 65 bf
       -0.36097243 -1.1210175 -0.79095346 -0.89682585
0001f0 73 bf 38 bf 51 55 0f bf 56 b8 0e bf c5 80 88 bf
       -0.7216713 -0.5598956 -0.55750024 -1.0664297

fc2.weight f4 [128, 128]
000000 62 4f 89 be 36 5e 65 be c9 6a 80 3d 00 c8 38 3b
       -0.26818377 -0.2239922 0.06270368 0.0028195381
000010 10 f7 49 3c b0 50 9b bb 47 b7 18 be eb f2 80 3d
       0.012326971 -0.0047398433 -0.14913665 0.06296333
000020 e9 ef c0 bd c0 6e e6 ba 5c e5 87 3c e3 5a 0f bd
       -0.09420759 -0.0017580613 0.01658886 -0.034998786
000030 a9 ac c3 bd 3e 2c a5 bd 90 4f 47 be 0b f2 af bd
       -0.09554417 -0.08065079 -0.19463944 -0.08591088
000040 10 01 61 bc 18 b9 e1 3c 19 aa cd bc 4b 39 a3 be
       -0.0137331635 0.02755408 -0.025105523 -0.3187965
000050 1b 05 69 bd fe c6 84 bd 67 08 75 bd 5a 95 9a bd
       -0.056889635 -0.06483267 -0.059822466 -0.07548018
000060 34 03 04 3e 1a 0b 16 bf c4 3d 83 bc 9a 80 a6 3d
       0.12891847 -0.5861069 -0.016020663 0.081299976
000070 7d 84 57 be 80 30 12 bf 91 c3 14 3e a6 4b 00 bf
       -0.21046634 -0.57105255 0.14527728 -0.5011543
000080 e9 43 85 be 70 02 ba be 51 a6 2c 3e f1 29 d9 be
       -0.26028374 -0.36329985 0.1686032 -0.4241481
000090 29 76 01 bd 46 9d ee be 7c b3 54 be 2a c3 bb bd
       -0.031606827 -0.46604365 -0.20771593 -0.09168084
0000a0 f7 31 98 be fb d5 7b be 1c f2 de bc 2e 0d 10 be
       -0.2972562 -0.24593346 -0.027215056 -0.14067528
0000b0 66 ce 2a 3d 20 01 fa 3e d5 44 94 3d 3d 73 d1 3d
       0.041700743 0.48828983 0.07239691 0.10227058
0000c0 93 9c 02 be 0b 44 b3 bd e8 ec a9 be fb e5 eb be
       -0.12755041 -0.087532125 -0.33188558 -0.460739
0000d0 36 e6 fd be 11 48 9c 3e b2 0f 96 bd e5 68 aa be
       -0.495897 0.30523732 -0.073272124 -0.33283153
0000e0 69 05 ea be 44 af b8 bd 4a 65 70 3d e7 83 75 be
       -0.45707253 -0.09017804 0.058690347 -0.23976098
0000f0 b2 9f 9a bd 38 32 34 be 01 40 8b 3e 77 f8 3d be
       -0.07549991 -0.17597282 0.2719727 -0.18551813
000100 f4 28 9a be 44 c6 c3 be 28 3a c9 be 3e e7 3a 3e
       -0.3010937 -0.38237202 -0.39302182 0.18252274
000110 94 0f 86 be d1 e0 a8 bd 7e 03 43 be 56 51 d5 bc
       -0.2618376 -0.08246005 -0.19044301 -0.02603976
000120 b2 7c 53 3d dc 94 71 be e6 f9 d0 3e 96 fd 0f 3d
       0.05163259 -0.23591942 0.40815657 0.035153948
000130 94 de 28 be 1d 24 8f bd 33 1a eb 3d f3 2c f4 be
       -0.16491157 -0.0698931 0.114796065 -0.47690544
000140 00 94 f4 3c 22 f6 0a be 80 df ea 3a ab 23 eb bc
       0.029855728 -0.13570455 0.0017919391 -0.028703531
000150 2b 3a bc be 60 15 a2 bb 1c d7 8b 3e 7e da fe be
       -0.3676313 -0.0049463958 0.27312553 -0.4977607
000160 5a 9d ad be 57 9b d0 be 86 bd 21 be 81 d7 63 3e
       -0.33909112 -0.40743515 -0.15794954 0.22250177
000170 50 b9 f4 3b 60 45 32 bb b4 28 01 bf 50 c2 dc bc
       0.00746838 -0.0027201995 -0.50452733 -0.026948124
000180 1d f0 10 bd d2 8b c3 be 4a 3d a2 be 08 d1 29 be
       -0.03538524 -0.38192612 -0.31687385 -0.16583645
000190 8c 4d aa 3e 70 8b 2b bc df 80 e9 be 71 b3 38 3e
       0.3326229 -0.010470256 -0.45606133 0.18037201
0001a0 98 47 09 3f fc bc 51 3e 4a c1 1a 3d b1 86 1f be
       0.5362487 0.20482248 0.03778199 -0.15578724
0001b0 3b 80 02 bc 29 e2 f3 be ad db 95 be a0 cd f1 3c
       -0.007965143 -0.47633484 -0.29269162 0.029516995
0001c0 a8 76 6e 3d 48 30 23 bd 8a 7f 15 3d 18 19 41 3e
       0.05821863 -0.039840966 0.036498584 0.18857229
0001d0 51 9c 11 bd 79 06 0a be aa 03 9b be 80 c3 0c bf
       -0.035549466 -0.13479032 -0.30276233 -0.5498581
0001e0 11 f8 73 bd a6 af 28 3d f1 50 b4 3d a3 47 a9 be
       -0.059562746 0.041183136 0.08804501 -0.33062467
0001f0 65 46 a8 be 6c 7b 81 be dd 4a 62 be 98 8c 73 bc
       -0.32866207 -0.25289476 -0.2209887 -0.014865063
000200 6a 14 d9 be d3 cc af bd b9 95 cc be 1e 0a e8 3c
       -0.42398387 -0.08583989 -0.3995798 0.028325137
000210 ef d8 8c 3e 37 c2 1e 3e 42 40 81 be d1 29 01 3f
       0.27509257 0.15503775 -0.25244337 0.5045443
000220 6a ef 71 bf b6 c9 2c 3e f9 61 a9 bd 1a f3 54 bc
       -0.9450594 0.16873822 -0.0827064 -0.012997413
000230 b1 5c 81 3e 67 2e 8d 3c 76 18 2e bf 8d 30 15 3d
       0.2526603 0.01723404 -0.68006074 0.036423255
000240 7c 53 2f bd cd f7 20 be 96 81 fc be 26 1f ae 3e
       -0.042804226 -0.15719528 -0.49317616 0.3400814
000250 67 c8 0d be 79 6b e0 3d fa 06 04 be 6c 9d 81 3e
       -0.13845979 0.10957999 -0.12893286 0.25315416
000260 7e 2d d7 bc b4 97 62 be c9 5b cf bd cb c6 f0 3d
       -0.02626681 -0.22128183 -0.101249285 0.11756667
000270 30 96 77 3e d7 63 b0 3e 74 93 db be b7 47 e5 bd
       0.24178386 0.34451172 -0.42885935 -0.11195319
000280 61 e7 ce 3d d2 64 1d bd e4 84 92 bd c6 9c 95 3f
       0.10102726 -0.038426228 -0.07154253 1.1688468
000290 24 35 5b 3e f0 8d 4b bd 81 2f b5 bd 5a 10 fe 3d
       0.2140699 -0.04969591 -0.08846951 0.124054626
0002a0 09 c0 c1 bd ca 50 25 be 14 5d e8 3d 93 b0 49 bf
       -0.09460456 -0.161441 0.11345878 -0.78785056
0002b0 88 34 2d be 97 24 b7 be 73 71 d4 be 6d dc 94 c0
       -0.1691457 -0.35770103 -0.41492805 -4.6519074
0002c0 17 63 f5 bd f5 f0 56 be 84 55 92 be 5e 3e 1f bf
       -0.119817905 -0.20990355 -0.28580868 -0.6220454
0002d0 84 11 30 3d 6e 41 25 3c 2a e4 0c bf 0a 70 bf 3d
       0.042985454 0.0100864 -0.5503565 0.09347542
0002e0 64 4a 18 3e 1c ff 93 bf 71 4c 67 3e 33 1d 7c bd
       0.14872128 -1.1562228 0.22587754 -0.061551284
0002f0 0e 34 af 3e 21 78 71 be f1 72 34 be 36 2c a1 bd
       0.34219402 -0.23580982 -0.17621972 -0.07869761
000300 5f 60 80 3e ed d8 86 c0 aa 58 e2 bd 55 56 8b bf
       0.25073525 -4.21398 -0.110520676 -1.0885721
000310 4b ac af bd 9f e5 a5 3e eb 71 b7 3b 96 6d d0 bf
       -0.08577784 0.3240175 0.005598297 -1.6283443
000320 f6 17 d0 3d 3d e5 dd 3e 40 00 29 3c 58 e4 58 be
       0.1016082 0.43338957 0.010315001 -0.21180856
000330 6f 41 5b bd 91 99 66 bd 99 9c 26 be 78 38 99 3e
       -0.0535292 -0.056298796 -0.16270675 0.29925895
000340 85 ff bc 3e 94 d3 1f be 6a ce d5 bd 85 a9 a1 3d
       0.36913696 -0.15608054 -0.10439761 0.078936614
000350 15 9b 4f be fc 49 31 be 36 b9 04 3e a2 3b 40 3d
       -0.20274003 -0.17313379 0.12961277 0.04693187
000360 68 22 11 bd 9d 32 ae bd 83 0f 79 3e 58 48 9c be
       -0.035433203 -0.085057475 0.24322324 -0.30523944
000370 73 71 19 be 59 68 ad 3e b2 28 a7 be 84 6e 1c 3e
       -0.14984684 0.33868673 -0.32648236 0.15276533
000380 46 9a 2c bf eb 9c 95 3d 32 a6 ac be 90 3f 3e bd
       -0.674229 0.0730532 -0.33720547 -0.046447337
000390 13 9e 40 be 92 ca c8 3e 6e 6a 94 bd 9f ef 93 bd
       -0.188103 0.3921705 -0.07246862 -0.072234385
0003a0 84 c0 11 3e be ab 3d c0 e0 dd 02 3e 17 dc 05 be
       0.14233595 -2.9636073 0.12779951 -0.13072239
0003b0 47 19 9c bf 48 64 dc bc 45 fd 90 bd 1b 67 e6 bd
       -1.2195214 -0.026903287 -0.07079557 -0.112501346
0003c0 c2 7e 84 bd eb 81 aa bf 64 da 1b 3d 95 92 83 bd
       -0.0646949 -1.3320898 0.03805007 -0.06424443
0003d0 ee a0 d0 bd d6 88 22 3e 37 1c 11 bc eb 4b 2b 3e
       -0.10186945 0.15872511 -0.008856825 0.16728179
0003e0 4d fe 90 3d 32 3b db be 9d ca 54 3e 91 d2 32 bd
       0.07079754 -0.428186 0.20780416 -0.043657843
0003f0 c3 0f d7 3d ed 43 eb bd 3b f0 cc 3c a5 1f 56 3e
       0.10501053 -0.11487565 0.025016895 0.20910509

fc2.bias f4 [128]
000000 90 09 5d bf dd 32 2e 40 f7 d7 95 be 6c 56 e1 bd
       -0.86342716 2.7218544 -0.2926633 -0.11002812
000010 1c 7b cf be 0b c0 ac be aa 81 8e 3e d0 37 4a 40
       -0.40523612 -0.33740267 0.278333 3.1596565
000020 8e a2 33 bf 42 be b5 bd 01 20 d3 bd c6 ff b2 be
       -0.70169914 -0.088741794 -0.10308839 -0.34960765
000030 62 d2 a6 be d1 15 8e bf a9 75 9f be 7d 44 47 40
       -0.32582384 -1.1100408 -0.31144455 3.1135552
000040 36 7f 86 bd 14 62 a9 be ed b8 ee 3f 1f 39 08 bf
       -0.06567232 -0.3308264 1.8650185 -0.5321216
000050 da 93 34 be 3c 8c 94 3f 3a 6a cf be f0 ef b3 be
       -0.17634526 1.1605296 -0.40510732 -0.35143995
000060 4c db ac bd 10 4c 38 40 63 cf 63 40 84 c9 ea bd
       -0.08440265 2.8796425 3.5595329 -0.11464217
000070 8c 48 b8 be 26 db ea be 4c 35 e7 be 78 dd 74 40
       -0.3599285 -0.45870322 -0.4515785 3.8260174
000080 76 08 c0 bd 4b 43 ab be 4c 3e 84 bc 87 d3 06 bf
       -0.09376614 -0.33449778 -0.016142987 -0.52666515
000090 2e 7f d7 be 28 39 6e 40 5e b1 c4 be e7 57 02 bf
       -0.42089218 3.7222385 -0.3841657 -0.5091538
0000a0 b6 ab 7e be 17 32 0d be 64 39 90 be 14 e0 b9 be
       -0.2487019 -0.13788639 -0.28168786 -0.3630377
0000b0 03 f9 39 be bb 22 e3 bf 40 cb 56 be 44 8f 78 be
       -0.18161397 -1.7744974 -0.20975971 -0.24273401
0000c0 ee 0f e3 be ce 33 53 40 79 f6 e0 be 94 fb 2e be
       -0.4434809 3.300037 -0.43938044 -0.17088157
0000d0 d6 0e 96 be 82 17 99 bf 5c 6b 52 bd 9c d8 0c bf
       -0.29308194 -1.1960299 -0.051371917 -0.5501802
0000e0 c8 e0 d2 be 5f 71 7c bf a4 d1 c4 be b5 f6 e1 bd
       -0.4118712 -0.9861049 -0.38441193 -0.11033384
0000f0 e0 58 a4 be c7 17 57 be 02 87 eb be af c9 02 bf
       -0.32099056 -0.21005164 -0.4600144 -0.51088995
000100 4d 28 11 bf 5e 66 0b be 11 04 d8 bd cf 5c b4 be
       -0.5670212 -0.13613269 -0.105476506 -0.35227057
000110 d6 06 aa be 3c 63 56 be ac f0 67 be 0a c7 d8 bd
       -0.3320834 -0.20936292 -0.22650403 -0.10584839
000120 bf be d0 be 17 e0 de be 09 63 cf be 52 50 11 c0
       -0.40770528 -0.43530342 -0.40505245 -2.2705274
000130 15 0f 3e bf ba 97 3f 40 f5 f7 c5 be 30 73 aa be
       -0.74241763 2.9936357 -0.3866574 -0.33291006
000140 d5 44 4a 40 75 05 a8 bc 62 0e 15 be f0 3e d8 be
       3.1604512 -0.020510415 -0.14556268 -0.42235518
000150 89 4f 21 bf 1f 7f 17 40 c9 c7 35 40 35 3a 77 be
       -0.63011986 2.3671339 2.840319 -0.24143298
000160 fe f9 d6 be 06 38 af bf 8e 87 17 bf 06 6d d4 be
       -0.41987604 -1.3688972 -0.59191215 -0.41489428
000170 89 d8 58 be e8 94 1a bf 55 48 57 40 cf 46 cb be
       -0.21176352 -0.6038346 3.3637898 -0.3970246
000180 cd 97 f8 bf 07 c4 9d be d4 34 4e 40 46 ab ca be
       -1.9421326 -0.3081362 3.2219744 -0.39583796
000190 52 ad 1b 40 81 99 38 40 4a 2c ed be ac 4d e5 bd
       2.4324536 2.8843691 -0.46322852 -0.11196455
0001a0 d2 30 cd be 54 9e e6 be c9 d3 b4 be cf ec 6a be
       -0.4007631 -0.4504267 -0.3531783 -0.22941898
0001b0 de 67 c8 be 23 51 41 bf 38 d0 b5 be 96 1f dd be
       -0.39141744 -0.7551443 -0.3551042 -0.4318816
0001c0 93 7f a9 bd a3 8f 29 40 24 55 a2 be 36 28 a1 bd
       -0.08276286 2.649392 -0.31705582 -0.07868998
0001d0 ba 8f b7 bf e3 72 38 bf ac b4 80 bd a7 c2 2b 40
       -1.4340737 -0.72050303 -0.062844604 2.6837556
0001e0 0e ff 95 be 8f a8 f8 be 54 0b b7 be b6 97 a0 c0
       -0.29296154 -0.485661 -0.3575083 -5.0185194
0001f0 30 26 7d be ff dc 1e bf c4 21 94 bd 7b d1 99 bd
       -0.24721599 -0.62055963 -0.07233003 -0.07510658

fc3.weight f4 [2, 128]
000000 aa d5 42 3e 33 c0 f5 3f 28 93 fd 3c cc 8a 61 3c
       0.19026819 1.919928 0.030953959 0.013766002
000010 60 38 cc 3c 57 63 e5 bc f9 aa 96 3e 70 e8 b5 3f
       0.024929225 -0.02800147 0.29427317 1.4211559
000020 1d 8d 05 3e 00 d0 74 3d d0 07 2e be 3a 9c 8a 3e
       0.13042112 0.059768677 -0.16995168 0.27072316
000030 16 56 7e be 07 4e 08 be 2f b9 72 3d 0b d5 4b 3f
       -0.24837527 -0.13311015 0.059258636 0.7962195
000040 0a 4d 93 3c d3 a9 6b be fb c1 09 3f 10 a5 e7 bd
       0.017981071 -0.23014002 0.53811616 -0.1131078
000050 57 10 5f be ac 3d bd 3e ca 56 f9 bb dd 71 79 be
       -0.21783577 0.36961114 -0.007609223 -0.24359842
000060 4f d8 90 bd ce 1c dd 3f f5 c4 c3 3f e3 b8 ea 3c
       -0.070725076 1.7274415 1.5294482 0.028652614
000070 d9 da 92 bd bc 2d 41 3e bb 7b 9b 3d 57 62 cd 3f
       -0.07170648 0.18865103 0.07591959 1.6045636
000080 c0 fd cb bd b2 75 b4 bd 94 c4 de bc f9 bd 8e bc
       -0.09960508 -0.08811511 -0.027193345 -0.01742457
000090 45 14 bf bc 0a 73 67 c0 42 ef 8a 3e 06 5f d1 bc
       -0.023325095 -3.6163964 0.27135664 -0.025558006
0000a0 54 a7 13 3e 91 bb 8e be da ee 55 3d 90 ba b9 bc
       0.144193 -0.27877477 0.05222974 -0.022671968
0000b0 01 f2 d8 3d ff fb 85 bf 24 b2 d1 bc 82 f8 d2 3c
       0.105930336 -1.0467528 -0.02559764 0.025753263
0000c0 0f 6b 8c 3e d5 9d fd 3f 97 19 a0 be 07 35 ec bc
       0.2742543 1.9813792 -0.31269524 -0.02883388
0000d0 af 60 60 bc 27 d2 10 3e 64 ce 96 3c 23 4e 15 3d
       -0.013694926 0.14142667 0.018408962 0.03645147
0000e0 41 59 2a bc e8 df 09 bf 0e 38 6c 3d 9b 51 f4 bb
       -0.010397256 -0.5385728 0.057670645 -0.007456017
0000f0 3f d5 14 be ef d1 6e bc 9e 17 80 be 4e ea ac be
       -0.14534472 -0.014576419 -0.25018018 -0.3377251
000100 c6 85 4a 3e 88 9b 9c bb e3 39 02 3d e8 c9 aa 3d
       0.19777593 -0.004779283 0.031793486 0.08339292
000110 c1 aa 04 3d 5c 41 d7 3c 9c 5e 30 bc 12 bd 53 bc
       0.032389406 0.026276283 -0.010764744 -0.012923496
000120 b3 6b 9d be fa 11 98 be 91 7c 37 3e 0d 9c 7d c0
       -0.3074623 -0.29701215 0.17918612 -3.9626496
000130 6d 3a d0 3f e2 55 14 40 1b 15 99 be 97 bd a1 3e
       1.626783 2.3177419 -0.29898915 0.31589958
000140 5e 28 9a 3f a5 78 ff 3c 67 10 b5 3c 72 4a 96 3e
       1.2043569 0.031185457 0.022102548 0.29353672
000150 db 18 af bd 26 e1 e3 3f cf 23 fd 3d de e1 94 3e
       -0.08549663 1.7803085 0.123603456 0.29078573
000160 9e 96 37 bb 4c 3d 8c bf b0 5d 8e be 67 61 8a be
       -0.0028013359 -1.0956206 -0.27805853 -0.27027437
000170 9a cd d5 bd 76 8c 2d be d5 df 77 3f 79 cd 28 bc
       -0.10439606 -0.16948113 0.96825916 -0.010302895
000180 d7 55 76 bf 78 b3 29 3d 29 00 a9 3f 21 fe fb bd
       -0.9622473 0.04143092 1.3203174 -0.123043306
000190 ec 3f 0d bd 04 81 a3 bf 8b 1c 4e 3e 9f de 01 3e
       -0.03448479 -1.2773747 0.20128076 0.1268258
0001a0 a5 95 9f be 7d eb 1a 3e ac f2 90 be 00 53 78 ba
       -0.31168857 0.15128894 -0.28310144 -0.0009472817
0001b0 f4 d5 bb 3d d3 7d 71 bd e1 66 49 3e 98 ec 9b 3e
       0.09171668 -0.058957886 0.19668151 0.30453944
0001c0 7f b4 a7 3c 6f 74 10 40 d1 d1 77 3e f1 7a b4 3c
       0.02047181 2.2571065 0.24201132 0.02203128
0001d0 c8 f6 ce bd 16 36 9a 3d 28 3d de 3d 60 dc ac 3f
       -0.101056635 0.07529847 0.108515084 1.3504753
0001e0 30 1c 78 3d 96 ff 90 3e b4 90 9d 3e d1 8b 67 c0
       0.060573757 0.28319997 0.30774462 -3.6179087
0001f0 24 ed 06 3d 4d 39 44 3e 30 8c b3 3c 44 ad e3 3d
       0.032941 0.19162484 0.021917433 0.11117032
000200 8e e1 8f be 79 78 1b 3f f2 5b a5 39 8c 2b 64 3d
       -0.28101772 0.607307 0.00031539757 0.055705592
000210 84 4e 99 3e ae 3f ca 3d 73 7e eb 3d 4f d7 1f c0
       0.29942715 0.09875427 0.11498728 -2.4975164
000220 66 64 90 3e 46 d3 35 3d 8e 9c 48 3d 27 9b 2b 3d
       0.28201598 0.04439094 0.048977427 0.04189601
000230 e5 5d 93 be 85 57 7a 3c 74 b9 96 3e 17 9d 15 40
       -0.28782573 0.015279655 0.29438365 2.337713
000240 2a 30 28 3d c1 fd c0 3c 11 ad 83 3f 8b e4 a6 be
       0.041061558 0.0235585 1.0287191 -0.3259624
000250 e2 44 00 3f 94 2c 2c 3f 47 14 86 bb 55 f4 98 be
       0.50105107 0.6725552 -0.0040917727 -0.2987391
000260 5b 4d 42 3a 6b 05 83 3f f6 2c f8 3f d9 70 32 3d
       0.00074120396 1.0236028 1.9388721 0.04356465
000270 28 cd 43 bc c4 a2 17 bd 9c 8c 55 3b 5b 6f 00 40
       -0.0119507685 -0.03702046 0.003258503 2.0067966
000280 44 b1 4c bd 44 f8 74 3e bb 20 88 3c cf 54 52 3e
       -0.04997374 0.23922831 0.01661717 0.20540164
000290 54 e9 ab 3d 5c e9 a7 3f e9 7e 1a be 85 c9 ab be
       0.08394113 1.3118091 -0.15087475 -0.33552185
0002a0 00 5e af 3e 3d f0 d8 bd 43 f9 95 be 72 2c 83 be
       0.34251404 -0.10592697 -0.29291734 -0.25619847
0002b0 81 ff 2c 3b c7 0a 2c c0 c6 c3 be 3c 81 50 71 3e
       0.002639741 -2.6881578 0.023286711 0.23565866
0002c0 49 9c de 3e ee 98 c4 3f b8 aa 05 3e 1e 87 a8 bd
       0.4347861 1.535917 0.13053405 -0.082288966
0002d0 65 70 50 3e aa 74 cc bd 95 5c c6 3b ee 6b 84 3e
       0.20355375 -0.099831894 0.006053517 0.25863594
0002e0 c7 bb 9c 3e 7f 4d f1 bd 0f 6e 8f 3e a0 e4 b0 bb
       0.30612013 -0.11782359 0.28013656 -0.005398348
0002f0 36 50 5e bd 89 3d b4 3d 5d 38 12 3e 7d 19 8a 3e
       -0.054275714 0.088007994 0.14279313 0.2697257
000300 46 13 a8 bd 37 01 36 bd f9 1d 84 bc 7d b2 fc bd
       -0.08206801 -0.044434752 -0.016127573 -0.123387314
000310 21 30 3a be 6e a9 8f 3d 55 0b b6 bc 6f d0 84 3d
       -0.18182422 0.07014738 -0.0222222 0.06485068
000320 ce e9 67 3d fe 5e 32 3d 58 a0 38 3d 8a d7 91 bf
       0.056619458 0.043547623 0.04507479 -1.1393902
000330 8d 96 30 3f d9 ae 3d 3f 90 26 0f be 68 19 d1 bd
       0.6897972 0.7409492 -0.13979554 -0.10209924
000340 de b3 be 3f a4 2e 81 3c 7f ab 08 3d e4 b5 3f 3d
       1.4898641 0.01576931 0.033366676 0.046804324
000350 94 61 0e 3f 99 ff a8 bf 68 f1 16 40 da 64 ce be
       0.5561764 -1.3203002 2.3584843 -0.4031132
000360 9a 02 5b be 53 de c0 c0 a0 a5 8b 3e 6a 19 38 3d
       -0.21387711 -6.027139 0.272748 0.04494611
000370 77 1a 0d be 11 8e 90 3e a5 24 52 c0 f5 12 95 3e
       -0.13779627 0.28233388 -3.2834866 0.29116026
000380 5d 3d 37 3f 87 ec bf 3c 60 82 b7 3f 25 37 71 bd
       0.7157801 0.023428215 1.4336662 -0.05889048
000390 27 ed be 3f 5a 76 24 40 4f d2 4e 3e 04 89 8c 3a
       1.4916123 2.5697236 0.20197414 0.0010721986
0003a0 6a 16 20 bd b4 4c 14 3e eb 92 76 be e9 b3 28 3e
       -0.039083876 0.14482385 -0.24079482 0.1647488
0003b0 6f 37 38 3d 08 b8 d0 be d0 f6 ba 3b 40 82 00 3e
       0.04497474 -0.40765405 0.005705692 0.12549686
0003c0 35 0c b8 3b f2 90 48 3e c9 5e 08 be 2d 43 48 3d
       0.0056166896 0.19586542 -0.13317408 0.04889219
0003d0 23 91 eb bc bb 73 16 be 75 3e 3a bc cf 5d e6 3f
       -0.02875573 -0.14692585 -0.01136743 1.7997378
0003e0 be 67 b9 3c b7 fe 88 3e b0 af 8f 3d e4 1e 87 c0
       0.022632476 0.26756832 0.070159316 -4.222521
0003f0 c4 9f 1c be 05 e0 af bd ec 0f cb bb e8 d0 9d bc
       -0.15295321 -0.0858765 -0.0061969664 -0.019264653

fc3.bias f4 [2]
000000 40 b1 83 40 aa 76 8a 40
       4.115387 4.3269854
